tflm/tensorflow/lite/micro/examples/cifar10/models/cifar10_pruned_int8.tflite (tflite, 122480 bytes, 58 tensors)

torch.fx.graph_module.GraphModule.__new__.<locals>.GraphModuleImpl/torch.nn.modules.conv.Conv2d_conv1; i1 [16, 3, 3, 3] scale=0.0365865 zero_point=0
0	0xce	-1.8293251
1	0x0e	0.512211
2	0x0c	0.439038
3	0xe5	-0.9878355
4	0x1b	0.9878355
5	0x00	0.0
6	0xde	-1.2439411
7	0x04	0.146346
8	0x26	1.390287
9	0x19	0.91466254
10	0x08	0.292692
11	0x05	0.1829325
12	0xee	-0.658557
13	0x3b	2.1586034
14	0xc4	-2.19519
15	0x20	1.170768
16	0x12	0.658557
17	0xd7	-1.5000465
18	0xff	-0.0365865
19	0x01	0.0365865
20	0xcd	-1.8659115
21	0xf8	-0.292692
22	0x2c	1.6098061
23	0xa9	-3.1830256
24	0x15	0.7683165
25	0x21	1.2073545
26	0x13	0.6951435
27	0x0e	0.512211
28	0xdd	-1.2805275
29	0x09	0.3292785
30	0x3d	2.2317765
31	0xff	-0.0365865
32	0xe4	-1.024422
33	0x20	1.170768
34	0xef	-0.62197053
35	0xd8	-1.46346
36	0x0d	0.4756245
37	0x10	0.585384
38	0xe5	-0.9878355
39	0x1f	1.1341815
40	0xd6	-1.536633
41	0xed	-0.6951435
42	0xde	-1.2439411
43	0xed	-0.6951435
44	0x0d	0.4756245
45	0x06	0.219519
46	0xe5	-0.9878355
47	0x05	0.1829325
48	0xe9	-0.8414895
49	0x1c	1.024422
50	0x29	1.5000465
51	0x12	0.658557
52	0x29	1.5000465
53	0xf4	-0.439038
54	0xd8	-1.46346
55	0xf7	-0.3292785
56	0xfe	-0.073173
57	0x25	1.3537005
58	0xf5	-0.40245152
59	0x2c	1.6098061
60	0xd5	-1.5732195
61	0x18	0.878076
62	0x03	0.1097595
63	0x57	3.1830256
64	0x3a	2.1220171
65	0x2c	1.6098061
66	0xc8	-2.048844
67	0x81	-4.646486
68	0xbb	-2.5244687
69	0x23	1.2805275
70	0x0a	0.365865
71	0x03	0.1097595
72	0xf1	-0.5487975
73	0x26	1.390287
74	0xfa	-0.219519
75	0xff	-0.0365865
76	0xeb	-0.7683165
77	0xf2	-0.512211
78	0x07	0.2561055
79	0x23	1.2805275
80	0x00	0.0
81	0xed	-0.6951435
82	0xfd	-0.1097595
83	0xf7	-0.3292785
84	0xf7	-0.3292785
85	0x02	0.073173
86	0xfe	-0.073173
87	0x15	0.7683165
88	0x06	0.219519
89	0x15	0.7683165
90	0xfe	-0.073173
91	0x0e	0.512211
92	0xfb	-0.1829325
93	0xfa	-0.219519
94	0xff	-0.0365865
95	0x12	0.658557
96	0xe7	-0.91466254
97	0xfb	-0.1829325
98	0x06	0.219519
99	0x04	0.146346
100	0x00	0.0
101	0xef	-0.62197053
102	0xe6	-0.951249
103	0xe9	-0.8414895
104	0x03	0.1097595
105	0xfa	-0.219519
106	0xf5	-0.40245152
107	0xff	-0.0365865
108	0x08	0.292692
109	0xe9	-0.8414895
110	0xdb	-1.3537005
111	0xdd	-1.2805275
112	0xf0	-0.585384
113	0xfc	-0.146346
114	0x04	0.146346
115	0x1b	0.9878355
116	0xe6	-0.951249
117	0x0c	0.439038
118	0x0a	0.365865
119	0x15	0.7683165
120	0xff	-0.0365865
121	0x32	1.8293251
122	0x16	0.80490303
123	0x10	0.585384
124	0xd0	-1.756152
125	0xf3	-0.4756245
126	0xd9	-1.4268736
127	0xec	-0.73173
128	0xf7	-0.3292785
129	0x32	1.8293251
130	0x18	0.878076
131	0x46	2.561055
132	0xfc	-0.146346
133	0xee	-0.658557
134	0xfb	-0.1829325
135	0xf0	-0.585384
136	0x00	0.0
137	0x21	1.2073545
138	0xee	-0.658557
139	0x21	1.2073545
140	0x11	0.62197053
141	0x07	0.2561055
142	0xf7	-0.3292785
143	0x01	0.0365865
144	0xf3	-0.4756245
145	0x0e	0.512211
146	0xe5	-0.9878355
147	0xf0	-0.585384
148	0x0d	0.4756245
149	0x92	-4.024515
150	0x4b	2.7439876
151	0xfd	-0.1097595
152	0xc4	-2.19519
153	0xe1	-1.1341815
154	0x33	1.8659115
155	0x11	0.62197053
156	0x0c	0.439038
157	0x4d	2.8171606
158	0xdb	-1.3537005
159	0xe5	-0.9878355
160	0x19	0.91466254
161	0xea	-0.80490303
162	0xe1	-1.1341815
163	0xf9	-0.2561055
164	0xea	-0.80490303
165	0x15	0.7683165
166	0x13	0.6951435
167	0x2f	1.7195655
168	0xe6	-0.951249
169	0xf0	-0.585384
170	0xe8	-0.878076
171	0xe8	-0.878076
172	0xe7	-0.91466254
173	0xff	-0.0365865
174	0x1c	1.024422
175	0x24	1.317114
176	0x18	0.878076
177	0xee	-0.658557
178	0xe3	-1.0610086
179	0xdc	-1.317114
180	0x07	0.2561055
181	0x09	0.3292785
182	0xf5	-0.40245152
183	0x0b	0.40245152
184	0x26	1.390287
185	0xfc	-0.146346
186	0xf2	-0.512211
187	0x28	1.46346
188	0xd8	-1.46346
189	0xff	-0.0365865
190	0xf1	-0.5487975
191	0x1d	1.0610086
192	0xea	-0.80490303
193	0x11	0.62197053
194	0x1a	0.951249
195	0xfa	-0.219519
196	0xf8	-0.292692
197	0x0e	0.512211
198	0xfe	-0.073173
199	0xe8	-0.878076
200	0xfc	-0.146346
201	0x2f	1.7195655
202	0xcd	-1.8659115
203	0xd7	-1.5000465
204	0x12	0.658557
205	0xf9	-0.2561055
206	0xee	-0.658557
207	0xe7	-0.91466254
208	0xfb	-0.1829325
209	0x28	1.46346
210	0x26	1.390287
211	0xc8	-2.048844
212	0xd2	-1.682979
213	0x2a	1.536633
214	0x1e	1.097595
215	0xe7	-0.91466254
216	0x0b	0.40245152
217	0xf3	-0.4756245
218	0xfa	-0.219519
219	0x12	0.658557
220	0xe8	-0.878076
221	0x07	0.2561055
222	0x19	0.91466254
223	0xfa	-0.219519
224	0x11	0.62197053
225	0xdc	-1.317114
226	0xee	-0.658557
227	0xec	-0.73173
228	0x14	0.73173
229	0x0f	0.5487975
230	0x0e	0.512211
231	0x1e	1.097595
232	0x14	0.73173
233	0xf7	-0.3292785
234	0xf8	-0.292692
235	0x07	0.2561055
236	0xfa	-0.219519
237	0xdb	-1.3537005
238	0xd6	-1.536633
239	0xfe	-0.073173
240	0x28	1.46346
241	0xf5	-0.40245152
242	0x18	0.878076
243	0x0c	0.439038
244	0x17	0.8414895
245	0x06	0.219519
246	0x14	0.73173
247	0xfb	-0.1829325
248	0xee	-0.658557
249	0xe7	-0.91466254
250	0xff	-0.0365865
251	0xea	-0.80490303
252	0x1e	1.097595
253	0x21	1.2073545
254	0x02	0.073173
255	0x03	0.1097595

torch.fx.graph_module.GraphModule.__new__.<locals>.GraphModuleImpl/torch.nn.modules.container.Sequential_layers/src.models.Block_0/torch.nn.modules.conv.Conv2d_conv1; i1 [16, 1, 1, 16] scale=0.013679 zero_point=0
0	0xe2	-0.41037
1	0xe6	-0.355654
2	0x01	0.013679
3	0x1c	0.383012
4	0x04	0.054716
5	0xe5	-0.369333
6	0x16	0.30093798
7	0xe0	-0.437728
8	0xf4	-0.164148
9	0x0d	0.177827
10	0xf8	-0.109432
11	0x00	0.0
12	0xec	-0.27357998
13	0x05	0.068394996
14	0xe4	-0.383012
15	0x24	0.49244398
16	0xcc	-0.711308
17	0x2c	0.60187596
18	0xfc	-0.054716
19	0xf0	-0.218864
20	0xeb	-0.28725898
21	0xf7	-0.123110995
22	0x7f	1.7372329
23	0x34	0.711308
24	0x3f	0.86177695
25	0xe4	-0.383012
26	0xc3	-0.83441895
27	0xd6	-0.57451797
28	0xea	-0.30093798
29	0x18	0.328296
30	0x0b	0.15046899
31	0x36	0.738666
32	0xf1	-0.205185
33	0x04	0.054716
34	0x05	0.068394996
35	0x03	0.041037
36	0xe4	-0.383012
37	0x0b	0.15046899
38	0xfb	-0.068394996
39	0xf3	-0.177827
40	0xed	-0.259901
41	0xf4	-0.164148
42	0xf1	-0.205185
43	0xf2	-0.191506
44	0xff	-0.013679
45	0x0b	0.15046899
46	0xef	-0.23254299
47	0x04	0.054716
48	0xfd	-0.041037
49	0x0b	0.15046899
50	0xfc	-0.054716
51	0x22	0.46508598
52	0x25	0.506123
53	0x18	0.328296
54	0xf8	-0.109432
55	0x14	0.27357998
56	0x07	0.095753
57	0xe8	-0.328296
58	0xf4	-0.164148
59	0xfb	-0.068394996
60	0x3f	0.86177695
61	0x2f	0.642913
62	0xe4	-0.383012
63	0xd9	-0.533481
64	0xdf	-0.451407
65	0xf5	-0.15046899
66	0x03	0.041037
67	0xe8	-0.328296
68	0xf7	-0.123110995
69	0x2c	0.60187596
70	0xf6	-0.13678999
71	0x16	0.30093798
72	0xf8	-0.109432
73	0x4b	1.0259249
74	0xe8	-0.328296
75	0x07	0.095753
76	0xf7	-0.123110995
77	0x26	0.519802
78	0xe2	-0.41037
79	0xe4	-0.383012
80	0xff	-0.013679
81	0xf5	-0.15046899
82	0x0f	0.205185
83	0x02	0.027358
84	0xff	-0.013679
85	0xed	-0.259901
86	0x29	0.560839
87	0x08	0.109432
88	0x1a	0.355654
89	0x26	0.519802
90	0xfd	-0.041037
91	0x1d	0.396691
92	0x01	0.013679
93	0x0b	0.15046899
94	0xff	-0.013679
95	0x0e	0.191506
96	0x04	0.054716
97	0xeb	-0.28725898
98	0xdb	-0.506123
99	0xeb	-0.28725898
100	0x1f	0.424049
101	0x16	0.30093798
102	0x33	0.697629
103	0x29	0.560839
104	0xc7	-0.77970296
105	0xfb	-0.068394996
106	0x14	0.27357998
107	0x20	0.437728
108	0x05	0.068394996
109	0x0e	0.191506
110	0xb8	-0.98488796
111	0x1a	0.355654
112	0x19	0.341975
113	0xf5	-0.15046899
114	0xf3	-0.177827
115	0xfc	-0.054716
116	0x04	0.054716
117	0x22	0.46508598
118	0x0d	0.177827
119	0xe7	-0.341975
120	0xf8	-0.109432
121	0xfa	-0.082074
122	0xd2	-0.62923396
123	0xfd	-0.041037
124	0x38	0.766024
125	0xf2	-0.191506
126	0x01	0.013679
127	0xfe	-0.027358
128	0xe2	-0.41037
129	0xf4	-0.164148
130	0x07	0.095753
131	0x0e	0.191506
132	0x21	0.451407
133	0x07	0.095753
134	0xe6	-0.355654
135	0xf4	-0.164148
136	0xe8	-0.328296
137	0x0f	0.205185
138	0xfb	-0.068394996
139	0xef	-0.23254299
140	0x11	0.23254299
141	0xd8	-0.54715997
142	0xff	-0.013679
143	0x17	0.31461698
144	0xf6	-0.13678999
145	0xfe	-0.027358
146	0xe1	-0.424049
147	0x07	0.095753
148	0x08	0.109432
149	0xfd	-0.041037
150	0xfe	-0.027358
151	0xf5	-0.15046899
152	0xec	-0.27357998
153	0xf5	-0.15046899
154	0xfa	-0.082074
155	0x00	0.0
156	0x22	0.46508598
157	0x02	0.027358
158	0x16	0.30093798
159	0x0c	0.164148
160	0x20	0.437728
161	0xdc	-0.49244398
162	0x0d	0.177827
163	0x38	0.766024
164	0xea	-0.30093798
165	0xf0	-0.218864
166	0x2c	0.60187596
167	0x20	0.437728
168	0xf8	-0.109432
169	0x19	0.341975
170	0x34	0.711308
171	0xd6	-0.57451797
172	0x08	0.109432
173	0x31	0.670271
174	0xf4	-0.164148
175	0xe2	-0.41037
176	0xe5	-0.369333
177	0xf9	-0.095753
178	0x11	0.23254299
179	0xfe	-0.027358
180	0x01	0.013679
181	0x09	0.123110995
182	0xfa	-0.082074
183	0xef	-0.23254299
184	0xd4	-0.60187596
185	0x12	0.24622199
186	0x0a	0.13678999
187	0x1e	0.41037
188	0x1c	0.383012
189	0xf9	-0.095753
190	0x25	0.506123
191	0xfb	-0.068394996
192	0x9b	-1.3815789
193	0xaf	-1.107999
194	0x0f	0.205185
195	0xc9	-0.75234497
196	0xff	-0.013679
197	0x09	0.123110995
198	0x0c	0.164148
199	0x33	0.697629
200	0x12	0.24622199
201	0xd9	-0.533481
202	0x3f	0.86177695
203	0xe8	-0.328296
204	0x05	0.068394996
205	0xec	-0.27357998
206	0xee	-0.24622199
207	0x8b	-1.600443
208	0xf2	-0.191506
209	0xfb	-0.068394996
210	0x07	0.095753
211	0xf7	-0.123110995
212	0xfc	-0.054716
213	0x04	0.054716
214	0x08	0.109432
215	0x0c	0.164148
216	0x07	0.095753
217	0xfb	-0.068394996
218	0xf6	-0.13678999
219	0x02	0.027358
220	0xe7	-0.341975
221	0x16	0.30093798
222	0xfe	-0.027358
223	0xf9	-0.095753
224	0xfe	-0.027358
225	0x1a	0.355654
226	0xb9	-0.971209
227	0x0a	0.13678999
228	0x0c	0.164148
229	0xf9	-0.095753
230	0xc8	-0.766024
231	0x2d	0.615555
232	0x15	0.28725898
233	0xf2	-0.191506
234	0xfe	-0.027358
235	0x1d	0.396691
236	0x06	0.082074
237	0xed	-0.259901
238	0xe1	-0.424049
239	0x45	0.943851
240	0xfd	-0.041037
241	0xeb	-0.28725898
242	0xfd	-0.041037
243	0x00	0.0
244	0xf4	-0.164148
245	0xf0	-0.218864
246	0x11	0.23254299
247	0x07	0.095753
248	0x17	0.31461698
249	0x02	0.027358
250	0x03	0.041037
251	0xf4	-0.164148
252	0x05	0.068394996
253	0xd2	-0.62923396
254	0xec	-0.27357998
255	0xf1	-0.205185

torch.fx.graph_module.GraphModule.__new__.<locals>.GraphModuleImpl/torch.nn.modules.container.Sequential_layers/src.models.Block_0/torch.nn.modules.conv.Conv2d_conv2; i1 [1, 3, 3, 16] scale=0.0213725 zero_point=0
0	0xd6	-0.89764506
1	0x04	0.08549
2	0xef	-0.3633325
3	0x16	0.47019503
4	0xfd	-0.064117506
5	0xc5	-1.2609775
6	0xff	-0.0213725
7	0x0b	0.23509751
8	0xee	-0.384705
9	0x14	0.42745
10	0x01	0.0213725
11	0xf9	-0.14960751
12	0x08	0.17098
13	0xe9	-0.49156752
14	0x0b	0.23509751
15	0x01	0.0213725
16	0x62	2.094505
17	0xe6	-0.55568504
18	0xe3	-0.61980253
19	0x0f	0.32058752
20	0xfa	-0.12823501
21	0x00	0.0
22	0x0e	0.29921502
23	0xd8	-0.8549
24	0x08	0.17098
25	0x34	1.1113701
26	0x20	0.68392
27	0xfe	-0.042745
28	0x11	0.3633325
29	0x19	0.53431255
30	0xe9	-0.49156752
31	0x46	1.496075
32	0xce	-1.0686251
33	0xfc	-0.08549
34	0x0e	0.29921502
35	0xf1	-0.32058752
36	0x0d	0.27784252
37	0xd6	-0.89764506
38	0xf9	-0.14960751
39	0xf8	-0.17098
40	0x05	0.1068625
41	0x01	0.0213725
42	0xf7	-0.1923525
43	0x0f	0.32058752
44	0x03	0.064117506
45	0x9a	-2.179995
46	0xe8	-0.51294005
47	0x3e	1.325095
48	0x5e	2.009015
49	0xee	-0.384705
50	0xef	-0.3633325
51	0xfd	-0.064117506
52	0xff	-0.0213725
53	0xf7	-0.1923525
54	0xfa	-0.12823501
55	0x1a	0.55568504
56	0xd5	-0.91901755
57	0x33	1.0899975
58	0x06	0.12823501
59	0xd6	-0.89764506
60	0x1a	0.55568504
61	0xe8	-0.51294005
62	0xdd	-0.7480375
63	0x0d	0.27784252
64	0xbb	-1.4747026
65	0xfd	-0.064117506
66	0xe8	-0.51294005
67	0xec	-0.42745
68	0x09	0.1923525
69	0x0b	0.23509751
70	0xf5	-0.23509751
71	0xe7	-0.53431255
72	0xf9	-0.14960751
73	0x93	-2.3296025
74	0x21	0.7052925
75	0xe2	-0.64117503
76	0x2c	0.94039005
77	0x08	0.17098
78	0x53	1.7739176
79	0xdd	-0.7480375
80	0x99	-2.2013676
81	0xea	-0.47019503
82	0xc4	-1.2823501
83	0xf0	-0.34196
84	0x09	0.1923525
85	0x11	0.3633325
86	0x0e	0.29921502
87	0x0a	0.213725
88	0x49	1.5601926
89	0x2f	1.0045075
90	0x22	0.726665
91	0x06	0.12823501
92	0xe8	-0.51294005
93	0x7f	2.7143075
94	0x0b	0.23509751
95	0xa1	-2.0303876
96	0x0e	0.29921502
97	0x03	0.064117506
98	0xd7	-0.87627256
99	0xf9	-0.14960751
100	0x00	0.0
101	0x01	0.0213725
102	0xe0	-0.68392
103	0x09	0.1923525
104	0xdf	-0.7052925
105	0x1d	0.61980253
106	0xed	-0.4060775
107	0x00	0.0
108	0xfc	-0.08549
109	0xff	-0.0213725
110	0x21	0.7052925
111	0xf0	-0.34196
112	0x47	1.5174476
113	0x13	0.4060775
114	0x22	0.726665
115	0xdf	-0.7052925
116	0xc8	-1.1968601
117	0x04	0.08549
118	0xdf	-0.7052925
119	0xe5	-0.57705754
120	0x12	0.384705
121	0xf4	-0.25647002
122	0x0e	0.29921502
123	0xf2	-0.29921502
124	0xf5	-0.23509751
125	0x14	0.42745
126	0xe9	-0.49156752
127	0x00	0.0
128	0x08	0.17098
129	0x0a	0.213725
130	0x01	0.0213725
131	0xf3	-0.27784252
132	0xee	-0.384705
133	0xeb	-0.44882253
134	0xf9	-0.14960751
135	0xe0	-0.68392
136	0x35	1.1327425
137	0xf5	-0.23509751
138	0x0f	0.32058752
139	0xf5	-0.23509751
140	0x0b	0.23509751
141	0xf5	-0.23509751
142	0xd8	-0.8549
143	0x1d	0.61980253

torch.fx.graph_module.GraphModule.__new__.<locals>.GraphModuleImpl/torch.nn.modules.container.Sequential_layers/src.models.Block_0/torch.nn.modules.conv.Conv2d_conv3; i1 [4, 1, 1, 16] scale=0.00534492 zero_point=0
0	0xda	-0.20310695
1	0xc5	-0.31535026
2	0xce	-0.267246
3	0x16	0.11758824
4	0x3f	0.33672994
5	0xc7	-0.30466044
6	0xae	-0.43828344
7	0x91	-0.5932861
8	0xe0	-0.17103744
9	0xfe	-0.01068984
10	0x0e	0.07482888
11	0x72	0.6093209
12	0xf1	-0.0801738
13	0x3b	0.31535026
14	0xdd	-0.18707219
15	0x79	0.6467353
16	0xa6	-0.4810428
17	0xf7	-0.04810428
18	0xf1	-0.0801738
19	0xdc	-0.19241711
20	0xca	-0.28862566
21	0x49	0.39017916
22	0x0a	0.0534492
23	0x1c	0.14965776
24	0xa6	-0.4810428
25	0xc9	-0.29397058
26	0xf7	-0.04810428
27	0xcb	-0.28328076
28	0x48	0.38483423
29	0x5a	0.4810428
30	0xc0	-0.34207487
31	0x0b	0.05879412
32	0xe6	-0.13896792
33	0xca	-0.28862566
34	0x21	0.17638236
35	0xec	-0.1068984
36	0xad	-0.44362834
37	0x43	0.35810962
38	0xe6	-0.13896792
39	0x0a	0.0534492
40	0xf6	-0.0534492
41	0x59	0.47569788
42	0x97	-0.5612166
43	0x0b	0.05879412
44	0xf1	-0.0801738
45	0x29	0.21914172
46	0xc1	-0.33672994
47	0x3c	0.3206952
48	0x3b	0.31535026
49	0xd0	-0.25655615
50	0xcc	-0.27793583
51	0x81	-0.6788048
52	0xcf	-0.26190108
53	0xfe	-0.01068984
54	0xd6	-0.22448663
55	0x2d	0.2405214
56	0xba	-0.37414438
57	0x02	0.01068984
58	0xfb	-0.0267246
59	0xaf	-0.43293852
60	0xbf	-0.3474198
61	0x5f	0.5077674
62	0xd7	-0.21914172
63	0xcd	-0.2725909

torch.fx.graph_module.GraphModule.__new__.<locals>.GraphModuleImpl/torch.nn.modules.container.Sequential_layers/src.models.Block_0/torch.nn.modules.container.Sequential_shortcut/torch.nn.modules.conv.Conv2d_0; i1 [4, 1, 1, 16] scale=0.0086596 zero_point=0
0	0xfd	-0.0259788
1	0xf1	-0.129894
2	0x08	0.0692768
3	0xf3	-0.1125748
4	0x7f	1.0997692
5	0x20	0.2771072
6	0xcf	-0.4243204
7	0xf2	-0.1212344
8	0xd8	-0.34638402
9	0xcc	-0.4502992
10	0x14	0.17319201
11	0x00	0.0
12	0xde	-0.2944264
13	0x11	0.1472132
14	0x42	0.5715336
15	0x11	0.1472132
16	0x26	0.32906482
17	0xfc	-0.0346384
18	0x27	0.33772442
19	0x68	0.9005984
20	0xf7	-0.0779364
21	0x28	0.34638402
22	0x04	0.0346384
23	0x3f	0.5455548
24	0xbc	-0.5888528
25	0x05	0.043298002
26	0x41	0.562874
27	0x10	0.1385536
28	0x2a	0.36370322
29	0x35	0.4589588
30	0x35	0.4589588
31	0x19	0.21649
32	0x39	0.4935972
33	0x11	0.1472132
34	0x45	0.5975124
35	0xd7	-0.35504362
36	0xeb	-0.18185161
37	0xe7	-0.21649
38	0xfe	-0.0173192
39	0x24	0.3117456
40	0xf6	-0.086596005
41	0xde	-0.2944264
42	0xf2	-0.1212344
43	0xad	-0.71874684
44	0xcf	-0.4243204
45	0x13	0.16453241
46	0xd7	-0.35504362
47	0xe4	-0.2424688
48	0xd6	-0.36370322
49	0x2f	0.40700123
50	0x45	0.5975124
51	0x20	0.2771072
52	0xd6	-0.36370322
53	0xae	-0.71008724
54	0x34	0.4502992
55	0xf6	-0.086596005
56	0x16	0.19051121
57	0xf2	-0.1212344
58	0x8b	-1.0131732
59	0x0f	0.129894
60	0x07	0.0606172
61	0xf3	-0.1125748
62	0x69	0.909258
63	0xd7	-0.35504362

torch.fx.graph_module.GraphModule.__new__.<locals>.GraphModuleImpl/torch.nn.modules.container.Sequential_layers/src.models.Block_1/torch.nn.modules.conv.Conv2d_conv1; i1 [8, 1, 1, 4] scale=0.00563374 zero_point=0
0	0xf1	-0.0845061
1	0x14	0.1126748
2	0x1d	0.16337846
3	0x9e	-0.55210656
4	0xdf	-0.18591343
5	0x1e	0.1690122
6	0xd6	-0.23661709
7	0x5b	0.51267034
8	0x23	0.19718091
9	0xda	-0.21408212
10	0xf8	-0.04506992
11	0xd0	-0.27041954
12	0x9e	-0.55210656
13	0x1f	0.17464595
14	0xdd	-0.19718091
15	0xca	-0.30422196
16	0x01	0.00563374
17	0x12	0.10140733
18	0x0d	0.073238626
19	0x2b	0.24225083
20	0x29	0.23098335
21	0xe3	-0.16337846
22	0x8e	-0.64224637
23	0x1e	0.1690122
24	0x25	0.2084484
25	0x97	-0.5915427
26	0xd7	-0.23098335
27	0x45	0.38872808
28	0xfa	-0.033802442
29	0x7f	0.71548504
30	0x12	0.10140733
31	0xc8	-0.31548944

torch.fx.graph_module.GraphModule.__new__.<locals>.GraphModuleImpl/torch.nn.modules.container.Sequential_layers/src.models.Block_1/torch.nn.modules.conv.Conv2d_conv2; i1 [1, 3, 3, 8] scale=0.0166734 zero_point=0
0	0xd6	-0.70028275
1	0xda	-0.63358915
2	0xf2	-0.23342758
3	0xfd	-0.050020196
4	0xf2	-0.23342758
5	0xe6	-0.43350837
6	0x05	0.083367
7	0xa6	-1.500606
8	0xdc	-0.6002424
9	0x1c	0.46685517
10	0xef	-0.28344777
11	0xf5	-0.1834074
12	0xee	-0.3001212
13	0x1e	0.500202
14	0xad	-1.3838922
15	0x38	0.93371034
16	0xe8	-0.40016156
17	0x01	0.0166734
18	0x06	0.10004039
19	0xfd	-0.050020196
20	0x28	0.666936
21	0xfe	-0.0333468
22	0xf0	-0.2667744
23	0x25	0.61691576
24	0x00	0.0
25	0x05	0.083367
26	0x3b	0.98373055
27	0x04	0.0666936
28	0xc1	-1.0504241
29	0xd4	-0.7336296
30	0x0c	0.20008078
31	0xd9	-0.6502626
32	0xf7	-0.1500606
33	0x7f	2.1175218
34	0xd4	-0.7336296
35	0xca	-0.90036356
36	0x3f	1.0504241
37	0x0b	0.1834074
38	0x6d	1.8174005
39	0x00	0.0
40	0x14	0.333468
41	0x1d	0.48352858
42	0xc3	-1.0170773
43	0x00	0.0
44	0x1f	0.5168754
45	0xfa	-0.10004039
46	0x2b	0.71695614
47	0x4b	1.250505
48	0x1f	0.5168754
49	0x13	0.31679457
50	0x0d	0.21675418
51	0xfe	-0.0333468
52	0xac	-1.4005655
53	0x04	0.0666936
54	0x0f	0.250101
55	0xc8	-0.93371034
56	0x36	0.90036356
57	0xbf	-1.083771
58	0x56	1.4339123
59	0x2a	0.70028275
60	0x2d	0.750303
61	0x10	0.2667744
62	0xf2	-0.23342758
63	0x07	0.11671379
64	0x23	0.583569
65	0x03	0.050020196
66	0xf5	-0.1834074
67	0xe5	-0.45018178
68	0x18	0.40016156
69	0x00	0.0
70	0xfc	-0.0666936
71	0x19	0.41683498

torch.fx.graph_module.GraphModule.__new__.<locals>.GraphModuleImpl/torch.nn.modules.container.Sequential_layers/src.models.Block_1/torch.nn.modules.conv.Conv2d_conv3; i1 [6, 1, 1, 8] scale=0.00670975 zero_point=0
0	0xb4	-0.509941
1	0xf2	-0.093936495
2	0x27	0.26168025
3	0x10	0.107356
4	0x55	0.5703287
5	0x33	0.34219724
6	0xb4	-0.509941
7	0x09	0.06038775
8	0xfd	-0.020129248
9	0xb5	-0.5032312
10	0xea	-0.1476145
11	0xf5	-0.07380725
12	0x39	0.38245574
13	0x10	0.107356
14	0xe7	-0.16774374
15	0x21	0.22142175
16	0xd9	-0.26168025
17	0x3f	0.42271423
18	0x29	0.27509975
19	0x25	0.24826074
20	0x1d	0.19458275
21	0xdf	-0.22142175
22	0xeb	-0.14090474
23	0xe5	-0.18116325
24	0xf8	-0.053678
25	0x55	0.5703287
26	0x04	0.026839
27	0xf2	-0.093936495
28	0x18	0.16103399
29	0xd4	-0.295229
30	0xf5	-0.07380725
31	0x33	0.34219724
32	0x22	0.22813149
33	0x0f	0.10064625
34	0xf5	-0.07380725
35	0x01	0.00670975
36	0x15	0.14090474
37	0xf6	-0.0670975
38	0x5c	0.617297
39	0x30	0.32206798
40	0x2b	0.28851923
41	0x45	0.46297273
42	0x24	0.241551
43	0x7f	0.8521382
44	0x01	0.00670975
45	0xa2	-0.6307165
46	0x0c	0.080516994
47	0xdb	-0.24826074

torch.fx.graph_module.GraphModule.__new__.<locals>.GraphModuleImpl/torch.nn.modules.container.Sequential_layers/src.models.Block_1/torch.nn.modules.container.Sequential_shortcut/torch.nn.modules.conv.Conv2d_0; i1 [6, 1, 1, 4] scale=0.00511245 zero_point=0
0	0xc2	-0.3169719
1	0x04	0.0204498
2	0xda	-0.1942731
3	0xcb	-0.27095985
4	0x94	-0.5521446
5	0xa0	-0.4907952
6	0x7f	0.64928114
7	0x13	0.09713655
8	0x45	0.35275906
9	0x2a	0.2147229
10	0x5d	0.47545785
11	0x28	0.20449801
12	0x96	-0.5419197
13	0x31	0.25051007
14	0xe3	-0.14826106
15	0x59	0.45500806
16	0x11	0.08691165
17	0xde	-0.1738233
18	0x8f	-0.5777069
19	0x6f	0.56748194
20	0x62	0.50102013
21	0x62	0.50102013
22	0x05	0.025562251
23	0x26	0.1942731

torch.fx.graph_module.GraphModule.__new__.<locals>.GraphModuleImpl/torch.nn.modules.container.Sequential_layers/src.models.Block_2/torch.nn.modules.conv.Conv2d_conv1; i1 [16, 1, 1, 6] scale=0.00633772 zero_point=0
0	0x1d	0.18379387
1	0xe4	-0.17745616
2	0xe6	-0.16478072
3	0x25	0.23449564
4	0xb1	-0.50067985
5	0x1b	0.17111844
6	0x46	0.4436404
7	0x06	0.038026318
8	0xcf	-0.31054828
9	0xd7	-0.2598465
10	0xd0	-0.30421054
11	0x20	0.20280704
12	0xeb	-0.13309212
13	0x0b	0.06971492
14	0x11	0.10774124
15	0x02	0.01267544
16	0x09	0.05703948
17	0x11	0.10774124
18	0xf5	-0.06971492
19	0x17	0.14576755
20	0x30	0.30421054
21	0xe7	-0.158443
22	0x0b	0.06971492
23	0x05	0.0316886
24	0xeb	-0.13309212
25	0xfc	-0.02535088
26	0x10	0.10140352
27	0x42	0.4182895
28	0x22	0.21548247
29	0xea	-0.13942984
30	0xd4	-0.27885967
31	0xd3	-0.2851974
32	0x25	0.23449564
33	0x02	0.01267544
34	0xea	-0.13942984
35	0xf8	-0.05070176
36	0xf7	-0.05703948
37	0xd1	-0.29787284
38	0xdf	-0.20914476
39	0x25	0.23449564
40	0x1d	0.18379387
41	0x28	0.2535088
42	0x12	0.11407896
43	0xc3	-0.3866009
44	0xe0	-0.20280704
45	0x2c	0.27885967
46	0x1e	0.1901316
47	0x02	0.01267544
48	0x46	0.4436404
49	0x14	0.1267544
50	0x81	-0.80489045
51	0x10	0.10140352
52	0x1f	0.19646932
53	0x3b	0.37392548
54	0xef	-0.10774124
55	0x0c	0.076052636
56	0x0e	0.08872808
57	0x02	0.01267544
58	0xf7	-0.05703948
59	0xfc	-0.02535088
60	0x04	0.02535088
61	0x18	0.15210527
62	0x0e	0.08872808
63	0x0c	0.076052636
64	0x0c	0.076052636
65	0x09	0.05703948
66	0xf9	-0.04436404
67	0x03	0.019013159
68	0xf5	-0.06971492
69	0xf1	-0.0950658
70	0x2d	0.2851974
71	0xc2	-0.39293864
72	0x1b	0.17111844
73	0xf2	-0.08872808
74	0xc2	-0.39293864
75	0x36	0.34223688
76	0x9f	-0.61475885
77	0x36	0.34223688
78	0x92	-0.6971492
79	0x26	0.24083336
80	0xe8	-0.15210527
81	0x16	0.13942984
82	0xcf	-0.31054828
83	0xe4	-0.17745616
84	0x04	0.02535088
85	0x3a	0.36758775
86	0x0f	0.0950658
87	0x12	0.11407896
88	0xbe	-0.4182895
89	0xd8	-0.2535088
90	0xe3	-0.18379387
91	0x1a	0.16478072
92	0xff	-0.00633772
93	0x12	0.11407896
94	0xe3	-0.18379387
95	0x09	0.05703948

torch.fx.graph_module.GraphModule.__new__.<locals>.GraphModuleImpl/torch.nn.modules.container.Sequential_layers/src.models.Block_2/torch.nn.modules.conv.Conv2d_conv2; i1 [1, 3, 3, 16] scale=0.0450135 zero_point=0
0	0x10	0.720216
1	0x02	0.090027
2	0xf4	-0.54016197
3	0x00	0.0
4	0xe8	-1.0803239
5	0xf5	-0.49514848
6	0x07	0.3150945
7	0x04	0.180054
8	0xf7	-0.40512148
9	0x03	0.13504049
10	0x04	0.180054
11	0x06	0.27008098
12	0x0b	0.49514848
13	0x00	0.0
14	0xfd	-0.13504049
15	0x11	0.76522946
16	0x1d	1.3053914
17	0x09	0.40512148
18	0xf2	-0.630189
19	0xf5	-0.49514848
20	0x05	0.2250675
21	0xf5	-0.49514848
22	0xf7	-0.40512148
23	0x03	0.13504049
24	0xe8	-1.0803239
25	0xbe	-2.970891
26	0x0d	0.58517545
27	0x0f	0.6752025
28	0x02	0.090027
29	0x19	1.1253375
30	0xf2	-0.630189
31	0xe3	-1.3053914
32	0xf9	-0.3150945
33	0x00	0.0
34	0x14	0.90027
35	0x17	1.0353105
36	0x0e	0.630189
37	0xfb	-0.2250675
38	0xfb	-0.2250675
39	0x06	0.27008098
40	0x05	0.2250675
41	0x47	3.1959584
42	0xe9	-1.0353105
43	0x0a	0.450135
44	0xee	-0.81024295
45	0xfc	-0.180054
46	0xf8	-0.360108
47	0x0e	0.630189
48	0x26	1.710513
49	0x00	0.0
50	0xee	-0.81024295
51	0x10	0.720216
52	0x0d	0.58517545
53	0x16	0.99029696
54	0xea	-0.99029696
55	0xfd	-0.13504049
56	0x09	0.40512148
57	0xbb	-3.1059313
58	0x02	0.090027
59	0x00	0.0
60	0x0f	0.6752025
61	0xfb	-0.2250675
62	0xf9	-0.3150945
63	0x19	1.1253375
64	0x0d	0.58517545
65	0x0f	0.6752025
66	0xf7	-0.40512148
67	0x23	1.5754725
68	0x0a	0.450135
69	0x11	0.76522946
70	0xee	-0.81024295
71	0x07	0.3150945
72	0x0b	0.49514848
73	0x7f	5.7167144
74	0x29	1.8455534
75	0x07	0.3150945
76	0xfd	-0.13504049
77	0x24	1.6204859
78	0x06	0.27008098
79	0xcc	-2.3407018
80	0xca	-2.430729
81	0xf3	-0.58517545
82	0x19	1.1253375
83	0xf0	-0.720216
84	0xff	-0.0450135
85	0x13	0.8552565
86	0x07	0.3150945
87	0xf9	-0.3150945
88	0xff	-0.0450135
89	0xe0	-1.440432
90	0xdc	-1.6204859
91	0x09	0.40512148
92	0xe6	-1.1703509
93	0xee	-0.81024295
94	0xeb	-0.9452835
95	0x1b	1.2153645
96	0xff	-0.0450135
97	0xf6	-0.450135
98	0x16	0.99029696
99	0xf6	-0.450135
100	0x07	0.3150945
101	0x09	0.40512148
102	0xfe	-0.090027
103	0x11	0.76522946
104	0x04	0.180054
105	0x3c	2.70081
106	0xe8	-1.0803239
107	0xef	-0.76522946
108	0x17	1.0353105
109	0x0d	0.58517545
110	0xf7	-0.40512148
111	0x0b	0.49514848
112	0xd4	-1.9805939
113	0x0f	0.6752025
114	0x29	1.8455534
115	0xdb	-1.6654994
116	0x10	0.720216
117	0xf7	-0.40512148
118	0x0a	0.450135
119	0x0e	0.630189
120	0xfb	-0.2250675
121	0xee	-0.81024295
122	0x1f	1.3954184
123	0xf3	-0.58517545
124	0x16	0.99029696
125	0xf7	-0.40512148
126	0xef	-0.76522946
127	0xf4	-0.54016197
128	0x00	0.0
129	0x0e	0.630189
130	0xc4	-2.70081
131	0xf7	-0.40512148
132	0xf9	-0.3150945
133	0xf5	-0.49514848
134	0xfe	-0.090027
135	0x01	0.0450135
136	0xf0	-0.720216
137	0xda	-1.710513
138	0xf6	-0.450135
139	0xf8	-0.360108
140	0xf5	-0.49514848
141	0xff	-0.0450135
142	0x0b	0.49514848
143	0x01	0.0450135

torch.fx.graph_module.GraphModule.__new__.<locals>.GraphModuleImpl/torch.nn.modules.container.Sequential_layers/src.models.Block_2/torch.nn.modules.conv.Conv2d_conv3; i1 [6, 1, 1, 16] scale=0.00790344 zero_point=0
0	0x1a	0.20548944
1	0x00	0.0
2	0x04	0.03161376
3	0xc5	-0.46630296
4	0xf6	-0.0790344
5	0xd4	-0.34775135
6	0xd5	-0.33984792
7	0x38	0.44259262
8	0x27	0.30823416
9	0x2a	0.33194447
10	0x66	0.80615085
11	0xbc	-0.5374339
12	0xf8	-0.06322752
13	0x56	0.67969584
14	0xfb	-0.0395172
15	0x7f	1.0037369
16	0xd0	-0.37936512
17	0x18	0.18968256
18	0x24	0.28452384
19	0x2f	0.3714617
20	0x39	0.45049608
21	0x1a	0.20548944
22	0xc0	-0.50582016
23	0xd0	-0.37936512
24	0xaf	-0.6401786
25	0x03	0.02371032
26	0x13	0.15016536
27	0x06	0.04742064
28	0x41	0.5137236
29	0x12	0.14226192
30	0xe1	-0.24500664
31	0x08	0.06322752
32	0xb1	-0.62437177
33	0x00	0.0
34	0xca	-0.42678577
35	0xb6	-0.58485454
36	0xdf	-0.2608135
37	0xa9	-0.6875993
38	0xe4	-0.22129631
39	0x22	0.26871696
40	0xd7	-0.32404104
41	0xc0	-0.50582016
42	0xeb	-0.16597223
43	0x0a	0.0790344
44	0x3c	0.4742064
45	0xdc	-0.28452384
46	0xde	-0.26871696
47	0xf4	-0.09484128
48	0x42	0.521627
49	0x0c	0.09484128
50	0x16	0.17387567
51	0xf7	-0.07113096
52	0x13	0.15016536
53	0x1f	0.24500664
54	0xfc	-0.03161376
55	0xeb	-0.16597223
56	0x19	0.197586
57	0x14	0.1580688
58	0xed	-0.15016536
59	0xee	-0.14226192
60	0xed	-0.15016536
61	0x11	0.13435848
62	0xdd	-0.2766204
63	0x1d	0.22919975
64	0xf1	-0.1185516
65	0x57	0.6875993
66	0x9f	-0.7666337
67	0x29	0.32404104
68	0xbc	-0.5374339
69	0x55	0.6717924
70	0xe4	-0.22129631
71	0xc1	-0.49791673
72	0x44	0.5374339
73	0xcf	-0.38726854
74	0x5a	0.7113096
75	0x51	0.6401786
76	0x4b	0.592758
77	0xf8	-0.06322752
78	0xd5	-0.33984792
79	0x73	0.9088956
80	0x1a	0.20548944
81	0x10	0.12645504
82	0xdf	-0.2608135
83	0x41	0.5137236
84	0xee	-0.14226192
85	0xfb	-0.0395172
86	0x1b	0.21339288
87	0xd1	-0.3714617
88	0x05	0.0395172
89	0x6c	0.85357153
90	0x0b	0.08693784
91	0x0b	0.08693784
92	0xed	-0.15016536
93	0x22	0.26871696
94	0xc4	-0.4742064
95	0x55	0.6717924

torch.fx.graph_module.GraphModule.__new__.<locals>.GraphModuleImpl/torch.nn.modules.container.Sequential_layers/src.models.Block_3/torch.nn.modules.conv.Conv2d_conv1; i1 [16, 1, 1, 6] scale=0.00406876 zero_point=0
0	0x02	0.00813752
1	0x1c	0.113925286
2	0xe5	-0.10985652
3	0xfc	-0.01627504
4	0x02	0.00813752
5	0xea	-0.08951272
6	0x8e	-0.46383867
7	0x01	0.00406876
8	0x16	0.08951272
9	0x22	0.13833785
10	0xc5	-0.24005686
11	0xe0	-0.13020033
12	0xc7	-0.23191933
13	0xe0	-0.13020033
14	0xbd	-0.27260694
15	0x34	0.21157554
16	0x38	0.22785057
17	0xde	-0.13833785
18	0xfb	-0.020343801
19	0x7f	0.5167326
20	0xbf	-0.26446941
21	0xfd	-0.012206281
22	0x2a	0.17088793
23	0xc8	-0.22785057
24	0xec	-0.081375204
25	0xe3	-0.11799405
26	0xb2	-0.3173633
27	0x3c	0.2441256
28	0x2a	0.17088793
29	0x06	0.024412561
30	0x2e	0.18716297
31	0x55	0.34584463
32	0x27	0.15868165
33	0x3b	0.24005686
34	0x16	0.08951272
35	0xfe	-0.00813752
36	0xe2	-0.1220628
37	0x21	0.13426909
38	0x39	0.23191933
39	0xc6	-0.2359881
40	0xde	-0.13833785
41	0xda	-0.15461288
42	0x9a	-0.41501355
43	0x2c	0.17902544
44	0x0b	0.04475636
45	0xfe	-0.00813752
46	0x40	0.26040065
47	0x0d	0.052893884
48	0xed	-0.07730644
49	0x99	-0.4190823
50	0xaf	-0.32956958
51	0x9b	-0.4109448
52	0xf1	-0.0610314
53	0xcf	-0.19936925
54	0xf6	-0.040687602
55	0x0c	0.048825122
56	0xe8	-0.097650245
57	0x14	0.081375204
58	0xc9	-0.22378181
59	0xaf	-0.32956958
60	0x51	0.32956958
61	0x02	0.00813752
62	0xf6	-0.040687602
63	0xcc	-0.21157554
64	0x1c	0.113925286
65	0x14	0.081375204
66	0xf2	-0.056962643
67	0x24	0.14647537
68	0xf6	-0.040687602
69	0x3c	0.2441256
70	0xc9	-0.22378181
71	0x35	0.21564429
72	0xdd	-0.14240661
73	0xee	-0.07323769
74	0x36	0.21971305
75	0x1c	0.113925286
76	0x19	0.10171901
77	0x2a	0.17088793
78	0xfa	-0.024412561
79	0x18	0.097650245
80	0xe0	-0.13020033
81	0xb8	-0.29295075
82	0x03	0.012206281
83	0x09	0.036618844
84	0xd4	-0.17902544
85	0x26	0.15461288
86	0xe1	-0.12613156
87	0xef	-0.069168925
88	0xf9	-0.028481321
89	0x54	0.34177586
90	0xed	-0.07730644
91	0xdd	-0.14240661
92	0x34	0.21157554
93	0xd9	-0.15868165
94	0x11	0.069168925
95	0x3f	0.2563319

torch.fx.graph_module.GraphModule.__new__.<locals>.GraphModuleImpl/torch.nn.modules.container.Sequential_layers/src.models.Block_3/torch.nn.modules.conv.Conv2d_conv2; i1 [1, 3, 3, 16] scale=0.0137133 zero_point=0
0	0x3a	0.7953714
1	0x16	0.3016926
2	0x0c	0.1645596
3	0x06	0.0822798
4	0xf9	-0.0959931
5	0x09	0.1234197
6	0x12	0.2468394
7	0x03	0.0411399
8	0x0b	0.1508463
9	0x13	0.2605527
10	0x10	0.2194128
11	0x12	0.2468394
12	0x14	0.274266
13	0x17	0.3154059
14	0x0d	0.1782729
15	0xf5	-0.1508463
16	0x81	-1.7415891
17	0x20	0.4388256
18	0x19	0.3428325
19	0x12	0.2468394
20	0xe5	-0.3702591
21	0x0c	0.1645596
22	0x1f	0.4251123
23	0xee	-0.2468394
24	0x0d	0.1782729
25	0x21	0.4525389
26	0x13	0.2605527
27	0x15	0.2879793
28	0x1a	0.3565458
29	0x39	0.7816581
30	0x14	0.274266
31	0xf1	-0.2056995
32	0x52	1.1244906
33	0x0c	0.1645596
34	0x10	0.2194128
35	0x0b	0.1508463
36	0xf0	-0.2194128
37	0x01	0.0137133
38	0x0e	0.1919862
39	0xe9	-0.3154059
40	0xfe	-0.0274266
41	0x0d	0.1782729
42	0x05	0.0685665
43	0x05	0.0685665
44	0x0a	0.137133
45	0x25	0.5073921
46	0x08	0.1097064
47	0xe0	-0.4388256
48	0x04	0.0548532
49	0x20	0.4388256
50	0x13	0.2605527
51	0x12	0.2468394
52	0xe7	-0.3428325
53	0x18	0.3291192
54	0x24	0.4936788
55	0xf3	-0.1782729
56	0x0c	0.1645596
57	0x29	0.5622453
58	0x1d	0.3976857
59	0x21	0.4525389
60	0x23	0.4799655
61	0x10	0.2194128
62	0x19	0.3428325
63	0xe3	-0.3976857
64	0x41	0.8913645
65	0x2f	0.6445251
66	0x2a	0.5759586
67	0x26	0.5211054
68	0xe2	-0.411399
69	0x22	0.4662522
70	0x45	0.9462177
71	0xe5	-0.3702591
72	0x1d	0.3976857
73	0x45	0.9462177
74	0x31	0.6719517
75	0x3d	0.8365113
76	0x3e	0.8502246
77	0x0b	0.1508463
78	0x2f	0.6445251
79	0xbe	-0.9050778
80	0xb2	-1.0696374
81	0x1b	0.3702591
82	0x1b	0.3702591
83	0x17	0.3154059
84	0xf2	-0.1919862
85	0x11	0.2331261
86	0x1f	0.4251123
87	0xe3	-0.3976857
88	0x11	0.2331261
89	0x27	0.5348187
90	0x13	0.2605527
91	0x1e	0.411399
92	0x1b	0.3702591
93	0x07	0.0959931
94	0x1a	0.3565458
95	0xe5	-0.3702591
96	0xb4	-1.0422108
97	0x10	0.2194128
98	0x08	0.1097064
99	0x14	0.274266
100	0xeb	-0.2879793
101	0x11	0.2331261
102	0x1d	0.3976857
103	0xef	-0.2331261
104	0x05	0.0685665
105	0x17	0.3154059
106	0x0f	0.2056995
107	0x12	0.2468394
108	0x0b	0.1508463
109	0xe3	-0.3976857
110	0x0b	0.1508463
111	0xe9	-0.3154059
112	0x2f	0.6445251
113	0x18	0.3291192
114	0x0b	0.1508463
115	0x1d	0.3976857
116	0xe6	-0.3565458
117	0x1d	0.3976857
118	0x32	0.685665
119	0xeb	-0.2879793
120	0x10	0.2194128
121	0x26	0.5211054
122	0x19	0.3428325
123	0x2d	0.6170985
124	0x22	0.4662522
125	0xcc	-0.7130916
126	0x1e	0.411399
127	0xe2	-0.411399
128	0xeb	-0.2879793
129	0x12	0.2468394
130	0x07	0.0959931
131	0x0f	0.2056995
132	0xf7	-0.1234197
133	0x0f	0.2056995
134	0x1f	0.4251123
135	0xf5	-0.1508463
136	0x12	0.2468394
137	0x17	0.3154059
138	0x01	0.0137133
139	0x1c	0.3839724
140	0x13	0.2605527
141	0xd8	-0.548532
142	0x15	0.2879793
143	0xf8	-0.1097064

torch.fx.graph_module.GraphModule.__new__.<locals>.GraphModuleImpl/torch.nn.modules.container.Sequential_layers/src.models.Block_3/torch.nn.modules.conv.Conv2d_conv3; i1 [8, 1, 1, 16] scale=0.00763146 zero_point=0
0	0xd9	-0.29762694
1	0x0e	0.10684045
2	0x18	0.18315504
3	0x05	0.0381573
4	0xf0	-0.12210336
5	0xcf	-0.37394154
6	0x35	0.4044674
7	0x27	0.29762694
8	0x08	0.06105168
9	0x0f	0.114471905
10	0xeb	-0.16026066
11	0xea	-0.16789213
12	0xc9	-0.4197303
13	0xe7	-0.19078651
14	0xdb	-0.28236404
15	0x3c	0.45788762
16	0xfe	-0.01526292
17	0xfc	-0.03052584
18	0x03	0.02289438
19	0x50	0.6105168
20	0x32	0.38157302
21	0xde	-0.25946966
22	0x1b	0.20604943
23	0x19	0.19078651
24	0x62	0.7478831
25	0xe3	-0.22131234
26	0x02	0.01526292
27	0x0e	0.10684045
28	0x91	-0.8470921
29	0xf7	-0.06868314
30	0x27	0.29762694
31	0x19	0.19078651
32	0x08	0.06105168
33	0xeb	-0.16026066
34	0x04	0.03052584
35	0x38	0.4273618
36	0xf3	-0.09920898
37	0x18	0.18315504
38	0xf8	-0.06105168
39	0x16	0.16789213
40	0xf6	-0.0763146
41	0x11	0.12973483
42	0x04	0.03052584
43	0x18	0.18315504
44	0x25	0.28236404
45	0xe4	-0.2136809
46	0x81	-0.9691954
47	0xf9	-0.053420223
48	0xed	-0.14499775
49	0x0c	0.09157752
50	0x53	0.63341117
51	0x1d	0.22131234
52	0xae	-0.62577975
53	0x1f	0.23657526
54	0xc9	-0.4197303
55	0xba	-0.5342022
56	0x26	0.2899955
57	0x0a	0.0763146
58	0xe4	-0.2136809
59	0x1d	0.22131234
60	0xf0	-0.12210336
61	0x10	0.12210336
62	0xf4	-0.09157752
63	0x35	0.4044674
64	0x00	0.0
65	0x55	0.64867413
66	0xef	-0.12973483
67	0xd0	-0.3663101
68	0xe1	-0.23657526
69	0xba	-0.5342022
70	0xec	-0.1526292
71	0x01	0.00763146
72	0x04	0.03052584
73	0x1d	0.22131234
74	0xbb	-0.52657074
75	0x24	0.27473256
76	0xff	-0.00763146
77	0x17	0.17552358
78	0x12	0.13736628
79	0xe7	-0.19078651
80	0xf2	-0.10684045
81	0x26	0.2899955
82	0xfe	-0.01526292
83	0xf4	-0.09157752
84	0x28	0.3052584
85	0x32	0.38157302
86	0x03	0.02289438
87	0x07	0.053420223
88	0xdc	-0.27473256
89	0xd4	-0.33578426
90	0xd7	-0.31288987
91	0x0e	0.10684045
92	0xd6	-0.32052132
93	0xdf	-0.25183818
94	0xb0	-0.6105168
95	0x2c	0.33578426
96	0x08	0.06105168
97	0xf2	-0.10684045
98	0xbb	-0.52657074
99	0x38	0.4273618
100	0x14	0.1526292
101	0x16	0.16789213
102	0x00	0.0
103	0x05	0.0381573
104	0xcb	-0.4044674
105	0x46	0.5342022
106	0xdf	-0.25183818
107	0x08	0.06105168
108	0x24	0.27473256
109	0xf4	-0.09157752
110	0x09	0.06868314
111	0xf4	-0.09157752
112	0x03	0.02289438
113	0x18	0.18315504
114	0x0e	0.10684045
115	0xef	-0.12973483
116	0x05	0.0381573
117	0xdf	-0.25183818
118	0x2b	0.32815278
119	0xc1	-0.480782
120	0x07	0.053420223
121	0x0e	0.10684045
122	0xc9	-0.4197303
123	0x98	-0.79367185
124	0x24	0.27473256
125	0x04	0.03052584
126	0x00	0.0
127	0xf1	-0.114471905

torch.fx.graph_module.GraphModule.__new__.<locals>.GraphModuleImpl/torch.nn.modules.container.Sequential_layers/src.models.Block_4/torch.nn.modules.conv.Conv2d_conv1; i1 [24, 1, 1, 8] scale=0.00910043 zero_point=0
0	0xf8	-0.07280344
1	0xd8	-0.3640172
2	0xfa	-0.05460258
3	0xf6	-0.0910043
4	0xf7	-0.08190387
5	0x09	0.08190387
6	0x0b	0.10010473
7	0x07	0.06370301
8	0x10	0.14560688
9	0x1a	0.23661117
10	0xfb	-0.04550215
11	0xdd	-0.31851503
12	0xf8	-0.07280344
13	0xf0	-0.14560688
14	0xf3	-0.11830559
15	0x15	0.19110903
16	0xf1	-0.13650644
17	0xff	-0.00910043
18	0xf5	-0.10010473
19	0x2b	0.39131847
20	0xf5	-0.10010473
21	0x26	0.3458163
22	0x21	0.3003142
23	0xf3	-0.11830559
24	0x36	0.4914232
25	0xed	-0.17290816
26	0xd8	-0.3640172
27	0x3a	0.52782494
28	0xdb	-0.3367159
29	0xfe	-0.01820086
30	0x3a	0.52782494
31	0x16	0.20020945
32	0xd9	-0.35491675
33	0xe2	-0.27301288
34	0x0f	0.13650644
35	0xee	-0.16380773
36	0x08	0.07280344
37	0x16	0.20020945
38	0xfb	-0.04550215
39	0xf1	-0.13650644
40	0x0a	0.0910043
41	0xe3	-0.26391247
42	0xe3	-0.26391247
43	0xf1	-0.13650644
44	0xef	-0.15470731
45	0x20	0.29121375
46	0x31	0.44592106
47	0xf2	-0.12740602
48	0xe6	-0.23661117
49	0x1b	0.2457116
50	0x36	0.4914232
51	0xeb	-0.19110903
52	0xf3	-0.11830559
53	0xf9	-0.06370301
54	0xf0	-0.14560688
55	0x25	0.3367159
56	0x11	0.15470731
57	0x1b	0.2457116
58	0x09	0.08190387
59	0xdb	-0.3367159
60	0xe4	-0.25481203
61	0x04	0.03640172
62	0x04	0.03640172
63	0xfe	-0.01820086
64	0x0f	0.13650644
65	0xfb	-0.04550215
66	0xe3	-0.26391247
67	0x11	0.15470731
68	0x35	0.48232278
69	0xe5	-0.2457116
70	0xf4	-0.10920516
71	0x06	0.05460258
72	0x15	0.19110903
73	0xe6	-0.23661117
74	0xfb	-0.04550215
75	0x0e	0.12740602
76	0x18	0.21841031
77	0x09	0.08190387
78	0x01	0.00910043
79	0x13	0.17290816
80	0x18	0.21841031
81	0x0f	0.13650644
82	0xe3	-0.26391247
83	0x24	0.32761547
84	0xdd	-0.31851503
85	0xe3	-0.26391247
86	0x31	0.44592106
87	0x23	0.31851503
88	0xf4	-0.10920516
89	0xfc	-0.03640172
90	0xe0	-0.29121375
91	0xf7	-0.08190387
92	0x0f	0.13650644
93	0x00	0.0
94	0xf8	-0.07280344
95	0x13	0.17290816
96	0x30	0.43682063
97	0x0a	0.0910043
98	0xe5	-0.2457116
99	0xfc	-0.03640172
100	0x11	0.15470731
101	0x06	0.05460258
102	0x02	0.01820086
103	0x18	0.21841031
104	0x05	0.04550215
105	0x04	0.03640172
106	0xdf	-0.3003142
107	0x1e	0.27301288
108	0x0c	0.10920516
109	0x1e	0.27301288
110	0xe6	-0.23661117
111	0xdf	-0.3003142
112	0xf3	-0.11830559
113	0x0d	0.11830559
114	0x41	0.59152794
115	0xe7	-0.22751075
116	0xf7	-0.08190387
117	0x1e	0.27301288
118	0xc8	-0.50962406
119	0xf6	-0.0910043
120	0x67	0.93734425
121	0xc3	-0.5551262
122	0x4c	0.6916326
123	0xec	-0.1820086
124	0x6a	0.96464556
125	0xd2	-0.41861975
126	0x0a	0.0910043
127	0xcc	-0.47322235
128	0x06	0.05460258
129	0x0e	0.12740602
130	0xe3	-0.26391247
131	0xff	-0.00910043
132	0x1d	0.26391247
133	0x09	0.08190387
134	0xf4	-0.10920516
135	0xcd	-0.4641219
136	0x0e	0.12740602
137	0xe6	-0.23661117
138	0xe2	-0.27301288
139	0x11	0.15470731
140	0xde	-0.30941463
141	0x33	0.4641219
142	0x03	0.02730129
143	0x20	0.29121375
144	0xc7	-0.5187245
145	0x0c	0.10920516
146	0x81	-1.1557546
147	0x05	0.04550215
148	0xa6	-0.8190387
149	0x31	0.44592106
150	0x23	0.31851503
151	0x33	0.4641219
152	0xec	-0.1820086
153	0xee	-0.16380773
154	0x0e	0.12740602
155	0xfb	-0.04550215
156	0xf6	-0.0910043
157	0x2f	0.4277202
158	0x03	0.02730129
159	0xf7	-0.08190387
160	0xe7	-0.22751075
161	0xed	-0.17290816
162	0x04	0.03640172
163	0xfe	-0.01820086
164	0x1c	0.25481203
165	0x1f	0.2821133
166	0xfe	-0.01820086
167	0x07	0.06370301
168	0x01	0.00910043
169	0xe3	-0.26391247
170	0xf6	-0.0910043
171	0x46	0.63703007
172	0xe4	-0.25481203
173	0x21	0.3003142
174	0xf1	-0.13650644
175	0x00	0.0
176	0x15	0.19110903
177	0x39	0.5187245
178	0x02	0.01820086
179	0xec	-0.1820086
180	0xea	-0.20020945
181	0xf2	-0.12740602
182	0xfd	-0.02730129
183	0x07	0.06370301
184	0xfe	-0.01820086
185	0x05	0.04550215
186	0xce	-0.4550215
187	0xba	-0.63703007
188	0xf3	-0.11830559
189	0x22	0.30941463
190	0x01	0.00910043
191	0xf4	-0.10920516

torch.fx.graph_module.GraphModule.__new__.<locals>.GraphModuleImpl/torch.nn.modules.container.Sequential_layers/src.models.Block_4/torch.nn.modules.conv.Conv2d_conv2; i1 [1, 3, 3, 24] scale=0.0165806 zero_point=0
0	0x4c	1.2601256
1	0x2c	0.7295464
2	0xd5	-0.7129658
3	0xfa	-0.0994836
4	0x1a	0.4310956
5	0x27	0.6466434
6	0x13	0.3150314
7	0x1e	0.49741802
8	0xf6	-0.165806
9	0xe3	-0.4808374
10	0x22	0.56374043
11	0x2a	0.6963852
12	0xf2	-0.23212841
13	0xf7	-0.1492254
14	0x27	0.6466434
15	0x01	0.0165806
16	0xc1	-1.0445778
17	0x28	0.663224
18	0x0a	0.165806
19	0xf1	-0.24870901
20	0xcd	-0.8456106
21	0xf2	-0.23212841
22	0x90	-1.8570273
23	0xd8	-0.663224
24	0xdb	-0.61348224
25	0xd8	-0.663224
26	0xa9	-1.4425123
27	0xd4	-0.7295464
28	0xf7	-0.1492254
29	0x45	1.1440614
30	0x04	0.0663224
31	0x5c	1.5254152
32	0x08	0.1326448
33	0xf7	-0.1492254
34	0x01	0.0165806
35	0x02	0.0331612
36	0xb6	-1.2269645
37	0xf6	-0.165806
38	0x0b	0.1823866
39	0x1b	0.4476762
40	0xd7	-0.6798046
41	0xec	-0.331612
42	0x2f	0.77928823
43	0xff	-0.0165806
44	0xe8	-0.3979344
45	0x06	0.0994836
46	0x4a	1.2269645
47	0x16	0.3647732
48	0x14	0.331612
49	0xdf	-0.5471598
50	0x14	0.331612
51	0x2d	0.746127
52	0xe7	-0.41451502
53	0x0d	0.2155478
54	0xd8	-0.663224
55	0xfd	-0.0497418
56	0xe8	-0.3979344
57	0xc2	-1.0279973
58	0xff	-0.0165806
59	0xce	-0.82903004
60	0x09	0.1492254
61	0x07	0.116064206
62	0xe9	-0.3813538
63	0x12	0.2984508
64	0x59	1.4756734
65	0xff	-0.0165806
66	0x2e	0.7627076
67	0x13	0.3150314
68	0x37	0.911933
69	0xeb	-0.3481926
70	0x28	0.663224
71	0x35	0.87877184
72	0xcf	-0.8124494
73	0xe6	-0.4310956
74	0x2a	0.6963852
75	0xe2	-0.49741802
76	0x1e	0.49741802
77	0xd6	-0.6963852
78	0x0e	0.23212841
79	0xd6	-0.6963852
80	0x3a	0.9616748
81	0x09	0.1492254
82	0x59	1.4756734
83	0x31	0.8124494
84	0x07	0.116064206
85	0xe3	-0.4808374
86	0x35	0.87877184
87	0xf2	-0.23212841
88	0x07	0.116064206
89	0xd9	-0.6466434
90	0xe7	-0.41451502
91	0xd2	-0.7627076
92	0xe8	-0.3979344
93	0xf9	-0.116064206
94	0x36	0.8953524
95	0xde	-0.56374043
96	0xd7	-0.6798046
97	0x94	-1.7907048
98	0x13	0.3150314
99	0xcc	-0.8621912
100	0xfd	-0.0497418
101	0x64	1.6580601
102	0x7f	2.1057363
103	0xc4	-0.99483603
104	0x2f	0.77928823
105	0x6e	1.823866
106	0xa3	-1.5419959
107	0x22	0.56374043
108	0x56	1.4259316
109	0x23	0.580321
110	0x17	0.3813538
111	0x07	0.116064206
112	0x0f	0.24870901
113	0xa5	-1.5088346
114	0x0e	0.23212841
115	0xa2	-1.5585765
116	0xcc	-0.8621912
117	0x13	0.3150314
118	0xa2	-1.5585765
119	0x56	1.4259316
120	0xce	-0.82903004
121	0x26	0.6300628
122	0xca	-0.8953524
123	0x36	0.8953524
124	0xf2	-0.23212841
125	0x0b	0.1823866
126	0x1c	0.46425682
127	0xad	-1.3761898
128	0x11	0.28187022
129	0xfc	-0.0663224
130	0x09	0.1492254
131	0xd9	-0.6466434
132	0x69	1.740963
133	0x49	1.2103838
134	0xe5	-0.4476762
135	0x00	0.0
136	0xde	-0.56374043
137	0xdd	-0.580321
138	0x20	0.5305792
139	0xc1	-1.0445778
140	0x19	0.41451502
141	0x0e	0.23212841
142	0xfd	-0.0497418
143	0xf8	-0.1326448
144	0xc0	-1.0611584
145	0xfd	-0.0497418
146	0x2a	0.6963852
147	0x1c	0.46425682
148	0x24	0.5969016
149	0xd1	-0.77928823
150	0xe4	-0.46425682
151	0x0c	0.1989672
152	0x17	0.3813538
153	0xf6	-0.165806
154	0x18	0.3979344
155	0x1c	0.46425682
156	0xd2	-0.7627076
157	0x1a	0.4310956
158	0x08	0.1326448
159	0xee	-0.2984508
160	0x4d	1.2767062
161	0x60	1.5917376
162	0xe7	-0.41451502
163	0x25	0.61348224
164	0x6d	1.8072854
165	0x16	0.3647732
166	0x44	1.1274809
167	0x06	0.0994836
168	0xfa	-0.0994836
169	0x02	0.0331612
170	0x3b	0.9782554
171	0x4a	1.2269645
172	0x47	1.1772226
173	0x05	0.082903
174	0x39	0.9450942
175	0xee	-0.2984508
176	0xf9	-0.116064206
177	0x51	1.3430287
178	0xd5	-0.7129658
179	0xf7	-0.1492254
180	0x2b	0.7129658
181	0x62	1.6248988
182	0x23	0.580321
183	0xd9	-0.6466434
184	0x1a	0.4310956
185	0x1e	0.49741802
186	0xf6	-0.165806
187	0x6e	1.823866
188	0x08	0.1326448
189	0x26	0.6300628
190	0xfd	-0.0497418
191	0x2b	0.7129658
192	0x2f	0.77928823
193	0x55	1.409351
194	0x0e	0.23212841
195	0x9a	-1.6912212
196	0xe4	-0.46425682
197	0x0c	0.1989672
198	0x28	0.663224
199	0x23	0.580321
200	0xf8	-0.1326448
201	0xd9	-0.6466434
202	0xfd	-0.0497418
203	0xc4	-0.99483603
204	0xda	-0.6300628
205	0xf5	-0.1823866
206	0x22	0.56374043
207	0xda	-0.6300628
208	0xba	-1.160642
209	0x2b	0.7129658
210	0x0b	0.1823866
211	0x30	0.7958688
212	0x81	-2.1057363
213	0x33	0.8456106
214	0xde	-0.56374043
215	0xf5	-0.1823866

torch.fx.graph_module.GraphModule.__new__.<locals>.GraphModuleImpl/torch.nn.modules.container.Sequential_layers/src.models.Block_4/torch.nn.modules.conv.Conv2d_conv3; i1 [8, 1, 1, 24] scale=0.0037431 zero_point=0
0	0x01	0.0037431
1	0xd9	-0.1459809
2	0x4d	0.2882187
3	0x2c	0.1646964
4	0x81	-0.4753737
5	0xd3	-0.1684395
6	0x3e	0.2320722
7	0xb6	-0.2769894
8	0x26	0.1422378
9	0xf7	-0.0336879
10	0xf3	-0.0486603
11	0x3e	0.2320722
12	0xe9	-0.0860913
13	0xd4	-0.1646964
14	0x11	0.0636327
15	0x05	0.0187155
16	0xf6	-0.037431
17	0xce	-0.187155
18	0xaf	-0.3031911
19	0xd2	-0.1721826
20	0x09	0.0336879
21	0xd1	-0.1759257
22	0x06	0.0224586
23	0xb8	-0.2695032
24	0x4b	0.2807325
25	0x59	0.3331359
26	0x03	0.0112293
27	0x09	0.0336879
28	0x16	0.0823482
29	0x2e	0.1721826
30	0x9e	-0.3668238
31	0x2a	0.1572102
32	0x16	0.0823482
33	0xea	-0.0823482
34	0x1c	0.104806796
35	0x0b	0.0411741
36	0x32	0.187155
37	0x40	0.2395584
38	0x02	0.0074862
39	0xd9	-0.1459809
40	0x34	0.1946412
41	0x00	0.0
42	0x2a	0.1572102
43	0x56	0.3219066
44	0xeb	-0.0786051
45	0xec	-0.074862
46	0x1f	0.1160361
47	0x2e	0.1721826
48	0xcf	-0.1834119
49	0xe8	-0.0898344
50	0x5a	0.336879
51	0xfc	-0.0149724
52	0x57	0.3256497
53	0x5e	0.3518514
54	0xaf	-0.3031911
55	0x46	0.262017
56	0x5c	0.3443652
57	0x2d	0.1684395
58	0xeb	-0.0786051
59	0x2f	0.1759257
60	0x42	0.2470446
61	0xfa	-0.0224586
62	0x92	-0.411741
63	0x1e	0.112293
64	0xea	-0.0823482
65	0x0e	0.052403398
66	0x50	0.299448
67	0x2f	0.1759257
68	0x1c	0.104806796
69	0x3c	0.224586
70	0xe7	-0.0935775
71	0xf8	-0.0299448
72	0x0e	0.052403398
73	0x2b	0.1609533
74	0xf3	-0.0486603
75	0x2e	0.1721826
76	0xc7	-0.2133567
77	0x9f	-0.3630807
78	0x14	0.074862
79	0x3b	0.2208429
80	0xdd	-0.1310085
81	0xf4	-0.0449172
82	0x2c	0.1646964
83	0x36	0.2021274
84	0xb1	-0.2957049
85	0xe1	-0.1160361
86	0x27	0.1459809
87	0xf9	-0.026201699
88	0x12	0.0673758
89	0xff	-0.0037431
90	0x14	0.074862
91	0x39	0.2133567
92	0x0f	0.0561465
93	0x2f	0.1759257
94	0x2b	0.1609533
95	0xb2	-0.2919618
96	0x1a	0.0973206
97	0xe0	-0.1197792
98	0x38	0.20961359
99	0xff	-0.0037431
100	0xe3	-0.1085499
101	0xdd	-0.1310085
102	0xb3	-0.2882187
103	0x33	0.1908981
104	0x3d	0.22832909
105	0x35	0.1983843
106	0xd2	-0.1721826
107	0xcf	-0.1834119
108	0x0a	0.037431
109	0x47	0.2657601
110	0xd6	-0.1572102
111	0xf7	-0.0336879
112	0x18	0.0898344
113	0x03	0.0112293
114	0xd7	-0.1534671
115	0x17	0.0860913
116	0x4e	0.2919618
117	0xec	-0.074862
118	0xf0	-0.0598896
119	0xfc	-0.0149724
120	0x2b	0.1609533
121	0x51	0.3031911
122	0xb8	-0.2695032
123	0x06	0.0224586
124	0x1a	0.0973206
125	0x2f	0.1759257
126	0x20	0.1197792
127	0xf1	-0.0561465
128	0x64	0.37431
129	0x34	0.1946412
130	0x24	0.1347516
131	0x36	0.2021274
132	0xfc	-0.0149724
133	0x64	0.37431
134	0x41	0.2433015
135	0xbb	-0.2582739
136	0x2d	0.1684395
137	0xcb	-0.1983843
138	0xe1	-0.1160361
139	0xd1	-0.1759257
140	0x25	0.1384947
141	0x22	0.1272654
142	0x0a	0.037431
143	0x2e	0.1721826
144	0xfc	-0.0149724
145	0xdc	-0.1347516
146	0x13	0.0711189
147	0x44	0.2545308
148	0x26	0.1422378
149	0x3d	0.22832909
150	0x5b	0.3406221
151	0xdf	-0.1235223
152	0xe9	-0.0860913
153	0x97	-0.3930255
154	0x30	0.1796688
155	0xd9	-0.1459809
156	0xd3	-0.1684395
157	0x0e	0.052403398
158	0x3f	0.2358153
159	0xcc	-0.1946412
160	0x6f	0.4154841
161	0xbe	-0.2470446
162	0xeb	-0.0786051
163	0xde	-0.1272654
164	0x42	0.2470446
165	0xd1	-0.1759257
166	0x71	0.4229703
167	0x42	0.2470446
168	0xe6	-0.0973206
169	0xb3	-0.2882187
170	0x11	0.0636327
171	0xf3	-0.0486603
172	0xdf	-0.1235223
173	0x1c	0.104806796
174	0x65	0.3780531
175	0xf0	-0.0598896
176	0x1f	0.1160361
177	0x3e	0.2320722
178	0xcf	-0.1834119
179	0xe3	-0.1085499
180	0x5e	0.3518514
181	0x03	0.0112293
182	0x26	0.1422378
183	0x03	0.0112293
184	0x1d	0.1085499
185	0x3f	0.2358153
186	0x31	0.1834119
187	0x24	0.1347516
188	0x13	0.0711189
189	0xe3	-0.1085499
190	0x2b	0.1609533
191	0x11	0.0636327

torch.fx.graph_module.GraphModule.__new__.<locals>.GraphModuleImpl/torch.nn.modules.container.Sequential_layers/src.models.Block_5/torch.nn.modules.conv.Conv2d_conv1; i1 [24, 1, 1, 8] scale=0.00456237 zero_point=0
0	0xd2	-0.20986903
1	0x1f	0.14143348
2	0xca	-0.24636798
3	0x18	0.10949688
4	0xd3	-0.20530665
5	0xe2	-0.1368711
6	0x2e	0.20986903
7	0x23	0.15968294
8	0x1b	0.12318399
9	0x26	0.17337006
10	0xf0	-0.07299792
11	0x0a	0.0456237
12	0xbd	-0.30567878
13	0xeb	-0.09580977
14	0x0e	0.06387318
15	0xea	-0.10037214
16	0x1c	0.12774636
17	0xfe	-0.00912474
18	0xd8	-0.1824948
19	0x0d	0.05931081
20	0xee	-0.08212266
21	0xee	-0.08212266
22	0x95	-0.4881736
23	0x2d	0.20530665
24	0xeb	-0.09580977
25	0x1d	0.13230874
26	0xed	-0.08668503
27	0x2f	0.21443139
28	0x2e	0.20986903
29	0x38	0.25549272
30	0x7f	0.579421
31	0x24	0.16424532
32	0x42	0.3011164
33	0xf4	-0.05474844
34	0x26	0.17337006
35	0xec	-0.0912474
36	0xa7	-0.40605092
37	0x5d	0.4243004
38	0xb3	-0.3513025
39	0xeb	-0.09580977
40	0xf2	-0.06387318
41	0x19	0.11405925
42	0xf3	-0.05931081
43	0x4a	0.33761537
44	0xff	-0.00456237
45	0xb5	-0.34217775
46	0x0b	0.05018607
47	0xce	-0.2281185
48	0xc9	-0.25093034
49	0xe5	-0.12318399
50	0x13	0.08668503
51	0xf7	-0.04106133
52	0x23	0.15968294
53	0xfd	-0.01368711
54	0xf8	-0.03649896
55	0x13	0.08668503
56	0xb3	-0.3513025
57	0x59	0.40605092
58	0xcd	-0.23268087
59	0xe9	-0.10493451
60	0x53	0.3786767
61	0x11	0.07756029
62	0x41	0.29655406
63	0xcf	-0.22355613
64	0x47	0.32392827
65	0x63	0.45167464
66	0x2e	0.20986903
67	0xf1	-0.06843555
68	0xe4	-0.12774636
69	0xd5	-0.19618191
70	0x04	0.01824948
71	0xe8	-0.10949688
72	0x16	0.10037214
73	0xfb	-0.02281185
74	0x42	0.3011164
75	0xec	-0.0912474
76	0xb8	-0.32849064
77	0x0d	0.05931081
78	0x22	0.15512058
79	0xdf	-0.1505582
80	0xbe	-0.3011164
81	0x13	0.08668503
82	0x03	0.01368711
83	0xe7	-0.11405925
84	0xc3	-0.27830458
85	0xe6	-0.11862162
86	0xe6	-0.11862162
87	0xc3	-0.27830458
88	0xe7	-0.11405925
89	0xc4	-0.2737422
90	0x0f	0.06843555
91	0x3c	0.2737422
92	0xf6	-0.0456237
93	0xfa	-0.02737422
94	0x07	0.03193659
95	0xdb	-0.16880769
96	0xc8	-0.25549272
97	0xe8	-0.10949688
98	0xe3	-0.13230874
99	0x0b	0.05018607
100	0xf3	-0.05931081
101	0xe2	-0.1368711
102	0x34	0.23724324
103	0x12	0.08212266
104	0xc0	-0.29199168
105	0xb9	-0.32392827
106	0xf8	-0.03649896
107	0x3a	0.26461747
108	0x1f	0.14143348
109	0xeb	-0.09580977
110	0xec	-0.0912474
111	0xea	-0.10037214
112	0x12	0.08212266
113	0xef	-0.07756029
114	0x0b	0.05018607
115	0x1d	0.13230874
116	0x05	0.02281185
117	0xee	-0.08212266
118	0x05	0.02281185
119	0xed	-0.08668503
120	0xcf	-0.22355613
121	0xfa	-0.02737422
122	0x03	0.01368711
123	0x2c	0.20074429
124	0xd6	-0.19161955
125	0x1d	0.13230874
126	0x18	0.10949688
127	0xda	-0.17337006
128	0xd2	-0.20986903
129	0xe9	-0.10493451
130	0xef	-0.07756029
131	0xf5	-0.05018607
132	0xf2	-0.06387318
133	0xe6	-0.11862162
134	0xfd	-0.01368711
135	0xd7	-0.18705717
136	0x3d	0.27830458
137	0x1c	0.12774636
138	0xfb	-0.02281185
139	0xe2	-0.1368711
140	0x09	0.04106133
141	0x19	0.11405925
142	0xff	-0.00456237
143	0xec	-0.0912474
144	0xca	-0.24636798
145	0xe0	-0.14599584
146	0xd3	-0.20530665
147	0xaf	-0.36955196
148	0xd3	-0.20530665
149	0xb2	-0.35586485
150	0xec	-0.0912474
151	0xc1	-0.2874293
152	0xdd	-0.15968294
153	0x02	0.00912474
154	0x32	0.2281185
155	0xfc	-0.01824948
156	0xe0	-0.14599584
157	0xe5	-0.12318399
158	0x1a	0.11862162
159	0xd3	-0.20530665
160	0x03	0.01368711
161	0x67	0.46992412
162	0xef	-0.07756029
163	0x16	0.10037214
164	0xeb	-0.09580977
165	0xc4	-0.2737422
166	0xd5	-0.19618191
167	0xe4	-0.12774636
168	0xfc	-0.01824948
169	0xc8	-0.25549272
170	0x26	0.17337006
171	0xfb	-0.02281185
172	0x03	0.01368711
173	0xe0	-0.14599584
174	0x15	0.09580977
175	0x0c	0.05474844
176	0x1a	0.11862162
177	0xf6	-0.0456237
178	0x07	0.03193659
179	0x06	0.02737422
180	0x4c	0.34674013
181	0xf9	-0.03193659
182	0xe5	-0.12318399
183	0x1b	0.12318399
184	0xf7	-0.04106133
185	0x48	0.32849064
186	0x7a	0.55660915
187	0xe6	-0.11862162
188	0x07	0.03193659
189	0xe0	-0.14599584
190	0x06	0.02737422
191	0x34	0.23724324
