tflm/tensorflow/lite/micro/examples/cifar10/models/cifar10_int8.tflite (tflite, 300128 bytes, 58 tensors)

torch.fx.graph_module.GraphModule.__new__.<locals>.GraphModuleImpl/torch.nn.modules.conv.Conv2d_conv1; i1 [32, 3, 3, 3] scale=0.0291583 zero_point=0
00000000: 18f7 f809 0afb f0f8 e919 1802 141b fd0e
00000010: 140b e9fd f700 13fa 0b08 faa4 2be4 dd50
00000020: 09a9 171f 2011 15bc 56ad 430d a4f0 2bbc
00000030: df5a 8c23 2f27 27cd 1e56 f9aa 4ff1 de08
00000040: 30b8 5ac6 c9e0 d62e f9d1 16be 2d35 2630
00000050: e4cd 05f1 2fe2 08d5 201f 5b4d 3bc8 81b6
00000060: 33f1 1bec 5303 e4d6 d81d 0a03 e6fe 01ec
00000070: 02f7 1700 0efa 0f02 fc01 17eb 04ff dff1
00000080: e2f2 f811 fdf2 eef9 e3c8 ccef 07ef 27c5
00000090: 152b 26ff 4019 24d1 febf fde3 3d09 50eb
000000a0: f804 30ec 11d7 1730 1bd7 0809 bfd6 c4c7
000000b0: 2443 cd43 2326 17c6 35f9 d3b8 fef5 f0ac
000000c0: edfe d908 c71a 14cf 3242 3a3c eff5 ccfb
000000d0: 0600 f8cd fd19 df5b f31c 14e7 330c 0a15
000000e0: f3e3 edc7 eaf0 b348 f6c5 dd39 1a02 3eef
000000f0: c425 dfde f8d7 1606 44dc f0f8 d2ce 0a20
0.6997992 -0.2624247 -0.2332664 0.2624247 0.291583 -0.1457915 -0.4665328 -0.2332664
-0.6706409 0.7289575 0.6997992 0.0583166 0.583166 0.7872741 -0.0874749 0.4082162
0.583166 0.3207413 -0.6706409 -0.0874749 -0.2624247 0.0 0.5540077 -0.1749498
0.3207413 0.2332664 -0.1749498 -2.6825635 1.253807 -0.8164324 -1.0205405 2.332664
0.2624247 -2.536772 0.6706409 0.9039073 0.9330656 0.4956911 0.6123243 -1.9827644
2.507614 -2.4201388 1.9536061 0.37905788 -2.6825635 -0.4665328 1.253807 -1.9827644
-0.9622239 2.624247 -3.3823628 1.0205405 1.3704401 1.1371737 1.1371737 -1.4870733
0.874749 2.507614 -0.2041081 -2.507614 2.3035057 -0.4373745 -0.9913822 0.2332664
1.3995984 -2.0993977 2.624247 -1.6911814 -1.6037065 -0.9330656 -1.2246486 1.3412818
-0.2041081 -1.3704401 0.6414826 -1.9244478 1.3121235 1.5453899 1.1080154 1.3995984
-0.8164324 -1.4870733 0.1457915 -0.4373745 1.3704401 -0.874749 0.2332664 -1.253807
0.9330656 0.9039073 2.6534052 2.2451892 1.7203397 -1.6328648 -3.703104 -2.1577141
1.4870733 -0.4373745 0.7872741 -0.583166 2.4201388 0.0874749 -0.8164324 -1.2246486
-1.166332 0.8455907 0.291583 0.0874749 -0.75811577 -0.0583166 0.0291583 -0.583166
0.0583166 -0.2624247 0.6706409 0.0 0.4082162 -0.1749498 0.4373745 0.0583166
-0.1166332 0.0291583 0.6706409 -0.6123243 0.1166332 -0.0291583 -0.9622239 -0.4373745
-0.874749 -0.4082162 -0.2332664 0.4956911 -0.0874749 -0.4082162 -0.5248494 -0.2041081
-0.8455907 -1.6328648 -1.5162315 -0.4956911 0.2041081 -0.4956911 1.1371737 -1.7203397
0.6123243 1.253807 1.1080154 -0.0291583 1.8661312 0.7289575 1.0496988 -1.3704401
-0.0583166 -1.8952895 -0.0874749 -0.8455907 1.7786562 0.2624247 2.332664 -0.6123243
-0.2332664 0.1166332 1.3995984 -0.583166 0.4956911 -1.1954902 0.6706409 1.3995984
0.7872741 -1.1954902 0.2332664 0.2624247 -1.8952895 -1.2246486 -1.749498 -1.6620231
1.0496988 1.9536061 -1.4870733 1.9536061 1.0205405 1.1080154 0.6706409 -1.6911814
1.5453899 -0.2041081 -1.3121235 -2.0993977 -0.0583166 -0.3207413 -0.4665328 -2.4492972
-0.5540077 -0.0583166 -1.1371737 0.2332664 -1.6620231 0.75811577 0.583166 -1.4287567
1.457915 1.9244478 1.6911814 1.749498 -0.4956911 -0.3207413 -1.5162315 -0.1457915
0.1749498 0.0 -0.2332664 -1.4870733 -0.0874749 0.7289575 -0.9622239 2.6534052
-0.37905788 0.8164324 0.583166 -0.7289575 1.4870733 0.3498996 0.291583 0.6123243
-0.37905788 -0.8455907 -0.5540077 -1.6620231 -0.6414826 -0.4665328 -2.2451892 2.0993977
-0.291583 -1.7203397 -1.0205405 1.6620231 0.75811577 0.0583166 1.8078146 -0.4956911
-1.749498 1.0788571 -0.9622239 -0.9913822 -0.2332664 -1.1954902 0.6414826 0.1749498
1.9827644 -1.0496988 -0.4665328 -0.2332664 -1.3412818 -1.457915 0.291583 0.9330656

torch.fx.graph_module.GraphModule.__new__.<locals>.GraphModuleImpl/torch.nn.modules.container.Sequential_layers/src.models.BlockST1_0/torch.nn.modules.conv.Conv2d_conv1; i1 [32, 1, 1, 32] scale=0.00651997 zero_point=0
00000000: fb15 10e7 12ed ed1e eef3 eff3 01fe f9f2
00000010: fe16 f206 10ff 17f3 e2ec fdfb f0f7 0e01
00000020: efca e403 3426 01ee f60e a744 f6ca c426
00000030: 2b16 47de 2fde 10f0 e3b5 cafe 5e32 fa4f
00000040: 0cf6 679a f3c7 ed18 a223 dbce f802 bc06
00000050: 9f10 1ccf e53a 0ef2 0760 40d0 eec3 4c18
00000060: edf4 c5ca f81e 0205 28f1 2e0b 12f4 30ec
00000070: ca33 2f47 21e1 2d0e cbcd f015 2011 ee00
00000080: 04fe 10f6 081d 04e7 0508 d61d eeaa a7d6
00000090: eaef 19e4 2301 fa25 d51e 3a16 d4ca a2e8
000000a0: 1cf8 0ed7 1cc5 5712 f1fe 083c 36e2 bd00
000000b0: b157 1215 f6e4 f310 18e3 1628 12ac 41f4
000000c0: 04cc 24ea eff9 183a 9508 090a 1a00 4313
000000d0: f7f9 eff4 0aea b113 e1c5 b2e0 1e20 2229
000000e0: d6c6 1622 cf08 5be8 cd5c 3012 e254 e36f
000000f0: bc05 1c19 d928 e5d4 d95e 0b27 1834 044a
-0.03259985 0.13691936 0.10431952 -0.16299926 0.11735946 -0.12387943 -0.12387943 0.1955991
-0.11735946 -0.08475961 -0.11083949 -0.08475961 0.00651997 -0.01303994 -0.04563979 -0.09127958
-0.01303994 0.14343934 -0.09127958 0.03911982 0.10431952 -0.00651997 0.14995931 -0.08475961
-0.1955991 -0.1303994 -0.01955991 -0.03259985 -0.10431952 -0.05867973 0.09127958 0.00651997
-0.11083949 -0.35207838 -0.18255916 0.01955991 0.33903843 0.24775887 0.00651997 -0.11735946
-0.0651997 0.09127958 -0.5802773 0.44335797 -0.0651997 -0.35207838 -0.3911982 0.24775887
0.2803587 0.14343934 0.46291786 -0.22167899 0.3064386 -0.22167899 0.10431952 -0.10431952
-0.18907914 -0.48899776 -0.35207838 -0.01303994 0.6128772 0.3259985 -0.03911982 0.51507765
0.07823964 -0.0651997 0.6715569 -0.6650369 -0.08475961 -0.3716383 -0.12387943 0.15647928
-0.6128772 0.22819895 -0.24123889 -0.3259985 -0.05215976 0.01303994 -0.44335797 0.03911982
-0.6324371 0.10431952 0.18255916 -0.31947854 -0.17603919 0.37815827 0.09127958 -0.09127958
0.04563979 0.62591714 0.41727808 -0.31295857 -0.11735946 -0.39771816 0.49551773 0.15647928
-0.12387943 -0.07823964 -0.38467824 -0.35207838 -0.05215976 0.1955991 0.01303994 0.03259985
0.2607988 -0.09779955 0.29991862 0.07171967 0.11735946 -0.07823964 0.31295857 -0.1303994
-0.35207838 0.33251846 0.3064386 0.46291786 0.21515901 -0.20211907 0.29339865 0.09127958
-0.3455584 -0.33251846 -0.10431952 0.13691936 0.20863904 0.11083949 -0.11735946 0.0
0.02607988 -0.01303994 0.10431952 -0.0651997 0.05215976 0.18907914 0.02607988 -0.16299926
0.03259985 0.05215976 -0.27383873 0.18907914 -0.11735946 -0.5607174 -0.5802773 -0.27383873
-0.14343934 -0.11083949 0.16299926 -0.18255916 0.22819895 0.00651997 -0.03911982 0.24123889
-0.2803587 0.1955991 0.37815827 0.14343934 -0.28687868 -0.35207838 -0.6128772 -0.15647928
0.18255916 -0.05215976 0.09127958 -0.2673188 0.18255916 -0.38467824 0.5672374 0.11735946
-0.09779955 -0.01303994 0.05215976 0.3911982 0.35207838 -0.1955991 -0.436838 0.0
-0.51507765 0.5672374 0.11735946 0.13691936 -0.0651997 -0.18255916 -0.08475961 0.10431952
0.15647928 -0.18907914 0.14343934 0.2607988 0.11735946 -0.54767746 0.42379805 -0.07823964
0.02607988 -0.33903843 0.23471892 -0.14343934 -0.11083949 -0.04563979 0.15647928 0.37815827
-0.6976368 0.05215976 0.05867973 0.0651997 0.16951922 0.0 0.436838 0.12387943
-0.05867973 -0.04563979 -0.11083949 -0.07823964 0.0651997 -0.14343934 -0.51507765 0.12387943
-0.20211907 -0.38467824 -0.5085577 -0.20863904 0.1955991 0.20863904 0.22167899 0.2673188
-0.27383873 -0.37815827 0.14343934 0.22167899 -0.31947854 0.05215976 0.5933173 -0.15647928
-0.33251846 0.59983724 0.31295857 0.11735946 -0.1955991 0.54767746 -0.18907914 0.7237167
-0.44335797 0.03259985 0.18255916 0.16299926 -0.25427884 0.2607988 -0.17603919 -0.28687868
-0.25427884 0.6128772 0.07171967 0.25427884 0.15647928 0.33903843 0.02607988 0.48247778

torch.fx.graph_module.GraphModule.__new__.<locals>.GraphModuleImpl/torch.nn.modules.container.Sequential_layers/src.models.BlockST1_0/torch.nn.modules.conv.Conv2d_conv2; i1 [1, 3, 3, 32] scale=0.0272676 zero_point=0
00000000: 27f5 f402 240a 2405 e80d 1202 e5eb feef
00000010: d3de f5d3 10fc 00eb 00fc 2a05 0900 e4fb
00000020: cd30 1011 f8dc 04ec ff19 2101 1401 e914
00000030: e2d2 22ff f418 dd1a 0611 2ef8 05f0 f121
00000040: 43e6 f6f7 08ef ff02 fdf8 e80b e701 2f0e
00000050: 18e1 25f6 ee01 1b0b fbfa e210 06b2 fe21
00000060: 502a 1f34 f122 24ea f7f3 fff9 fbf2 d6dc
00000070: f824 ba0d 3bcf eb02 280e 04ea 1cea f212
00000080: 89db e0f2 2ae5 e2ff edf8 3d0c 01fa d6f2
00000090: dd14 dbea d70c 7fdf d913 21fe 14eb 2cea
000000a0: fdda 0de4 3222 dfe1 f3f6 1012 e207 3519
000000b0: bdf4 2011 731b d33e 0d0b bf04 0f4f 07cb
000000c0: e605 2ce3 d306 2906 e6fb 13f0 0ceb 04ed
000000d0: 1a4f 1107 1de7 0bfc 18fe 0de4 fb04 20f6
000000e0: b725 c2e8 e82a e913 18e3 e4cd f0f2 f31f
000000f0: 1d1a 3413 0d09 1cf0 e705 02fc e82e 0113
1.0634364 -0.2999436 -0.3272112 0.0545352 0.9816336 0.272676 0.9816336 0.136338
-0.6544224 0.3544788 0.4908168 0.0545352 -0.7362252 -0.5726196 -0.0545352 -0.4635492
-1.227042 -0.9270984 -0.2999436 -1.227042 0.4362816 -0.1090704 0.0 -0.5726196
0.0 -0.1090704 1.1452392 0.136338 0.2454084 0.0 -0.76349276 -0.136338
-1.3906475 1.3088448 0.4362816 0.4635492 -0.2181408 -0.9816336 0.1090704 -0.545352
-0.0272676 0.68169 0.89983076 0.0272676 0.545352 0.0272676 -0.62715477 0.545352
-0.818028 -1.2543095 0.9270984 -0.0272676 -0.3272112 0.6544224 -0.95436597 0.7089576
0.1636056 0.4635492 1.2543095 -0.2181408 0.136338 -0.4362816 -0.409014 0.89983076
1.8269292 -0.7089576 -0.272676 -0.2454084 0.2181408 -0.4635492 -0.0272676 0.0545352
-0.0818028 -0.2181408 -0.6544224 0.2999436 -0.68169 0.0272676 1.2815772 0.38174638
0.6544224 -0.8452956 1.0089012 -0.272676 -0.4908168 0.0272676 0.7362252 0.2999436
-0.136338 -0.1636056 -0.818028 0.4362816 0.1636056 -2.1268728 -0.0545352 0.89983076
2.181408 1.1452392 0.8452956 1.4179152 -0.409014 0.9270984 0.9816336 -0.5998872
-0.2454084 -0.3544788 -0.0272676 -0.19087319 -0.136338 -0.38174638 -1.1452392 -0.9816336
-0.2181408 0.9816336 -1.9087319 0.3544788 1.6087884 -1.3361124 -0.5726196 0.0545352
1.090704 0.38174638 0.1090704 -0.5998872 0.76349276 -0.5998872 -0.38174638 0.4908168
-3.2448444 -1.0089012 -0.8725632 -0.38174638 1.1452392 -0.7362252 -0.818028 -0.0272676
-0.5180844 -0.2181408 1.6633235 0.3272112 0.0272676 -0.1636056 -1.1452392 -0.38174638
-0.95436597 0.545352 -1.0089012 -0.5998872 -1.1179715 0.3272112 3.462985 -0.89983076
-1.0634364 0.5180844 0.89983076 -0.0545352 0.545352 -0.5726196 1.1997744 -0.5998872
-0.0818028 -1.0361688 0.3544788 -0.76349276 1.36338 0.9270984 -0.89983076 -0.8452956
-0.3544788 -0.272676 0.4362816 0.4908168 -0.818028 0.19087319 1.4451828 0.68169
-1.8269292 -0.3272112 0.8725632 0.4635492 3.135774 0.7362252 -1.227042 1.6905912
0.3544788 0.2999436 -1.772394 0.1090704 0.409014 2.1541405 0.19087319 -1.4451828
-0.7089576 0.136338 1.1997744 -0.7907604 -1.227042 0.1636056 1.1179715 0.1636056
-0.7089576 -0.136338 0.5180844 -0.4362816 0.3272112 -0.5726196 0.1090704 -0.5180844
0.7089576 2.1541405 0.4635492 0.19087319 0.7907604 -0.68169 0.2999436 -0.1090704
0.6544224 -0.0545352 0.3544788 -0.76349276 -0.136338 0.1090704 0.8725632 -0.272676
-1.9905348 1.0089012 -1.6905912 -0.6544224 -0.6544224 1.1452392 -0.62715477 0.5180844
0.6544224 -0.7907604 -0.76349276 -1.3906475 -0.4362816 -0.38174638 -0.3544788 0.8452956
0.7907604 0.7089576 1.4179152 0.5180844 0.3544788 0.2454084 0.76349276 -0.4362816
-0.68169 0.136338 0.0545352 -0.1090704 -0.6544224 1.2543095 0.0272676 0.5180844

torch.fx.graph_module.GraphModule.__new__.<locals>.GraphModuleImpl/torch.nn.modules.container.Sequential_layers/src.models.BlockST1_0/torch.nn.modules.conv.Conv2d_conv3; i1 [4, 1, 1, 32] scale=0.00405867 zero_point=0
00000000: fcd8 c42d d6f4 e495 db1e bd6e c984 a1e5
00000010: b8e7 0f8a 0ff9 01fd fee1 a0d2 cd55 c84f
00000020: 29b9 0004 f935 dc0e 0ad8 c1e2 4f4a 02cc
00000030: 00d7 111e 34b7 07f0 d5d8 2c13 5e69 d3e5
00000040: 34cb 41b4 e1c5 0ad0 31f2 b2d6 36dd 2f2b
00000050: d1b7 fad2 81db 6a14 5fb5 d1b9 1124 e24c
00000060: 5f17 20b5 b1d4 4ff2 d590 92cd 30d6 39fe
00000070: 024a 58ee bab6 2a4b 25e9 cbc5 e51e 01cd
-0.01623468 -0.1623468 -0.24352019 0.18264014 -0.17046413 -0.048704036 -0.11364275 -0.43427765
-0.15017079 0.12176009 -0.27193087 0.4464537 -0.22322685 -0.50327504 -0.38557363 -0.109584086
-0.29222423 -0.101466745 0.060880046 -0.47892302 0.060880046 -0.028410688 0.00405867 -0.012176009
-0.00811734 -0.12581876 -0.38963228 -0.18669881 -0.20699216 0.34498695 -0.2272855 0.3206349
0.16640545 -0.28816557 0.0 0.01623468 -0.028410688 0.2151095 -0.14611211 0.056821376
0.0405867 -0.1623468 -0.2556962 -0.12176009 0.3206349 0.30034158 0.00811734 -0.21105082
0.0 -0.16640545 0.06899738 0.12176009 0.21105082 -0.2962829 0.028410688 -0.06493872
-0.1745228 -0.1623468 0.17858148 0.07711472 0.38151497 0.42616034 -0.18264014 -0.109584086
0.21105082 -0.2151095 0.26381353 -0.3084589 -0.12581876 -0.23946151 0.0405867 -0.19481614
0.19887482 -0.056821376 -0.31657624 -0.17046413 0.21916817 -0.14205344 0.19075748 0.1745228
-0.19075748 -0.2962829 -0.024352018 -0.18669881 -0.5154511 -0.15017079 0.430219 0.0811734
0.38557363 -0.30440024 -0.19075748 -0.28816557 0.06899738 0.14611211 -0.12176009 0.3084589
0.38557363 0.093349405 0.12987743 -0.30440024 -0.3206349 -0.17858148 0.3206349 -0.056821376
-0.1745228 -0.454571 -0.4464537 -0.20699216 0.19481614 -0.17046413 0.23134418 -0.00811734
0.00811734 0.30034158 0.35716295 -0.07305606 -0.28410688 -0.30034158 0.17046413 0.30440024
0.15017079 -0.093349405 -0.2151095 -0.23946151 -0.109584086 0.12176009 0.00405867 -0.20699216

torch.fx.graph_module.GraphModule.__new__.<locals>.GraphModuleImpl/torch.nn.modules.container.Sequential_layers/src.models.BlockST1_0/torch.nn.modules.container.Sequential_shortcut/torch.nn.modules.conv.Conv2d_0; i1 [4, 1, 1, 32] scale=0.00478173 zero_point=0
00000000: f008 c7e9 ca62 030a 2401 f8d1 d4cd eae9
00000010: d8ee 4c3a 4418 03f7 f6f6 dbc4 9e2a 7c11
00000020: 1249 f44c 7812 cbdf 39e3 1ffe e5c3 eb5f
00000030: 2749 fd03 610a f13a 1bc8 2dc4 5243 7412
00000040: db6c 2a21 c7be c123 d52b 120f db17 81f3
00000050: ce0a 6f03 0ece b9fe d1de c1af 3efd d5b7
00000060: 9bb6 1046 32fe 32dd c516 bd1c 26ef ea20
00000070: cb25 b8f7 a2cf f620 071f 0feb 0d1c 51ae
-0.07650768 0.03825384 -0.2725586 -0.10997979 -0.25821343 0.46860954 0.01434519 0.0478173
0.17214228 0.00478173 -0.03825384 -0.22474131 -0.21039613 -0.24386823 -0.10519806 -0.10997979
-0.1912692 -0.08607114 0.3634115 0.27734035 0.32515764 0.11476152 0.01434519 -0.04303557
-0.0478173 -0.0478173 -0.176924 -0.2869038 -0.46860954 0.20083266 0.59293455 0.08128941
0.08607114 0.3490663 -0.05738076 0.3634115 0.5738076 0.08607114 -0.25343168 -0.15779708
0.2725586 -0.13867018 0.14823364 -0.00956346 -0.12910672 -0.29168552 -0.10041633 0.45426434
0.18648747 0.3490663 -0.01434519 0.01434519 0.46382782 0.0478173 -0.07172595 0.27734035
0.12910672 -0.26777688 0.21517785 -0.2869038 0.39210185 0.32037592 0.5546807 0.08607114
-0.176924 0.51642686 0.20083266 0.15779708 -0.2725586 -0.31559417 -0.301249 0.16736054
-0.20561439 0.20561439 0.08607114 0.07172595 -0.176924 0.10997979 -0.6072797 -0.06216249
-0.2390865 0.0478173 0.53077203 0.01434519 0.06694422 -0.2390865 -0.33950284 -0.00956346
-0.22474131 -0.16257882 -0.301249 -0.38732013 0.29646727 -0.01434519 -0.20561439 -0.3490663
-0.48295474 -0.353848 0.07650768 0.3347211 0.2390865 -0.00956346 0.2390865 -0.16736054
-0.28212208 0.10519806 -0.32037592 0.13388844 0.18170574 -0.08128941 -0.10519806 0.15301536
-0.25343168 0.176924 -0.34428456 -0.04303557 -0.44948262 -0.23430477 -0.0478173 0.15301536
0.03347211 0.14823364 0.07172595 -0.10041633 0.06216249 0.13388844 0.38732013 -0.39210185

torch.fx.graph_module.GraphModule.__new__.<locals>.GraphModuleImpl/torch.nn.modules.container.Sequential_layers/src.models.BlockST1_1/torch.nn.modules.conv.Conv2d_conv1; i1 [24, 1, 1, 4] scale=0.00540648 zero_point=0
00000000: d62b d225 1400 60d7 ea17 2281 05d2 f938
00000010: f21b d66d 1f10 b6ca 1e3c 1cb5 1bf8 2f35
00000020: 08d4 57ea 2dbd e9c9 a122 d8ce 345c eab1
00000030: e1d8 4de8 d3bd c553 3433 f354 1ff8 c5f1
00000040: 2b31 42e5 28fb e0e5 e5e3 d0f1 11ea 8a3d
00000050: df1c 64b5 fe2f 44f5 28a8 d439 f37a 12c6
-0.22707215 0.23247863 -0.24869807 0.20003976 0.1081296 0.0 0.51902205 -0.22166567
-0.11894256 0.124349035 0.1838203 -0.6866229 0.0270324 -0.24869807 -0.03784536 0.30276287
-0.07569072 0.14597495 -0.22707215 0.5893063 0.16760087 0.08650368 -0.40007952 -0.2919499
0.1621944 0.3243888 0.15138143 -0.405486 0.14597495 -0.04325184 0.25410455 0.28654343
0.04325184 -0.23788512 0.47036374 -0.11894256 0.24329159 -0.36223415 -0.124349035 -0.2973564
-0.5136156 0.1838203 -0.2162592 -0.270324 0.28113696 0.49739614 -0.11894256 -0.4271119
-0.16760087 -0.2162592 0.41629896 -0.12975551 -0.24329159 -0.36223415 -0.3189823 0.44873783
0.28113696 0.27573046 -0.07028424 0.4541443 0.16760087 -0.04325184 -0.3189823 -0.0810972
0.23247863 0.26491752 0.35682768 -0.14597495 0.2162592 -0.0270324 -0.17300735 -0.14597495
-0.14597495 -0.15678792 -0.25951102 -0.0810972 0.09191015 -0.11894256 -0.6379646 0.32979527
-0.17841384 0.15138143 0.540648 -0.405486 -0.01081296 0.25410455 0.3676406 -0.05947128
0.2162592 -0.47577024 -0.23788512 0.30816934 -0.07028424 0.65959054 0.09731664 -0.31357583

torch.fx.graph_module.GraphModule.__new__.<locals>.GraphModuleImpl/torch.nn.modules.container.Sequential_layers/src.models.BlockST1_1/torch.nn.modules.conv.Conv2d_conv2; i1 [1, 3, 3, 24] scale=0.0200947 zero_point=0
00000000: 2b14 d6f2 e823 4ffe bdf8 fdfc 0a03 eaf6
00000010: f0bd 28e2 0e15 12c5 4b20 e401 0c11 bf0b
00000020: 0510 ec1c f0bd e8fc eb16 2e25 d3f1 be3f
00000030: 20e6 e207 f7e1 e7fd 1ffb 01da fe00 1bae
00000040: e321 f617 f812 fa22 be39 1d34 1108 2a1b
00000050: 5117 ec08 431c e0ea 07c0 21e0 aff6 05f6
00000060: 2f0c 180c 57e3 e932 f4e5 dc26 ca00 1c7f
00000070: e46b 2804 0847 3501 f2eb fee7 1eda c82d
00000080: 46df fb3c 08d2 1ae3 dfe6 fbe8 351f 232f
00000090: 2310 2714 ee07 5417 f30b f118 32f4 c00a
000000a0: 1808 130b 30fc 0ad7 fd0a 0849 f506 e709
000000b0: ee4e 13e3 0f0a 20f6 cfdf e010 08de 13e7
000000c0: 0905 191a 07f2 e503 f308 f0dc dfea 1531
000000d0: 2d05 08e5 04b7 0600
0.8640721 0.401894 -0.8439774 -0.28132582 -0.4822728 0.7033145 1.5874813 -0.0401894
-1.346345 -0.1607576 -0.0602841 -0.0803788 0.200947 0.0602841 -0.44208342 -0.200947
-0.3215152 -1.346345 0.803788 -0.602841 0.28132582 0.4219887 0.3617046 -1.1855873
1.5071025 0.6430304 -0.56265163 0.0200947 0.2411364 0.3416099 -1.3061556 0.22104171
0.1004735 0.3215152 -0.401894 0.56265163 -0.3215152 -1.346345 -0.4822728 -0.0803788
-0.4219887 0.44208342 0.9243562 0.7435039 -0.9042615 -0.3014205 -1.3262502 1.265966
0.6430304 -0.5224622 -0.602841 0.14066291 -0.1808523 -0.6229357 -0.5023675 -0.0602841
0.6229357 -0.1004735 0.0200947 -0.7635986 -0.0401894 0.0 0.5425569 -1.6477654
-0.5827463 0.6631251 -0.200947 0.4621781 -0.1607576 0.3617046 -0.1205682 0.6832198
-1.3262502 1.1453979 0.5827463 1.0449244 0.3416099 0.1607576 0.8439774 0.5425569
1.6276708 0.4621781 -0.401894 0.1607576 1.346345 0.56265163 -0.6430304 -0.44208342
0.14066291 -1.2860608 0.6631251 -0.6430304 -1.6276708 -0.200947 0.1004735 -0.200947
0.9444509 0.2411364 0.4822728 0.2411364 1.7482389 -0.5827463 -0.4621781 1.004735
-0.2411364 -0.5425569 -0.7234092 0.7635986 -1.0851138 0.0 0.56265163 2.552027
-0.56265163 2.150133 0.803788 0.0803788 0.1607576 1.4267237 1.0650191 0.0200947
-0.28132582 -0.4219887 -0.0401894 -0.5023675 0.602841 -0.7635986 -1.1253033 0.9042615
1.406629 -0.6631251 -0.1004735 1.205682 0.1607576 -0.9243562 0.5224622 -0.5827463
-0.6631251 -0.5224622 -0.1004735 -0.4822728 1.0650191 0.6229357 0.7033145 0.9444509
0.7033145 0.3215152 0.7836933 0.401894 -0.3617046 0.14066291 1.6879548 0.4621781
-0.2612311 0.22104171 -0.3014205 0.4822728 1.004735 -0.2411364 -1.2860608 0.200947
0.4822728 0.1607576 0.3817993 0.22104171 0.9645456 -0.0803788 0.200947 -0.8238827
-0.0602841 0.200947 0.1607576 1.4669131 -0.22104171 0.1205682 -0.5023675 0.1808523
-0.3617046 1.5673866 0.3817993 -0.5827463 0.3014205 0.200947 0.6430304 -0.200947
-0.9846403 -0.6631251 -0.6430304 0.3215152 0.1607576 -0.6832198 0.3817993 -0.5023675
0.1808523 0.1004735 0.5023675 0.5224622 0.14066291 -0.28132582 -0.5425569 0.0602841
-0.2612311 0.1607576 -0.3215152 -0.7234092 -0.6631251 -0.44208342 0.4219887 0.9846403
0.9042615 0.1004735 0.1607576 -0.5425569 0.0803788 -1.4669131 0.1205682 0.0

torch.fx.graph_module.GraphModule.__new__.<locals>.GraphModuleImpl/torch.nn.modules.container.Sequential_layers/src.models.BlockST1_1/torch.nn.modules.conv.Conv2d_conv3; i1 [6, 1, 1, 24] scale=0.00387772 zero_point=0
00000000: 3c34 a816 f918 1c14 5128 22d8 583f 5809
00000010: 1e7f a2fb e3e0 ab2f a3d2 0715 bac2 f714
00000020: f8ea cabd f912 32db 2111 aa2b 1ed8 f603
00000030: 08e1 e416 605a 3511 2a3f 46af f5c6 24d5
00000040: 2e29 16d4 dad3 f8d7 3fe4 d83c 650d 4f49
00000050: e600 f704 3ac5 34e7 d0f5 d8ec 1ef8 e651
00000060: 43ef 5a05 2ef4 1dfd 3226 aaf1 e7ff fb4d
00000070: 24fe e632 e8b7 7c3d bf27 4cb0 23e1 2765
00000080: 4739 31e0 19be f5c5 26c3 b3c5 d23c 27bd
0.2326632 0.20164144 -0.34123936 0.08530984 -0.02714404 0.093065284 0.10857616 0.077554405
0.31409532 0.15510881 0.13184248 -0.15510881 0.34123936 0.24429637 0.34123936 0.03489948
0.1163316 0.49247044 -0.36450568 -0.019388601 -0.112453885 -0.12408704 -0.3296062 0.18225284
-0.36062798 -0.17837512 0.02714404 0.08143212 -0.27144042 -0.24041864 -0.03489948 0.077554405
-0.03102176 -0.08530984 -0.20939688 -0.25980726 -0.02714404 0.06979896 0.19388601 -0.14347564
0.12796476 0.06592124 -0.33348393 0.16674197 0.1163316 -0.15510881 -0.038777202 0.0116331605
0.03102176 -0.12020932 -0.10857616 0.08530984 0.37226114 0.34899482 0.20551917 0.06592124
0.16286424 0.24429637 0.27144042 -0.31409532 -0.04265492 -0.22490777 0.13959792 -0.16674197
0.17837512 0.15898652 0.08530984 -0.17061968 -0.14735337 -0.17449741 -0.03102176 -0.15898652
0.24429637 -0.10857616 -0.15510881 0.2326632 0.39164972 0.05041036 0.3063399 0.28307357
-0.10082072 0.0 -0.03489948 0.01551088 0.22490777 -0.22878549 0.20164144 -0.096943006
-0.18613057 -0.04265492 -0.15510881 -0.077554405 0.1163316 -0.03102176 -0.10082072 0.31409532
0.25980726 -0.06592124 0.34899482 0.019388601 0.17837512 -0.046532642 0.112453885 -0.0116331605
0.19388601 0.14735337 -0.33348393 -0.0581658 -0.096943006 -0.00387772 -0.019388601 0.29858446
0.13959792 -0.00775544 -0.10082072 0.19388601 -0.093065284 -0.28307357 0.4808373 0.23654093
-0.2520518 0.15123108 0.29470673 -0.31021762 0.13572021 -0.12020932 0.15123108 0.39164972
0.27531812 0.22103004 0.19000828 -0.12408704 0.096943006 -0.25592953 -0.04265492 -0.22878549
0.14735337 -0.23654093 -0.29858446 -0.22878549 -0.17837512 0.2326632 0.15123108 -0.25980726

torch.fx.graph_module.GraphModule.__new__.<locals>.GraphModuleImpl/torch.nn.modules.container.Sequential_layers/src.models.BlockST1_1/torch.nn.modules.container.Sequential_shortcut/torch.nn.modules.conv.Conv2d_0; i1 [6, 1, 1, 4] scale=0.004917 zero_point=0
00000000: af02 c3df 819b 561b 452f 6e11 9634 c455
00000010: 07db 895f 5079 f73c
-0.39827698 0.009834 -0.299937 -0.162261 -0.62445897 -0.496617 0.422862 0.132759
0.339273 0.231099 0.54087 0.083589 -0.52120197 0.255684 -0.29501998 0.417945
0.034419 -0.18192899 -0.585123 0.46711498 0.39336 0.594957 -0.044253 0.29501998

torch.fx.graph_module.GraphModule.__new__.<locals>.GraphModuleImpl/torch.nn.modules.container.Sequential_layers/src.models.BlockST1_2/torch.nn.modules.conv.Conv2d_conv1; i1 [36, 1, 1, 6] scale=0.0048959 zero_point=0
00000000: 2ecb cf3e c745 fb04 31fe 0e47 e1ea fb37
00000010: 2b44 ffe1 c751 cade 7800 cfad ca6f bb35
00000020: 27fd 012f fd4d 4ad9 460e b621 0ad0 0019
00000030: f5f8 2a75 02e0 05d8 d602 28d7 eeeb a7d6
00000040: e6f7 3627 1b1f f538 c90b 3fc8 d2bc b211
00000050: 30e7 1d81 ea24 d619 4529 f3b6 25f6 e63b
00000060: eabb c934 1632 10b3 ef3c 19fd ccc3 58cd
00000070: d5ec 000d 98eb 6111 2eee 6fe4 ddfe 00b6
00000080: 120b d043 e41c 300c eadf 1347 3418 331f
00000090: 19dc c815 4131 c822 00f6 3e93 4e27 a450
000000a0: 9d25 02a2 ef28 d1e0 ee03 bfdb b400 0741
000000b0: ed0a 11c0 c637 0222 c904 e242 fe16 aad6
000000c0: 0830 f839 f7e6 e1e4 c456 86f6 8f39 f308
000000d0: e816 0bfe 60c0 dbec
0.2252114 -0.25948268 -0.2398991 0.3035458 -0.2790663 0.3378171 -0.0244795 0.0195836
0.2398991 -0.0097918 0.0685426 0.3476089 -0.1517729 -0.107709795 -0.0244795 0.2692745
0.2105237 0.3329212 -0.0048959 -0.1517729 -0.2790663 0.39656788 -0.2643786 -0.1664606
0.58750796 0.0 -0.2398991 -0.4063597 -0.2643786 0.5434449 -0.3378171 0.25948268
0.1909401 -0.0146877 0.0048959 0.23010729 -0.0146877 0.3769843 0.36229658 -0.1909401
0.342713 0.0685426 -0.36229658 0.1615647 0.048959 -0.2350032 0.0 0.1223975
-0.053854898 -0.0391672 0.2056278 0.5728203 0.0097918 -0.1566688 0.0244795 -0.195836
-0.2056278 0.0097918 0.195836 -0.2007319 -0.0881262 -0.1028139 -0.4357351 -0.2056278
-0.1272934 -0.0440631 0.2643786 0.1909401 0.1321893 0.1517729 -0.053854898 0.2741704
-0.2692745 0.053854898 0.3084417 -0.2741704 -0.2252114 -0.3329212 -0.3818802 0.0832303
0.2350032 -0.1223975 0.1419811 -0.62177926 -0.107709795 0.1762524 -0.2056278 0.1223975
0.3378171 0.2007319 -0.0636467 -0.36229658 0.18114829 -0.048959 -0.1272934 0.2888581
-0.107709795 -0.3378171 -0.2692745 0.2545868 0.107709795 0.244795 0.0783344 -0.3769843
-0.0832303 0.29375398 0.1223975 -0.0146877 -0.2545868 -0.2986499 0.43083918 -0.24969089
-0.2105237 -0.097918 0.0 0.0636467 -0.5091736 -0.1028139 0.4749023 0.0832303
0.2252114 -0.0881262 0.5434449 -0.1370852 -0.1713565 -0.0097918 0.0 -0.36229658
0.0881262 0.053854898 -0.2350032 0.32802528 -0.1370852 0.1370852 0.2350032 0.0587508
-0.107709795 -0.1615647 0.0930221 0.3476089 0.2545868 0.1175016 0.24969089 0.1517729
0.1223975 -0.1762524 -0.2741704 0.1028139 0.3182335 0.2398991 -0.2741704 0.1664606
0.0 -0.048959 0.3035458 -0.5336531 0.3818802 0.1909401 -0.4504228 0.391672
-0.4846941 0.18114829 0.0097918 -0.46021459 -0.0832303 0.195836 -0.23010729 -0.1566688
-0.0881262 0.0146877 -0.3182335 -0.18114829 -0.3720884 0.0 0.0342713 0.3182335
-0.0930221 0.048959 0.0832303 -0.3133376 -0.2839622 0.2692745 0.0097918 0.1664606
-0.2692745 0.0195836 -0.14687699 0.3231294 -0.0097918 0.107709795 -0.4210474 -0.2056278
0.0391672 0.2350032 -0.0391672 0.2790663 -0.0440631 -0.1272934 -0.1517729 -0.1370852
-0.29375398 0.4210474 -0.5972998 -0.048959 -0.55323666 0.2790663 -0.0636467 0.0391672
-0.1175016 0.107709795 0.053854898 -0.0097918 0.4700064 -0.3133376 -0.18114829 -0.097918

torch.fx.graph_module.GraphModule.__new__.<locals>.GraphModuleImpl/torch.nn.modules.container.Sequential_layers/src.models.BlockST1_2/torch.nn.modules.conv.Conv2d_conv2; i1 [1, 3, 3, 36] scale=0.0213144 zero_point=0
00000000: 0502 1c15 03d4 050a dbeb ed16 1917 d7e2
00000010: f709 eeef 14f9 e009 eff4 0be1 edc6 fefc
00000020: 16dd 2abe 1d06 d506 120e ffd3 0d1b f500
00000030: 1ad4 10ef ed06 e7e7 f107 c714 06ef 07da
00000040: d2e5 30f2 df3a c111 0109 0220 eef2 3b17
00000050: 1a19 0223 d7c0 07e9 ec06 17f0 0cf6 77ce
00000060: 002b dafb 4609 ebe8 f4f7 2046 26de c632
00000070: 02f1 25c4 18fb 24f2 d819 f921 d500 0b02
00000080: 132a c3f8 e1ec 0509 3a53 e3ed ee57 1b42
00000090: 33e5 f0f6 17df 3b34 f1fe 13e9 cc12 f621
000000a0: d50d eefb 4e07 7f28 dd07 0209 a222 4bfe
000000b0: 3a96 d303 d2c0 15f2 f5f8 fc29 1813 cc32
000000c0: ed11 1710 25f6 36ee 15e4 c6df f42a e0ee
000000d0: d609 dcd3 14fa 16bf d4fc f3f7 0705 dffa
000000e0: 1611 2304 10d7 1112 f319 b508 c71d 51f3
000000f0: 27c8 2128 1ee5 11f9 03bf 0eb8 bb26 31be
0.106571995 0.0426288 0.5968032 0.4476024 0.0639432 -0.93783355 0.106571995 0.21314399
-0.78863275 -0.4476024 -0.4049736 0.46891677 0.53286 0.4902312 -0.8738904 -0.63943195
-0.19182959 0.19182959 -0.38365918 -0.3623448 0.42628798 -0.1492008 -0.6820608 0.19182959
-0.3623448 -0.2557728 0.23445839 -0.6607464 -0.4049736 -1.2362351 -0.0426288 -0.0852576
0.46891677 -0.746004 0.8952048 -1.4067503 0.6181176 0.1278864 -0.91651917 0.1278864
0.38365918 0.2984016 -0.0213144 -0.959148 0.27708718 0.5754888 -0.23445839 0.0
0.55417436 -0.93783355 0.3410304 -0.3623448 -0.4049736 0.1278864 -0.53286 -0.53286
-0.31971598 0.1492008 -1.2149208 0.42628798 0.1278864 -0.3623448 0.1492008 -0.8099472
-0.9804624 -0.5754888 1.0230912 -0.2984016 -0.70337516 1.2362351 -1.3428072 0.3623448
0.0213144 0.19182959 0.0426288 0.6820608 -0.38365918 -0.2984016 1.2575495 0.4902312
0.55417436 0.53286 0.0426288 0.746004 -0.8738904 -1.3641216 0.1492008 -0.4902312
-0.42628798 0.1278864 0.4902312 -0.3410304 0.2557728 -0.21314399 2.5364134 -1.06572
0.0 0.91651917 -0.8099472 -0.106571995 1.492008 0.19182959 -0.4476024 -0.5115456
-0.2557728 -0.19182959 0.6820608 1.492008 0.8099472 -0.7246896 -1.2362351 1.06572
0.0426288 -0.31971598 0.78863275 -1.2788639 0.5115456 -0.106571995 0.76731837 -0.2984016
-0.85257596 0.53286 -0.1492008 0.70337516 -0.91651917 0.0 0.23445839 0.0426288
0.4049736 0.8952048 -1.3001784 -0.1705152 -0.6607464 -0.42628798 0.106571995 0.19182959
1.2362351 1.7690952 -0.6181176 -0.4049736 -0.38365918 1.8543527 0.5754888 1.4067503
1.0870343 -0.5754888 -0.3410304 -0.21314399 0.4902312 -0.70337516 1.2575495 1.1083487
-0.31971598 -0.0426288 0.4049736 -0.4902312 -1.1083487 0.38365918 -0.21314399 0.70337516
-0.91651917 0.27708718 -0.38365918 -0.106571995 1.6625232 0.1492008 2.7069287 0.85257596
-0.746004 0.1492008 0.0426288 0.19182959 -2.0035536 0.7246896 1.59858 -0.0426288
1.2362351 -2.2593262 -0.959148 0.0639432 -0.9804624 -1.3641216 0.4476024 -0.2984016
-0.23445839 -0.1705152 -0.0852576 0.8738904 0.5115456 0.4049736 -1.1083487 1.06572
-0.4049736 0.3623448 0.4902312 0.3410304 0.78863275 -0.21314399 1.1509776 -0.38365918
0.4476024 -0.5968032 -1.2362351 -0.70337516 -0.2557728 0.8952048 -0.6820608 -0.38365918
-0.8952048 0.19182959 -0.76731837 -0.959148 0.42628798 -0.1278864 0.46891677 -1.3854359
-0.93783355 -0.0852576 -0.27708718 -0.19182959 0.1492008 0.106571995 -0.70337516 -0.1278864
0.46891677 0.3623448 0.746004 0.0852576 0.3410304 -0.8738904 0.3623448 0.38365918
-0.27708718 0.53286 -1.59858 0.1705152 -1.2149208 0.6181176 1.7264663 -0.27708718
0.8312616 -1.1936064 0.70337516 0.85257596 0.63943195 -0.5754888 0.3623448 -0.1492008
0.0639432 -1.3854359 0.2984016 -1.5346367 -1.4706936 0.8099472 1.0444056 -1.4067503

torch.fx.graph_module.GraphModule.__new__.<locals>.GraphModuleImpl/torch.nn.modules.container.Sequential_layers/src.models.BlockST1_2/torch.nn.modules.conv.Conv2d_conv3; i1 [6, 1, 1, 36] scale=0.00535848 zero_point=0
00000000: f8be d103 dc03 ea0b fced 3749 16fa d807
00000010: ed2e 3526 cc24 034d e6e6 e7ef 2de0 7fdf
00000020: 2c02 69f5 cadf f9c2 20dd 3ce8 3710 c6fe
00000030: e517 f832 b3e7 1ece 1941 ec39 fa2c 35a1
00000040: a8b8 fcd9 eff1 f8e8 c0b8 e7c8 0fcb 9bff
00000050: 0f1a 2c18 c3c4 2fc4 b427 f117 ddc5 c7de
00000060: 02f8 2fed ebb3 ed03 e8d8 fbe3 55f6 1542
00000070: f6ea 0302 1cfe ed00 1dfc 0c2b def4 ec21
00000080: dd1a 35f9 c5fe dfee 1917 17f0 08f3 efff
00000090: f14b b6ec 47ee 0abd cae9 040d 1dee e814
000000a0: daf7 033f 41c7 9d26 0065 621e 4a24 10c1
000000b0: b2df 44bc 0e19 130b 16de 4422 e603 f70a
000000c0: 0309 ea0c 2909 16fa 4bea 4dff fbe4 e90a
000000d0: 2e28 15ce ba46 542b
-0.04286784 -0.3536597 -0.25184855 0.01607544 -0.19290528 0.01607544 -0.11788656 0.05894328
-0.02143392 -0.10181112 0.2947164 0.39116904 0.11788656 -0.03215088 -0.2143392 0.03750936
-0.10181112 0.24649008 0.28399944 0.20362224 -0.27864096 0.19290528 0.01607544 0.41260296
-0.13932048 -0.13932048 -0.133962 -0.09109416 0.2411316 -0.17147136 0.680527 -0.17682984
0.23577312 0.01071696 0.56264037 -0.05894328 -0.2893579 -0.17682984 -0.03750936 -0.33222574
0.17147136 -0.18754679 0.3215088 -0.12860352 0.2947164 0.08573568 -0.31079185 -0.01071696
-0.14467895 0.12324504 -0.04286784 0.267924 -0.41260296 -0.133962 0.1607544 -0.267924
0.133962 0.3483012 -0.1071696 0.30543336 -0.03215088 0.23577312 0.28399944 -0.5090556
-0.47154623 -0.38581055 -0.02143392 -0.20898071 -0.09109416 -0.0803772 -0.04286784 -0.12860352
-0.3429427 -0.38581055 -0.133962 -0.30007488 0.0803772 -0.28399944 -0.5412065 -0.00535848
0.0803772 0.13932048 0.23577312 0.12860352 -0.32686728 -0.3215088 0.25184855 -0.3215088
-0.40724447 0.20898071 -0.0803772 0.12324504 -0.18754679 -0.3161503 -0.30543336 -0.18218832
0.01071696 -0.04286784 0.25184855 -0.10181112 -0.11252808 -0.41260296 -0.10181112 0.01607544
-0.12860352 -0.2143392 -0.0267924 -0.15539593 0.4554708 -0.0535848 0.11252808 0.3536597
-0.0535848 -0.11788656 0.01607544 0.01071696 0.15003744 -0.01071696 -0.10181112 0.0
0.15539593 -0.02143392 0.06430176 0.23041463 -0.18218832 -0.06430176 -0.1071696 0.17682984
-0.18754679 0.13932048 0.28399944 -0.03750936 -0.3161503 -0.01071696 -0.17682984 -0.09645264
0.133962 0.12324504 0.12324504 -0.08573568 0.04286784 -0.06966024 -0.09109416 -0.00535848
-0.0803772 0.401886 -0.39652753 -0.1071696 0.38045207 -0.09645264 0.0535848 -0.35901815
-0.2893579 -0.12324504 0.02143392 0.06966024 0.15539593 -0.09645264 -0.12860352 0.1071696
-0.20362224 -0.04822632 0.01607544 0.33758423 0.3483012 -0.30543336 -0.5304895 0.20362224
0.0 0.5412065 0.52513105 0.1607544 0.39652753 0.19290528 0.08573568 -0.33758423
-0.41796142 -0.17682984 0.36437663 -0.36437663 0.07501872 0.133962 0.10181112 0.05894328
0.11788656 -0.18218832 0.36437663 0.18218832 -0.13932048 0.01607544 -0.04822632 0.0535848
0.01607544 0.04822632 -0.11788656 0.06430176 0.21969768 0.04822632 0.11788656 -0.03215088
0.401886 -0.11788656 0.41260296 -0.00535848 -0.0267924 -0.15003744 -0.12324504 0.0535848
0.24649008 0.2143392 0.11252808 -0.267924 -0.37509358 0.37509358 0.4501123 0.23041463

torch.fx.graph_module.GraphModule.__new__.<locals>.GraphModuleImpl/torch.nn.modules.container.Sequential_layers/src.models.BlockST2_3/torch.nn.modules.conv.Conv2d_conv1; i1 [36, 1, 1, 6] scale=0.0035414 zero_point=0
00000000: 0e15 cfe4 ffcb 0b24 14c7 e4c6 e4b1 1b02
00000010: bb09 6b08 00bb 4012 a7dc 232a a8fc e0d1
00000020: c433 27d3 21a9 35cb e8bb 1c77 d2f4 32d2
00000030: 050d d172 41dc 4266 103f 0f1a dc30 3bc8
00000040: e0c1 8131 3fbd 391b e1bb ef8f 06fa f908
00000050: e80b 21e4 e30a c712 b0a1 2526 c5c7 0613
00000060: 48fe 08d2 2809 e92c f041 d52f 3524 16d2
00000070: c32d 38fd 6cde bc00 ebd6 2619 1f12 f3bc
00000080: 1bcc 1318 18f3 d7dc 1bba d8e2 3432 202e
00000090: edc1 f21b 252e 9a0e c4f8 0def 9e38 e50c
000000a0: 5b0b 0d4b 3311 4fc7 fc0c 0ffd d419 33e7
000000b0: fa0f b9ec fbd1 3320 3035 cf34 f491 0a14
000000c0: f443 3441 1306 0b1c ccf6 f0c2 d134 d7ee
000000d0: fa52 01e6 3ad1 0b51
0.049579598 0.0743694 -0.1735286 -0.099159196 -0.0035414 -0.18769419 0.038955398 0.1274904
0.070828 -0.2018598 -0.099159196 -0.2054012 -0.099159196 -0.27977058 0.0956178 0.0070828
-0.2443566 0.0318726 0.3789298 0.0283312 0.0 -0.2443566 0.2266496 0.0637452
-0.3151846 -0.1274904 0.123949 0.1487388 -0.31164318 -0.0141656 -0.1133248 -0.16644579
-0.212484 0.1806114 0.1381146 -0.159363 0.1168662 -0.3081018 0.18769419 -0.18769419
-0.0849936 -0.2443566 0.099159196 0.4214266 -0.1629044 -0.0424968 0.17706999 -0.1629044
0.017707 0.0460382 -0.16644579 0.4037196 0.23019099 -0.1274904 0.2337324 0.3612228
0.0566624 0.2231082 0.053121 0.0920764 -0.1274904 0.1699872 0.20894259 -0.19831839
-0.1133248 -0.2231082 -0.44975778 0.1735286 0.2231082 -0.2372738 0.2018598 0.0956178
-0.109783396 -0.2443566 -0.060203798 -0.4001782 0.0212484 -0.0212484 -0.024789799 0.0283312
-0.0849936 0.038955398 0.1168662 -0.099159196 -0.1027006 0.035414 -0.2018598 0.0637452
-0.283312 -0.336433 0.1310318 0.13457319 -0.20894259 -0.2018598 0.0212484 0.067286596
0.2549808 -0.0070828 0.0283312 -0.1629044 0.141656 0.0318726 -0.0814522 0.15582159
-0.0566624 0.23019099 -0.1522802 0.16644579 0.18769419 0.1274904 0.077910796 -0.1629044
-0.2160254 0.159363 0.19831839 -0.0106242 0.3824712 -0.120407596 -0.24081519 0.0
-0.0743694 -0.1487388 0.13457319 0.088534996 0.109783396 0.0637452 -0.0460382 -0.24081519
0.0956178 -0.1841528 0.067286596 0.0849936 0.0849936 -0.0460382 -0.14519739 -0.1274904
0.0956178 -0.247898 -0.141656 -0.106242 0.1841528 0.17706999 0.1133248 0.1629044
-0.067286596 -0.2231082 -0.049579598 0.0956178 0.1310318 0.1629044 -0.3612228 0.049579598
-0.212484 -0.0283312 0.0460382 -0.060203798 -0.3470572 0.19831839 -0.0956178 0.0424968
0.32226738 0.038955398 0.0460382 0.265605 0.1806114 0.060203798 0.27977058 -0.2018598
-0.0141656 0.0424968 0.053121 -0.0106242 -0.15582159 0.088534996 0.1806114 -0.088534996
-0.0212484 0.053121 -0.2514394 -0.070828 -0.017707 -0.16644579 0.1806114 0.1133248
0.1699872 0.18769419 -0.1735286 0.1841528 -0.0424968 -0.3930954 0.035414 0.070828
-0.0424968 0.2372738 0.1841528 0.23019099 0.067286596 0.0212484 0.038955398 0.099159196
-0.1841528 -0.035414 -0.0566624 -0.21956679 -0.16644579 0.1841528 -0.14519739 -0.0637452
-0.0212484 0.29039478 0.0035414 -0.0920764 0.2054012 -0.16644579 0.038955398 0.2868534

torch.fx.graph_module.GraphModule.__new__.<locals>.GraphModuleImpl/torch.nn.modules.container.Sequential_layers/src.models.BlockST2_3/torch.nn.modules.conv.Conv2d_conv2; i1 [1, 3, 3, 36] scale=0.0131816 zero_point=0
00000000: 3205 0622 17f1 1d11 fd0c 0b04 0d0b 08ee
00000010: e60b fe12 2c1a ff11 01fc 1612 b300 0c03
00000020: e81b 0d02 d7ee c5fc 26fe 3011 eb13 25eb
00000030: 058c 260b 4e19 2612 8e09 1306 fe02 1cf7
00000040: 1025 1f35 a725 20d5 c5de fe17 2121 fb05
00000050: ef05 08ec 0823 1742 eb12 1507 24e1 340b
00000060: f00f 32e1 362c b839 c9cc 13f0 38de b52e
00000070: 3204 3c1c f2fd 27ed ea81 1df5 e332 2413
00000080: 2d39 ca2c f80c 0700 e7ce dc15 d0e1 1af3
00000090: 2dba 01d5 3c28 452c dd29 4fd9 2725 3752
000000a0: 6733 2b34 2c12 df1e d72f 0be8 79d6 3103
000000b0: e73f 30ad 96d4 3a2a 1822 cc14 ef25 2aec
000000c0: 345c 150c cf2b 2828 c9bb 0a02 d821 3dd2
000000d0: ef06 3707 1240 20ed 18dc 0906 1316 2112
000000e0: fd03 23d3 da08 0e3e f124 0921 a928 0417
000000f0: d71c e709 4ce7 21d3 04d5 15fc 16dd 45ef
0.65907997 0.065908 0.0790896 0.4481744 0.3031768 -0.197724 0.3822664 0.2240872
-0.0395448 0.1581792 0.1449976 0.0527264 0.17136079 0.1449976 0.1054528 -0.23726879
-0.34272158 0.1449976 -0.0263632 0.23726879 0.5799904 0.34272158 -0.0131816 0.2240872
0.0131816 -0.0527264 0.2899952 0.23726879 -1.0149832 0.0 0.1581792 0.0395448
-0.3163584 0.3559032 0.17136079 0.0263632 -0.54044557 -0.23726879 -0.7777144 -0.0527264
0.5009008 -0.0263632 0.6327168 0.2240872 -0.2768136 0.2504504 0.48771918 -0.2768136
0.065908 -1.5290656 0.5009008 0.1449976 1.0281647 0.32953998 0.5009008 0.23726879
-1.5027024 0.118634395 0.2504504 0.0790896 -0.0263632 0.0263632 0.3690848 -0.118634395
0.2109056 0.48771918 0.4086296 0.6986248 -1.1731623 0.48771918 0.4218112 -0.5668088
-0.7777144 -0.4481744 -0.0263632 0.3031768 0.4349928 0.4349928 -0.065908 0.065908
-0.2240872 0.065908 0.1054528 -0.263632 0.1054528 0.46135598 0.3031768 0.8699856
-0.2768136 0.23726879 0.2768136 0.0922712 0.47453758 -0.4086296 0.68544316 0.1449976
-0.2109056 0.197724 0.65907997 -0.4086296 0.7118064 0.5799904 -0.94907516 0.7513512
-0.724988 -0.68544316 0.2504504 -0.2109056 0.7381696 -0.4481744 -0.98862 0.6063536
0.65907997 0.0527264 0.790896 0.3690848 -0.1845424 -0.0395448 0.5140824 -0.2504504
-0.2899952 -1.6740632 0.3822664 -0.1449976 -0.3822664 0.65907997 0.47453758 0.2504504
0.593172 0.7513512 -0.7118064 0.5799904 -0.1054528 0.1581792 0.0922712 0.0
-0.32953998 -0.65907997 -0.47453758 0.2768136 -0.6327168 -0.4086296 0.34272158 -0.17136079
0.593172 -0.92271197 0.0131816 -0.5668088 0.790896 0.527264 0.9095304 0.5799904
-0.46135598 0.54044557 1.0413464 -0.5140824 0.5140824 0.48771918 0.724988 1.0808911
1.3577048 0.6722616 0.5668088 0.68544316 0.5799904 0.23726879 -0.4349928 0.395448
-0.54044557 0.6195352 0.1449976 -0.3163584 1.5949736 -0.5536272 0.6458984 0.0395448
-0.32953998 0.83044076 0.6327168 -1.0940728 -1.3972496 -0.5799904 0.7645328 0.5536272
0.3163584 0.4481744 -0.68544316 0.263632 -0.2240872 0.48771918 0.5536272 -0.263632
0.68544316 1.2127072 0.2768136 0.1581792 -0.6458984 0.5668088 0.527264 0.527264
-0.724988 -0.9095304 0.131816 0.0263632 -0.527264 0.4349928 0.80407757 -0.6063536
-0.2240872 0.0790896 0.724988 0.0922712 0.23726879 0.8436224 0.4218112 -0.2504504
0.3163584 -0.47453758 0.118634395 0.0790896 0.2504504 0.2899952 0.4349928 0.23726879
-0.0395448 0.0395448 0.46135598 -0.593172 -0.5009008 0.1054528 0.1845424 0.8172592
-0.197724 0.47453758 0.118634395 0.4349928 -1.1467992 0.527264 0.0527264 0.3031768
-0.54044557 0.3690848 -0.32953998 0.118634395 1.0018016 -0.32953998 0.4349928 -0.593172
0.0527264 -0.5668088 0.2768136 -0.0527264 0.2899952 -0.46135598 0.9095304 -0.2240872

torch.fx.graph_module.GraphModule.__new__.<locals>.GraphModuleImpl/torch.nn.modules.container.Sequential_layers/src.models.BlockST2_3/torch.nn.modules.conv.Conv2d_conv3; i1 [8, 1, 1, 36] scale=0.00565039 zero_point=0
00000000: d1d0 e9e6 0238 0512 07c2 391a dbf1 06f7
00000010: e0e4 1e10 edd1 03c9 310e ff0c f0f7 e8f4
00000020: 0de7 cf1f 0abc 32f2 06ff 2436 25ea 27ff
00000030: 4933 ef22 fdff 050a f816 d6cb 2125 ff10
00000040: 3bde dbed 00eb 252e 36e2 dfff fae8 fb46
00000050: 0620 071e 0bf5 0ef0 ff19 d2da 200d f50e
00000060: e1fd 22d8 fef6 12fc 2123 81f0 fb40 07f3
00000070: 1e2a 2423 be20 d5eb ff14 21f2 f537 c0e0
00000080: e1f6 f9f3 294f 24ef 041a ddfa 0bf5 0228
00000090: fe1f 0fb1 33f2 eabe 04b7 f005 f208 13e7
000000a0: a427 f6ef ffd8 f217 091a f201 0be6 f81f
000000b0: 37f7 30dd ed13 03e7 1ee5 0bfc 2d2d fcfc
000000c0: d302 dfd8 e4fd fb31 e40f d0f1 3ae7 f4dd
000000d0: f8fa d9d1 c3d2 b109 0de8 0fd6 e8bc db28
000000e0: e505 cf20 ea10 2d0e d51e 07fe 27fa 170b
000000f0: d1f2 e0e3 16f6 23ee f22f 0a07 fade dfd8
-0.26556832 -0.27121872 -0.12995897 -0.14691013 0.01130078 0.31642184 0.02825195 0.10170702
0.03955273 -0.35032418 0.32207224 0.14691013 -0.20906442 -0.08475585 0.03390234 -0.05085351
-0.18081248 -0.15821092 0.1695117 0.09040624 -0.10735741 -0.26556832 0.01695117 -0.31077144
0.27686912 0.07910546 -0.00565039 0.06780468 -0.09040624 -0.05085351 -0.13560936 -0.06780468
0.073455065 -0.14125974 -0.27686912 0.17516209 0.0565039 -0.3842265 0.2825195 -0.07910546
0.03390234 -0.00565039 0.20341404 0.30512106 0.20906442 -0.12430858 0.22036521 -0.00565039
0.41247848 0.2881699 -0.096056625 0.19211325 -0.01695117 -0.00565039 0.02825195 0.0565039
-0.04520312 0.12430858 -0.23731637 -0.29947066 0.18646286 0.20906442 -0.00565039 0.09040624
0.333373 -0.19211325 -0.20906442 -0.10735741 0.0 -0.118658185 0.20906442 0.25991794
0.30512106 -0.1695117 -0.18646286 -0.00565039 -0.03390234 -0.13560936 -0.02825195 0.3955273
0.03390234 0.18081248 0.03955273 0.1695117 0.06215429 -0.06215429 0.07910546 -0.09040624
-0.00565039 0.14125974 -0.25991794 -0.21471483 0.18081248 0.073455065 -0.06215429 0.07910546
-0.17516209 -0.01695117 0.19211325 -0.2260156 -0.01130078 -0.0565039 0.10170702 -0.02260156
0.18646286 0.19776365 -0.7175995 -0.09040624 -0.02825195 0.36162496 0.03955273 -0.073455065
0.1695117 0.23731637 0.20341404 0.19776365 -0.37292573 0.18081248 -0.24296677 -0.118658185
-0.00565039 0.1130078 0.18646286 -0.07910546 -0.06215429 0.31077144 -0.36162496 -0.18081248
-0.17516209 -0.0565039 -0.03955273 -0.073455065 0.23166598 0.4463808 0.20341404 -0.096056625
0.02260156 0.14691013 -0.19776365 -0.03390234 0.06215429 -0.06215429 0.01130078 0.2260156
-0.01130078 0.17516209 0.08475585 -0.4463808 0.2881699 -0.07910546 -0.12430858 -0.37292573
0.02260156 -0.41247848 -0.09040624 0.02825195 -0.07910546 0.04520312 0.10735741 -0.14125974
-0.5198359 0.22036521 -0.0565039 -0.096056625 -0.00565039 -0.2260156 -0.07910546 0.12995897
0.05085351 0.14691013 -0.07910546 0.00565039 0.06215429 -0.14691013 -0.04520312 0.17516209
0.31077144 -0.05085351 0.27121872 -0.19776365 -0.10735741 0.10735741 0.01695117 -0.14125974
0.1695117 -0.15256053 0.06215429 -0.02260156 0.25426754 0.25426754 -0.02260156 -0.02260156
-0.25426754 0.01130078 -0.18646286 -0.2260156 -0.15821092 -0.01695117 -0.02825195 0.27686912
-0.15821092 0.08475585 -0.27121872 -0.08475585 0.3277226 -0.14125974 -0.06780468 -0.19776365
-0.04520312 -0.03390234 -0.22036521 -0.26556832 -0.34467378 -0.25991794 -0.4463808 0.05085351
0.073455065 -0.13560936 0.08475585 -0.23731637 -0.13560936 -0.3842265 -0.20906442 0.2260156
-0.15256053 0.02825195 -0.27686912 0.18081248 -0.12430858 0.09040624 0.25426754 0.07910546
-0.24296677 0.1695117 0.03955273 -0.01130078 0.22036521 -0.03390234 0.12995897 0.06215429
-0.26556832 -0.07910546 -0.18081248 -0.1638613 0.12430858 -0.0565039 0.19776365 -0.10170702
-0.07910546 0.26556832 0.0565039 0.03955273 -0.03390234 -0.19211325 -0.18646286 -0.2260156

torch.fx.graph_module.GraphModule.__new__.<locals>.GraphModuleImpl/torch.nn.modules.container.Sequential_layers/src.models.BlockST1_4/torch.nn.modules.conv.Conv2d_conv1; i1 [48, 1, 1, 8] scale=0.00673039 zero_point=0
00000000: efc2 ed07 f205 21f8 c5ee e10a 920e 0507
00000010: 0a19 e4de ede4 d72d b9f6 cddb 0cf9 0123
00000020: e7fe f95a eb5a 6c42 20e5 c3f9 2435 e1f7
00000030: 3c1a 43dd deee 04d7 dd1e 0911 d7f7 e8e1
00000040: b356 3fc9 7f07 1a0b 26bb 34c0 22e7 16fd
00000050: e5da bfcc e713 1be9 3fd0 cb36 ee12 4e50
00000060: cbe9 01d7 ff2c 06e8 ffe6 0c21 040c edec
00000070: 18c4 03db d93a 3df0 dad5 020a 2bd5 0af5
00000080: e722 15ec eaf3 1a25 ffea e02e 3b22 ec26
00000090: de23 57c3 fa16 d44e 3337 05dc dc02 f91c
000000a0: 3c0b d61e 46f0 f101 1fd6 1741 0ce0 da18
000000b0: 1a1c e1fd 2306 dc14 06e5 f71f 0b05 4d62
000000c0: e806 c2ee 3cfd 0217 51ce 0e24 4a18 351a
000000d0: 2ae8 0561 fde9 4f24 db08 bcd8 1b09 fb4d
000000e0: 2701 d4f1 0d0c fa30 09e7 e724 072a ede8
000000f0: 12d6 fbce 40f3 f8d5 f1d3 dbef 001c 0024
-0.11441663 -0.41728416 -0.1278774 0.04711273 -0.09422546 0.033651948 0.22210287 -0.05384312
-0.397093 -0.121147014 -0.20864208 0.067303896 -0.74034286 0.09422546 0.033651948 0.04711273
0.067303896 0.16825974 -0.18845092 -0.22883326 -0.1278774 -0.18845092 -0.275946 0.30286753
-0.47785768 -0.067303896 -0.3432499 -0.24902442 0.08076468 -0.04711273 0.00673039 0.23556364
-0.16825974 -0.01346078 -0.04711273 0.60573506 -0.14133818 0.60573506 0.7268821 0.44420573
0.21537247 -0.18172053 -0.41055378 -0.04711273 0.24229403 0.35671067 -0.20864208 -0.060573507
0.40382338 0.17499013 0.4509361 -0.23556364 -0.22883326 -0.121147014 0.02692156 -0.275946
-0.23556364 0.20191169 0.060573507 0.11441663 -0.275946 -0.060573507 -0.16152936 -0.20864208
-0.51824003 0.5788135 0.42401457 -0.37017143 0.8547595 0.04711273 0.17499013 0.07403429
0.2557548 -0.4643969 0.34998026 -0.43074495 0.22883326 -0.16825974 0.14806858 -0.02019117
-0.18172053 -0.2557548 -0.43747532 -0.34998026 -0.16825974 0.1278774 0.18172053 -0.15479897
0.42401457 -0.32305872 -0.35671067 0.36344105 -0.121147014 0.121147014 0.5249704 0.53843117
-0.35671067 -0.15479897 0.00673039 -0.275946 -0.00673039 0.29613715 0.04038234 -0.16152936
-0.00673039 -0.17499013 0.08076468 0.22210287 0.02692156 0.08076468 -0.1278774 -0.13460779
0.16152936 -0.40382338 0.02019117 -0.24902442 -0.2624852 0.39036262 0.41055378 -0.10768624
-0.2557548 -0.28940675 0.01346078 0.067303896 0.28940675 -0.28940675 0.067303896 -0.07403429
-0.16825974 0.22883326 0.14133818 -0.13460779 -0.14806858 -0.087495066 0.17499013 0.24902442
-0.00673039 -0.14806858 -0.21537247 0.30959794 0.397093 0.22883326 -0.13460779 0.2557548
-0.22883326 0.23556364 0.58554393 -0.41055378 -0.04038234 0.14806858 -0.29613715 0.5249704
0.3432499 0.37017143 0.033651948 -0.24229403 -0.24229403 0.01346078 -0.04711273 0.18845092
0.40382338 0.07403429 -0.28267637 0.20191169 0.47112727 -0.10768624 -0.100955844 0.00673039
0.20864208 -0.28267637 0.15479897 0.43747532 0.08076468 -0.21537247 -0.2557548 0.16152936
0.17499013 0.18845092 -0.20864208 -0.02019117 0.23556364 0.04038234 -0.24229403 0.13460779
0.04038234 -0.18172053 -0.060573507 0.20864208 0.07403429 0.033651948 0.51824003 0.6595782
-0.16152936 0.04038234 -0.41728416 -0.121147014 0.40382338 -0.02019117 0.01346078 0.15479897
0.54516155 -0.33651948 0.09422546 0.24229403 0.49804884 0.16152936 0.35671067 0.17499013
0.28267637 -0.16152936 0.033651948 0.6528478 -0.02019117 -0.15479897 0.5317008 0.24229403
-0.24902442 0.05384312 -0.45766652 -0.26921558 0.18172053 0.060573507 -0.033651948 0.51824003
0.2624852 0.00673039 -0.29613715 -0.100955844 0.087495066 0.08076468 -0.04038234 0.32305872
0.060573507 -0.16825974 -0.16825974 0.24229403 0.04711273 0.28267637 -0.1278774 -0.16152936
0.121147014 -0.28267637 -0.033651948 -0.33651948 0.43074495 -0.087495066 -0.05384312 -0.28940675
-0.100955844 -0.30286753 -0.24902442 -0.11441663 0.0 0.18845092 0.0 0.24229403

torch.fx.graph_module.GraphModule.__new__.<locals>.GraphModuleImpl/torch.nn.modules.container.Sequential_layers/src.models.BlockST1_4/torch.nn.modules.conv.Conv2d_conv2; i1 [1, 3, 3, 48] scale=0.0213683 zero_point=0
00000000: 37e7 25fd f1f6 e822 0dda de12 1e21 190d
00000010: 2bfc f610 edee 2d13 0af8 0804 e2e8 1f1d
00000020: 12ff b5e5 2dc3 47fa 1e08 00ae f7f8 b5c6
00000030: e1f9 d90f c03c f336 1df5 27d2 f5c0 1c00
00000040: 29d6 1b3e 0502 d1fa f407 f913 ce1f db2c
00000050: 081f 1dff c9f7 e702 ec0e e0f6 d905 321a
00000060: 14fa e0fa 24fe 13ee f713 1727 dff1 f7fc
00000070: e21b fe04 f1d9 08d0 36f4 ffef 0e03 fcac
00000080: 0bfe e819 033a 1011 f518 2df2 0500 1c27
00000090: edfb defe 1154 1817 0c50 fbca 1ff6 e106
000000a0: 22dd ffdd 31fd 0a2c ea15 3b1e 07d8 f005
000000b0: 1b00 1dfc f577 11a6 ec0c f1ff 07f2 3cc7
000000c0: d001 c936 ffd8 c606 21e4 efcb 1ab6 3e2d
000000d0: 3204 36cf 1416 a711 ce40 c414 4d08 0acd
000000e0: 0909 3420 83e3 f234 c019 cf2c 0e1e b837
000000f0: cf31 1c31 d2d9 dbf4 14cd 3904 1249 ed2a
1.1752565 -0.5342075 0.7906271 -0.0641049 -0.3205245 -0.21368301 -0.5128392 0.7265222
0.2777879 -0.81199545 -0.7265222 0.3846294 0.641049 0.70515394 0.5342075 0.2777879
0.91883695 -0.0854732 -0.21368301 0.3418928 -0.40599772 -0.3846294 0.96157354 0.40599772
0.21368301 -0.1709464 0.1709464 0.0854732 -0.641049 -0.5128392 0.6624173 0.6196807
0.3846294 -0.0213683 -1.6026225 -0.5769441 0.96157354 -1.3034663 1.5171493 -0.1282098
0.641049 0.1709464 0.0 -1.7522006 -0.1923147 -0.1709464 -1.6026225 -1.2393614
-0.6624173 -0.14957811 -0.8333637 0.3205245 -1.3675712 1.282098 -0.2777879 1.1538882
0.6196807 -0.2350513 0.8333637 -0.9829418 -0.2350513 -1.3675712 0.59831244 0.0
0.8761003 -0.8974686 0.5769441 1.3248346 0.106841505 0.0427366 -1.0043101 -0.1282098
-0.2564196 0.14957811 -0.14957811 0.40599772 -1.068415 0.6624173 -0.7906271 0.9402052
0.1709464 0.6624173 0.6196807 -0.0213683 -1.1752565 -0.1923147 -0.5342075 0.0427366
-0.42736602 0.29915622 -0.6837856 -0.21368301 -0.8333637 0.106841505 1.068415 0.5555758
0.42736602 -0.1282098 -0.6837856 -0.1282098 0.7692588 -0.0427366 0.40599772 -0.3846294
-0.1923147 0.40599772 0.4914709 0.8333637 -0.70515394 -0.3205245 -0.1923147 -0.0854732
-0.641049 0.5769441 -0.0427366 0.0854732 -0.3205245 -0.8333637 0.1709464 -1.0256784
1.1538882 -0.2564196 -0.0213683 -0.3632611 0.29915622 0.0641049 -0.0854732 -1.7949373
0.2350513 -0.0427366 -0.5128392 0.5342075 0.0641049 1.2393614 0.3418928 0.3632611
-0.2350513 0.5128392 0.96157354 -0.29915622 0.106841505 0.0 0.59831244 0.8333637
-0.40599772 -0.106841505 -0.7265222 -0.0427366 0.3632611 1.7949373 0.5128392 0.4914709
0.2564196 1.7094641 -0.106841505 -1.1538882 0.6624173 -0.21368301 -0.6624173 0.1282098
0.7265222 -0.74789053 -0.0213683 -0.74789053 1.0470468 -0.0641049 0.21368301 0.9402052
-0.4701026 0.4487343 1.2607298 0.641049 0.14957811 -0.85473204 -0.3418928 0.106841505
0.5769441 0.0 0.6196807 -0.0854732 -0.2350513 2.5428278 0.3632611 -1.9231471
-0.42736602 0.2564196 -0.3205245 -0.0213683 0.14957811 -0.29915622 1.282098 -1.2179931
-1.0256784 0.0213683 -1.1752565 1.1538882 -0.0213683 -0.85473204 -1.2393614 0.1282098
0.70515394 -0.59831244 -0.3632611 -1.13252 0.5555758 -1.5812542 1.3248346 0.96157354
1.068415 0.0854732 1.1538882 -1.0470468 0.42736602 0.4701026 -1.9017787 0.3632611
-1.068415 1.3675712 -1.282098 0.42736602 1.6453592 0.1709464 0.21368301 -1.0897833
0.1923147 0.1923147 1.1111516 0.6837856 -2.6710377 -0.6196807 -0.29915622 1.1111516
-1.3675712 0.5342075 -1.0470468 0.9402052 0.29915622 0.641049 -1.5385176 1.1752565
-1.0470468 1.0470468 0.59831244 1.0470468 -0.9829418 -0.8333637 -0.7906271 -0.2564196
0.42736602 -1.0897833 1.2179931 0.0854732 0.3846294 1.559886 -0.40599772 0.8974686
