tflm/tensorflow/lite/micro/examples/cifar10/models/cifar10_float.tflite (tflite, 968840 bytes, 116 tensors)

arith.constant f4 [10]
000000 90 4e 78 3c 06 f9 cb b9 36 c0 11 bd fd d2 2c 3d
       0.0151554495 -0.00038904714 -0.035583697 0.0421934
000010 d6 e3 d2 3b 6b ac ee 3b 50 ff 8d 39 38 d0 22 bc
       0.0064358516 0.0072837374 0.00027083838 -0.0099373385
000020 64 78 01 3c 5b a7 40 bc
       0.0079022385 -0.011758651

arith.constant1 f4 [10, 640]
000000 86 fb b5 bc 81 6a b0 3c 76 dc 87 3d 7c 60 63 bc
       -0.022214662 0.02153516 0.066338465 -0.013877984
000010 ab d1 d8 bc 74 3a a2 3d 2d bb 90 3d 75 6a 06 be
       -0.026467165 0.07921305 0.07066951 -0.13126548
000020 8c b7 3e be 1e 1d 9d 3c c7 b8 a1 bc 9d fd 61 bd
       -0.18624705 0.019178923 -0.019741429 -0.055173505
000030 93 ba 4d 3d 98 77 6f bd 52 b4 b7 bb 0f f1 09 3d
       0.05022676 -0.058463663 -0.0056062127 0.033677157
000040 bf cd d8 bd 4b 06 2a 3e d1 c7 92 bd d5 57 2d bd
       -0.10586118 0.16603963 -0.07167018 -0.04232009
000050 f4 ab 96 3d a9 12 39 3d b6 7c 49 39 58 fa 6a 3d
       0.07357016 0.04518381 0.00019215312 0.057367653
000060 c1 0f b9 bc 82 ac e9 3c 02 76 d3 3d 7b ba 3e be
       -0.02259052 0.028524641 0.103252426 -0.18625824
000070 5b 52 29 3d d4 83 c4 3d 3f c7 71 bd 9d 86 8d bb
       0.041338306 0.09595457 -0.059027907 -0.0043190257
000080 5a 9c 42 3d 63 f0 17 3e f2 5c 83 bc b5 40 91 bd
       0.04751239 0.14837794 -0.01603553 -0.0709242
000090 07 29 70 bd 8c c8 e3 bd 6c 10 06 3d 0f 78 c2 bc
       -0.058632877 -0.11122236 0.032730505 -0.023738889
0000a0 10 75 80 3d 14 ec 2f be 75 96 9b 3d 20 3d 16 3c
       0.06272328 -0.171799 0.07597057 0.009169847
0000b0 83 7d 19 3d 57 e3 9e 3c fa ed 13 be 63 f4 5b 3d
       0.037473213 0.019395513 -0.1444625 0.053699862
0000c0 1d d1 2c 3d 53 8f 02 be c7 a0 29 bd be a3 9c 3d
       0.042191613 -0.12749986 -0.041413095 0.07648419
0000d0 3a 44 10 3d bf c1 87 3d c1 37 1f 3d 60 ef 88 bd
       0.035221316 0.06628751 0.03887153 -0.06686282
0000e0 9b e2 c0 bd 76 cb e4 3c 24 0d 6c bd 62 25 33 be
       -0.094182216 0.027929049 -0.05762972 -0.17494729
0000f0 c5 8a 5a be e7 ef 61 3d 81 ee eb 3d 0b d4 16 bd
       -0.21341999 0.05516043 0.115201004 -0.036823314
000100 e7 c1 98 bb e4 ff 52 bd 4e 84 b7 bd 78 06 01 be
       -0.004661787 -0.051513568 -0.08960782 -0.12600124
000110 76 16 81 bc dc b5 07 3d 2a 81 75 bd 34 80 5f be
       -0.01575778 0.03313242 -0.059937634 -0.2182625
000120 b1 c7 c2 3d 4d 16 a0 bc f3 e1 65 bb e9 62 a9 bd
       0.09510744 -0.019541884 -0.0035077303 -0.08270819
000130 3e 41 3c bd 45 3f aa bd 28 f9 b3 bd 29 44 d5 3a
       -0.045960657 -0.08312849 -0.08787757 0.0016270924
000140 05 1a e6 3d df f3 6c be d1 67 e6 3c a8 91 1d 3d
       0.112354316 -0.23139904 0.028125675 0.038468987
000150 f8 57 00 3e 04 66 b3 3d ff fa f0 3c e8 7c 08 be
       0.12533557 0.08759692 0.02941656 -0.13328898
000160 1c 1c 9d 3d 5e 26 14 bd f4 82 19 3e b4 d2 e1 bd
       0.07671377 -0.036169402 0.14991361 -0.110265166
000170 66 6b f6 bc 7d 7c e5 3d ee de d6 bd 8f 71 f9 bc
       -0.030080508 0.11205385 -0.10491739 -0.030449657
000180 0a 49 0d 3d 8e 83 6b bc 4a ab 06 bd d6 6e 4e be
       0.034493484 -0.014374627 -0.032878198 -0.20159468
000190 75 bb 2d 3b e4 11 26 be 50 36 ec bc bc 6b e3 3d
       0.0026509438 -0.16217762 -0.028834492 0.11104533
0001a0 85 17 80 3d 4d 2a 86 3c cc 7c 04 be 5f cd 90 bd
       0.06254486 0.016377592 -0.12938231 -0.070704214
0001b0 56 f6 10 bd 33 cc 03 3e a8 d0 d4 bc e3 8e 5b bd
       -0.035391174 0.12870865 -0.025978401 -0.053603064
0001c0 60 e1 f3 bd b7 14 2f be 79 56 10 be 0a 4f 1f 3d
       -0.11908221 -0.17097746 -0.14095487 0.038893737
0001d0 95 d5 e1 3c a0 31 b2 3d 4f 5c b2 3d 08 fe 05 bd
       0.027567664 0.087008715 0.08709013 -0.032712966
0001e0 60 14 90 bb 6d 49 11 be 5f 4a 4a 3d 3f 1d a2 bb
       -0.00439696 -0.14188166 0.049387332 -0.004947334
0001f0 35 a3 1a be b6 f9 1c be 83 80 82 3d 2b b0 93 bd
       -0.15101321 -0.15329632 0.06372168 -0.07211336
000200 4c ca 61 3d 09 1e 16 3d d1 1f 2b 3c fd 46 d3 3d
       0.055124566 0.036649738 0.010444597 0.10316274
000210 84 df 28 be 84 7e b4 3d 6c cc 9c 3c 96 32 ed 3d
       -0.16491514 0.088131934 0.019140445 0.11581914
000220 f1 f0 43 be 78 8f 8f bc a7 e9 de bd 16 ab 9b bb
       -0.1913488 -0.017524466 -0.108844094 -0.0047506196
000230 8e 87 51 bd 76 1c c2 bd 9d 29 3a bd 4f eb ba bd
       -0.051154666 -0.09478085 -0.04544984 -0.09126913
000240 8b 2c 55 3d 72 96 c1 3d 17 ab 20 be 37 e7 0f bd
       0.052044433 0.09452523 -0.15690266 -0.035132613
000250 2e 62 3f be b6 8a 1a bd 66 c4 9d 3d 81 bf d1 3d
       -0.18689796 -0.03772994 0.07703476 0.102416046
000260 8d 3a 42 be 79 f5 be 3d 7f 43 d5 bd 77 fe 57 3d
       -0.18967648 0.09324164 -0.104132645 0.05273291
000270 b9 fc e6 3d 98 f1 38 be 02 76 cc 3c a3 e4 eb 3d
       0.11278672 -0.1806091 0.024958614 0.11518218
000280 66 8b 25 bc 0a 3f 03 be de 2b 0c bd 0d 63 ce 3d
       -0.010104036 -0.12817016 -0.034221523 0.10077486
000290 e0 74 07 3d 7f ad 64 be 71 1d 2f bd c0 6f 12 be
       0.033070445 -0.22331809 -0.042752687 -0.14300442
0002a0 a7 7f 8e 3c 16 c0 ec bd 2c 8d 8a 3d 39 7e ab 3d
       0.017394854 -0.11560075 0.06765208 0.083736844
0002b0 8d 75 d0 3d 3f 73 f5 bc ec ba 01 be 55 62 f0 3c
       0.10178671 -0.02996218 -0.12668961 0.029343763
0002c0 f8 85 a3 ba 3d d6 8e 3a bf dd d7 bc 54 9d 3a bd
       -0.0012475839 0.0010897588 -0.026350854 -0.045560196
0002d0 53 87 d4 bd 34 76 50 3d b0 2f d1 3d 65 58 a6 3d
       -0.103773735 0.050893977 0.10214174 0.08122329
0002e0 d5 91 a2 3d 8d d9 db 3b 35 14 cf bd 35 9c 94 bd
       0.079379715 0.0067092837 -0.10111276 -0.072563566
0002f0 0d 97 40 3d 76 a0 04 bd d0 f9 38 bd 47 c6 af bd
       0.047019053 -0.03237959 -0.045160115 -0.0858274
000300 54 48 5e be 4c bf 38 bd 0e ad bb 3d c0 22 46 be
       -0.21707278 -0.04510431 0.09163867 -0.19349194
000310 6a 1b fb bc f7 87 21 3d b8 6a 39 3d 48 c4 13 3d
       -0.03065272 0.039436307 0.04526779 0.03607586
000320 18 a4 6b 3c 35 c6 87 3c 0b 3b 02 3d bd 35 23 3d
       0.014382385 0.016574005 0.03179459 0.03984617
000330 71 2c 03 3d 7e 7f fc 3c 8f 50 75 3d 2b 85 47 be
       0.032024805 0.030822512 0.05989128 -0.19484393
000340 bc e0 59 bc 3c 8c 68 3d 3a 6b c3 3d b6 37 c8 3d
       -0.01329821 0.056774363 0.09541936 0.09776251
000350 31 bf d9 bd 1e 2b 53 bd 1e 5a a5 3d 06 80 a7 ba
       -0.1063217 -0.05155479 0.08073829 -0.0012779243
000360 ac 11 ca bd a4 10 cb 3c ce 4e c5 3d 7c bd 1b 3d
       -0.09866652 0.024788208 0.096341714 0.038022503
000370 56 a9 48 3d 52 4a 05 be e2 16 bf bd 79 87 63 3d
       0.048989616 -0.13016632 -0.093305364 0.05554912
000380 e9 21 50 bc ba 45 94 bc 3d c3 28 be 53 7f 02 bd
       -0.012703397 -0.018099654 -0.16480727 -0.031859707
000390 2f 49 e6 3d 5f b0 be 3b 2a ab 67 3d ff ef b5 3d
       0.112444274 0.005819365 0.05655972 0.08883666
0003a0 c6 27 1a bd 20 79 af bd c0 88 18 bd f6 2c ce 3d
       -0.037635587 -0.08568025 -0.03723979 0.10067169
0003b0 6b a5 73 3d 17 d3 dd 3d 9f 24 15 3e 97 f3 a2 3c
       0.059483927 0.10831278 0.14564751 0.019891543
0003c0 3a f6 05 ba 64 16 b6 3d 13 86 62 3c 0b 51 9e 3d
       -0.0005110238 0.088909894 0.013825911 0.077303015
0003d0 3f 4c d7 3b 04 2d 08 be 32 70 c0 3d 46 98 13 bd
       0.0065703685 -0.13298422 0.093963996 -0.03603389
0003e0 0d 7d 2f be 58 e4 c0 bd 42 61 a0 3d 75 fe 60 3d
       -0.17137547 -0.09418553 0.078310505 0.05493017
0003f0 ea 8d 84 bd e4 ba a9 3d 2e 32 84 bd a1 3d 0e be
       -0.064723805 0.082876 -0.064548835 -0.13890697

arith.constant2 f4 [640]
000000 4e b9 d1 3d 73 d2 9b 3d e6 8f 4c be 76 d4 3c 3d
       0.10240422 0.076084994 -0.19976768 0.046101056
000010 a5 46 99 bc 70 92 08 bc c8 d2 16 3c 9c 32 e1 3c
       -0.018710444 -0.008335695 0.009205528 0.027489953
000020 fc 37 2b bd 80 1f 32 3d 68 1c 2e bc 57 48 cc 3d
       -0.041801438 0.043487072 -0.01062689 0.09974735
000030 bc f2 84 3d d8 78 06 3e 55 68 66 3e 8e 22 07 be
       0.064916104 0.13132036 0.22500737 -0.13196775
000040 60 63 2d bb f9 cd 01 be 2a f2 40 3d 4f c3 8a bd
       -0.0026456937 -0.12676229 0.047105946 -0.067755334
000050 77 1d e5 3d 8a ff 34 3e 80 25 2a be 06 f2 38 be
       0.111872606 0.17675605 -0.16615868 -0.18061075
000060 14 35 2a bc 54 4d d2 3d 3e d2 4e 3d 6d 8c 3d 3e
       -0.010388631 0.102686554 0.05049347 0.185106
000070 f2 ae 30 be 75 63 a9 be c0 c7 c9 bd ae 57 da bd
       -0.17254236 -0.33083692 -0.098525524 -0.10661255
000080 c6 a1 f8 3d 56 b4 20 bd 25 27 ad be 2b 69 92 3e
       0.12140231 -0.03923448 -0.33818927 0.28595862
000090 1c 53 41 be d6 2b 55 be 84 ba bc 3c 81 3a 12 3e
       -0.1887936 -0.20817503 0.023038156 0.1428013
0000a0 e4 a9 bb 3d 42 be 11 3e 28 60 0d bd 44 05 50 3d
       0.091632634 0.14232734 -0.03451553 0.05078627
0000b0 1e 11 8b 3d 84 da af 3d 50 c3 61 bc d0 a7 0a bc
       0.06790374 0.085866004 -0.013779476 -0.008462861
0000c0 fd d9 70 3e 4c 97 19 3e 64 9f fb bc 42 d4 11 be
       0.23520656 0.14999121 -0.030715652 -0.14241126
0000d0 d0 ed 34 3e 06 4b 4e be fd 83 9e 3d 69 f5 2f 3e
       0.17668843 -0.20145807 0.077400185 0.1718346
0000e0 b6 91 b3 3d 47 8d c7 bd e8 db c6 3c 68 4b 1d 3e
       0.087680265 -0.097437434 0.024274781 0.15360796
0000f0 50 87 50 3d 56 7b 05 3d b4 57 9f bd 40 9e 69 3b
       0.050910294 0.032588325 -0.077804 0.0035647303
000100 08 12 31 bc f4 18 24 3e 12 ef 8b 3d e3 60 93 bd
       -0.010807522 0.16025144 0.068327084 -0.07196214
000110 1f 42 01 bd 36 33 2f 3e 32 be 2e be 0c 46 08 bd
       -0.0315572 0.17109379 -0.17064741 -0.033269927
000120 c4 9b 9e bd 8e 2b e9 3d 18 93 67 3d c9 aa fa 3d
       -0.07744554 0.113852605 0.056536764 0.12239606
000130 9e 7a 8e 3e d0 60 b3 bd 36 82 16 3d a4 99 42 3e
       0.27827924 -0.087587 0.036745273 0.19003922
000140 58 40 f8 bd 20 72 63 3d 78 6d 59 3e c4 11 a1 3c
       -0.121216476 0.05552876 0.21233165 0.019661792
000150 16 af 23 be 08 a5 47 3c 99 3b 0d be c4 42 46 be
       -0.15984759 0.012185343 -0.13792266 -0.19361407
000160 f8 14 bf bc 5c 7b 97 bc f0 fd 99 be 9f 25 63 3e
       -0.023325428 -0.01849144 -0.3007655 0.2218232
000170 c8 52 db 3d 48 b6 0d bd 38 32 68 bd 60 d6 a8 bd
       0.10709149 -0.034597665 -0.056688517 -0.08244014
000180 26 46 cb bd 60 26 23 3e 99 ab 00 bd 62 02 14 3d
       -0.09925489 0.15932608 -0.03141365 0.036135085
000190 5c ad fa 3c 45 0e 3b bd 5a 82 c3 3e 8e e6 c5 3e
       0.030600242 -0.045667905 0.38185388 0.38652462
0001a0 80 b6 81 3c 8c 25 3b be e6 c8 1b 3d 9c 49 2e bd
       0.015834093 -0.18276042 0.03803339 -0.042550668
0001b0 58 35 7f 3c 10 7d 19 3c f8 af 49 bc 4a 33 34 be
       0.015576683 0.009368196 -0.012310021 -0.1759769
0001c0 74 27 2b bc f3 95 d1 3d dc 88 90 3d 90 65 f1 bc
       -0.010446418 0.10233679 0.07057354 -0.029467374
0001d0 da e2 58 3e 4b 28 16 3e 4e 26 68 3d 4b 3f 4c bd
       0.21180287 0.14663808 0.056677155 -0.04986505
0001e0 b8 72 a3 bc 1a 28 e4 bd 20 7a fc 3b 78 8a 9f bc
       -0.019952163 -0.11140461 0.007704988 -0.019475207
0001f0 d4 ee 4c bd d7 21 d6 3d e7 dd d8 bd 80 74 2f bd
       -0.05003245 0.10455673 -0.105891995 -0.042835712
000200 84 a6 85 3d bf 28 8c 3e 7d 5f b1 bc 89 99 a3 3d
       0.06525901 0.27374837 -0.021651978 0.07988269
000210 49 e6 e4 3d 00 7a 1d bb 78 ab 5a bc 85 c9 21 3e
       0.11176736 -0.0024029016 -0.013346545 0.1579953
000220 ab 07 d4 bd ca b2 97 3e ae 45 eb 3d ca 18 5a 3d
       -0.10353025 0.29628593 0.114879 0.053246297
000230 48 8c 01 3c 6a 37 9e bd 26 cd bc 3d f2 c6 1a be
       0.007906981 -0.07725413 0.092188165 -0.15114954
000240 8f 38 f2 3d d8 85 ad bd 67 3d 90 bd 86 a8 1b 3d
       0.11827194 -0.08472794 -0.070429616 0.038002513
000250 25 54 95 3e 44 15 1c 3e fc cc 75 3d 03 70 f5 3d
       0.2916576 0.15242487 0.06000994 0.11984255
000260 4d 55 a0 3d 52 0f 7f 3e 17 02 01 be 22 41 9e bd
       0.0782877 0.24908188 -0.12598453 -0.07727267
000270 a6 fa 8f be c3 6e f8 3d ec 74 14 be fc 7e 28 be
       -0.28120917 0.12130501 -0.14497727 -0.1645469
000280 e4 68 3d 3d 9e c0 7f bd 14 26 b4 3d b3 47 95 bd
       0.04624261 -0.062439553 0.08796325 -0.07289066
000290 0d e8 41 3e 00 99 bc bd 0c ff 84 3e 64 b2 f4 bc
       0.18936177 -0.0920887 0.25975835 -0.02987022
0002a0 40 c0 75 3b f0 f0 49 3d cc 7d a3 bd 2f aa 3b bd
       0.0037498623 0.04930204 -0.07982978 -0.045816597
0002b0 d8 f4 2f 3e c6 73 c8 3d 04 f9 1e be 85 96 28 3e
       0.17183244 0.09787707 -0.1552468 0.16463669
0002c0 3c c1 4b be 2f cb b5 bd 80 cf 0e bb 4c fa 79 3e
       -0.19897932 -0.08876645 -0.002179116 0.24411887
0002d0 f2 b0 21 3d b5 bc 68 3e b0 fb 08 bd da e7 9f 3e
       0.03947539 0.22728236 -0.033443153 0.31231576
0002e0 a2 13 39 be 42 fd 31 3e 5c 1d c2 3c 06 36 e7 3d
       -0.18073896 0.17381766 0.02369564 0.11289601
0002f0 bb 20 e9 3d 5e 05 92 3d 9e a5 73 bd 0c 3d c8 3c
       0.11383196 0.0712993 -0.059484117 0.024443172
000300 93 07 4f bd 7d 52 79 3e 75 4e 94 3d cc bd c6 3c
       -0.050544333 0.24347873 0.07241527 0.024260424
000310 38 91 d0 3c 00 c7 06 bb f5 f9 69 bd 62 66 08 3d
       0.02545987 -0.002056539 -0.057123143 0.033300765
000320 10 bc 66 3c f4 ce dc bd bc ce 7a 3d bf ba 8b bd
       0.0140829235 -0.10781661 0.061232314 -0.06822728
000330 86 90 e4 bd ee d4 82 3e 6f 27 1a be 30 12 59 3c
       -0.11160378 0.25553077 -0.15054105 0.013248965
000340 86 d5 e5 3d d5 06 c3 3d 10 49 15 3d b1 2b 00 3e
       0.11222367 0.095227875 0.03644663 0.12516667
000350 66 16 3a 3e 40 11 d1 bc 00 13 d9 ba 41 e3 ad bd
       0.18172607 -0.02552092 -0.0016561449 -0.08490611
000360 f0 e1 e9 bd 04 73 ec 3d 83 9b fb bd e8 1b 2f bd
       -0.11420047 0.11545375 -0.12285521 -0.042751223
000370 80 e3 50 3e 40 59 8f ba 70 7b 54 3c d0 59 1f 3e
       0.20399284 -0.0010936633 0.012968883 0.15561604
000380 fa 74 9e bd fb a2 3d 3e d6 04 a0 3d 48 02 0d 3c
       -0.07737155 0.18519203 0.078134224 0.008606501
000390 d0 77 33 be 26 25 09 3e f0 85 81 bb 5f 52 b7 bd
       -0.17526174 0.13393077 -0.003952734 -0.08951258
0003a0 58 47 53 3e 02 75 28 3e 4e 50 cd 3d 78 c2 58 3d
       0.20632684 0.16450885 0.100250825 0.052919835
0003b0 8a e8 53 3d 4a 5b 0a 3e d5 ab 33 be e0 8f d0 bd
       0.05173544 0.13511387 -0.17546017 -0.10183692
0003c0 10 65 b2 3d 71 b8 96 3d cc 1d 8f bc 50 29 2f 3e
       0.087106824 0.07359398 -0.017470263 0.17105603
0003d0 0b a3 44 be d4 7b 8b be b8 cc ab bb 4e d3 97 3d
       -0.19202821 -0.2724291 -0.0052429102 0.0741335
0003e0 e9 09 d6 3d 60 43 93 3c be 4c 37 3d fb f3 30 3e
       0.10451109 0.017976463 0.04475092 0.17280571
0003f0 a4 f4 5f 3d 3e fa 55 bd 68 51 ee 3c c0 9c 9e 3c
       0.054676667 -0.052240603 0.029091552 0.019361854

arith.constant3 f4 [120]
000000 82 6d b7 3d 31 00 89 be a1 38 48 be 5d 9c 9d 3e
       0.08956434 -0.2675796 -0.19552852 0.30783358
000010 00 81 23 be b4 9a 94 bd b6 ee c9 bd bc e4 38 bd
       -0.15967178 -0.0725607 -0.098599836 -0.045140013
000020 f0 5c 3b bd 8b d5 15 be dc 3f a6 3c 68 cc 97 3d
       -0.04574293 -0.14632241 0.020294122 0.07412034
000030 c8 cf d5 3d 3a f3 1d 3c a9 6f 09 be 96 be 34 bd
       0.10440022 0.009640509 -0.13421501 -0.04412707
000040 c4 38 a9 3e a5 dd b3 be 0e 48 82 3e f2 49 14 bd
       0.3305112 -0.3513004 0.25445598 -0.036203332
000050 e0 fd 44 bc 7a 15 7d 3d e8 96 53 3e fb 15 7d 3d
       -0.012023419 0.06178806 0.20663035 0.06178854
000060 c2 e1 7e be d7 c8 0f 3e 2b bb 2d bd cc b0 d7 bd
       -0.24890807 0.14041458 -0.042414825 -0.10531768
000070 f7 49 51 bd 40 e5 28 bc 74 f1 04 be 8a 76 10 3e
       -0.05109593 -0.010308564 -0.12982732 0.14107719
000080 07 ed 21 bd 8e 3f ae 3d 18 17 23 be d0 18 00 be
       -0.039532688 0.08508216 -0.15926778 -0.12509465
000090 ca 22 fe bd 5c 40 7d bc 64 60 e6 3c 4d d1 9d 3d
       -0.12408979 -0.015457239 0.028122135 0.077059366
0000a0 dd aa 18 be fe 9f 61 3e 93 b2 99 3d 5e f2 d9 bd
       -0.14908929 0.22033688 0.075047635 -0.10641931
0000b0 41 3d f0 bd 94 b8 0c 3c b4 4c 1b be 5a ad 72 3e
       -0.11730433 0.008588929 -0.15165979 0.23698941
0000c0 9a bb 1b bd 2c 6e 68 be 76 9a 51 be a0 42 be 3c
       -0.038020708 -0.22698277 -0.20469078 0.023225129
0000d0 06 0a 4b bd e9 81 27 be ce 71 0c 3e f0 d8 c6 bc
       -0.049570106 -0.1635815 0.13715288 -0.024273366
0000e0 df 56 5c be 78 da 67 bd b2 71 80 3e 98 7e b8 bc
       -0.21517514 -0.056604832 0.25086743 -0.022521302
0000f0 28 f9 e6 3c cc 56 05 be a0 2d df bc 40 03 0d 3d
       0.028194979 -0.13021392 -0.027243435 0.034426928
000100 9d 68 cc bd 82 3e 9b 3d 00 55 6e 3d 4a 8b 10 bc
       -0.09980891 0.07580282 0.05818653 -0.008822272
000110 55 de 8f 3e 7e 4b 81 3e de 4f b9 3d 01 d9 88 3e
       0.28099313 0.25252908 0.090484366 0.2672806
000120 80 d8 82 3b 28 8a d8 3d eb 97 04 3e 84 5a 7a bd
       0.003993094 0.10573226 0.12948577 -0.06112148
000130 2e ca 6f bd 34 65 53 be d5 b5 c1 bd 6f 8e 72 bd
       -0.058542423 -0.20644075 -0.0945851 -0.059217867
000140 22 fc 15 3d 93 da 0e be 52 b0 46 3e fc ff 38 be
       0.036617406 -0.13950567 0.19403198 -0.180664
000150 16 8c 75 3e a8 ce 83 bd db 49 fb bd 62 c4 92 3e
       0.2397922 -0.06435901 -0.12269946 0.28665453
000160 b2 92 98 bd 10 72 fc 3d cd fd 83 be 6d 9e 21 3d
       -0.07449855 0.12326443 -0.25779572 0.039457727
000170 00 ce 74 3d 64 ee 09 bd a6 43 d3 3e e4 3d ed bd
       0.05976677 -0.033674613 0.4126255 -0.1158407
000180 b7 a0 df 3e be 97 c3 bd 33 57 88 be 90 ba 3c 3e
       0.43677303 -0.09550427 -0.26629028 0.18430543
000190 cd 5a a6 be 0c 6a 17 be 1d 6e 35 3e 24 90 39 bd
       -0.3249115 -0.14786547 0.17717786 -0.04530348
0001a0 80 72 44 bd d8 2f b3 3e fb c7 0e 3e 76 74 5e bd
       -0.04796076 0.3499744 0.13943474 -0.054310285
0001b0 48 81 4d 3b 83 41 4f bd f1 ce dd 3d e6 2a f3 bd
       0.0031357575 -0.050599586 0.108304866 -0.118734166
0001c0 68 81 80 3c 70 05 15 3e cd 94 65 be bf 58 93 3e
       0.015686706 0.14552855 -0.22420044 0.28778645
0001d0 32 f0 e9 3d a2 a9 17 be 39 55 9b bd 77 50 ba be
       0.11422767 -0.14810804 -0.07584614 -0.36389515

arith.constant4 f4 [120]
000000 19 95 87 3d 6d 2b 89 bf 82 6f a3 3e 54 e7 a1 be
       0.06620235 -1.0716377 0.3192101 -0.31621802
000010 e4 24 19 bf 6c 5b 1c 3d da 16 d2 be 36 14 d0 be
       -0.59821916 0.038173124 -0.4103306 -0.4064042
000020 56 2f d0 3f 8a 94 17 bd 48 36 10 bf 89 64 4b 3e
       1.6264446 -0.037006892 -0.56332827 0.1986257
000030 45 33 e0 3d a4 0e 00 3f bc 00 9d 3d 5a d5 ab 3f
       0.10947279 0.5002234 0.07666156 1.3424485
000040 3c 33 91 3f b5 d2 db be b6 71 2f 3e fa e1 55 bf
       1.134376 -0.42934194 0.17133221 -0.8354794
000050 b5 66 04 3f 5a f0 c7 bf b2 93 b4 3d b8 98 31 3f
       0.5171922 -1.5620224 0.08817233 0.69373655
000060 6a a9 4f bf 98 9a ad 3e 0e fb 06 be 6e aa ad be
       -0.8111788 0.33907008 -0.13181707 -0.3391909
000070 d7 e7 c3 3e 32 87 ea 3e a6 56 31 3f 92 14 8e 3e
       0.38262817 0.4580627 0.6927284 0.2775007
000080 74 2d 08 be 6e fd 18 3f 2c 62 d4 be cd 8a 2a 3f
       -0.13298589 0.59761703 -0.4148115 0.66618043
000090 bc ba 96 bf 65 c2 29 3f f1 6e 99 bf 44 87 4a 3f
       -1.1775737 0.6631225 -1.1986982 0.7911265
0000a0 48 6b 56 3e d6 68 c7 be 0e e8 91 3f 78 0b 5c be
       0.20939362 -0.3894717 1.1398942 -0.2148875
0000b0 b2 d1 76 be de b6 4c 3f 18 b3 3e 3f ce 26 27 bf
       -0.2410343 0.79966533 0.74492025 -0.65293586
0000c0 2c 86 c9 be 5c 5a 76 bf f2 aa 01 c0 9a b9 aa 3f
       -0.39360178 -0.9623163 -2.0260587 1.3337891
0000d0 e4 95 eb be 6b 94 c7 bf 0e 70 f4 3e 87 45 64 3e
       -0.46012795 -1.5592169 0.4774174 0.22292148
0000e0 15 3c 98 bf 5e d0 5a 3f 41 77 2f 3e 01 90 91 bf
       -1.1893336 0.85474193 0.17135336 -1.1372072
0000f0 48 8e ba 3f 75 01 d0 3f 60 94 93 bf c6 69 c8 be
       1.4574671 1.6250445 -1.1529655 -0.391432
000100 fb bc de be 5e 82 1e 3f cb db d2 3e 7f 90 3c 3f
       -0.43503556 0.61917675 0.41183314 0.73657984
000110 42 78 7a 3d ac 56 87 bf b2 c1 b5 bd b8 4d 18 3e
       0.061149843 -1.0573325 -0.08874835 0.14873397
000120 3c d1 1e 3d aa ca 7e 3e 00 78 a2 3f 12 5b 19 c0
       0.03877376 0.24881998 1.2692871 -2.3961835
000130 10 09 18 bf 6e 21 ab bf 49 bd 62 bf 38 75 0a bf
       -0.5938883 -1.3369577 -0.88570076 -0.5408511
000140 72 d5 fa be f4 51 02 c0 76 a8 c6 be c0 61 20 3e
       -0.4899097 -2.036252 -0.388004 0.15662289
000150 4e 40 45 3f 31 23 94 3e eb cc 8b bf d4 58 1c bd
       0.77051246 0.289331 -1.0921911 -0.03817065
000160 17 1c 9e be df 8c 24 3f 3a 79 2f 3f 70 81 4f 3e
       -0.30880806 0.6427745 0.6854435 0.2026422
000170 cf d4 ce bf 02 e3 79 bf 89 54 e5 be 3e fa 5b bf
       -1.6158694 -0.9761201 -0.44791058 -0.85928714
000180 b3 22 dd 3e 36 19 7e bf 4b db 97 bf db 8a 6d be
       0.43190536 -0.9925722 -1.1863798 -0.231975
000190 82 59 6e bf 89 04 c3 3e f1 dd 2e bc dc 41 a9 be
       -0.9310533 0.38089398 -0.010673032 -0.3305806
0001a0 e8 89 30 3d 1e 48 17 be 21 0b 4f be e1 63 ac 3f
       0.043100268 -0.14773604 -0.20219089 1.3467981
0001b0 88 30 72 bf 41 0c 98 bd 29 75 19 3f 67 d2 04 40
       -0.946053 -0.07424212 0.599444 2.075342
0001c0 f7 56 6b 3f a7 17 10 3e fb d8 18 3f be 9f ec 3f
       0.9192957 0.14071523 0.59706086 1.848625
0001d0 da 82 01 bf f4 8e c4 be 96 81 ba 3e 78 c3 7a 3e
       -0.5059029 -0.38390315 0.3642699 0.24488628

arith.constant5 f4 [240]
000000 71 bf 72 be 24 47 01 3c 98 cf 25 3d c4 7c db bd
       -0.23705842 0.007890496 0.04048118 -0.107171565
000010 39 3a ff bd 5c a9 aa 3c ff ad b5 bd a4 38 d2 3d
       -0.12462277 0.02083271 -0.08871078 0.102647096
000020 98 da dc 3c d8 b8 15 3d fb 64 56 3e 5b 22 84 3e
       0.026959702 0.036553234 0.20936958 0.2580746
000030 e9 db 5b 3d cf 08 95 bd 52 4c 1a be f6 bc ef be
       0.05367652 -0.07277071 -0.15068176 -0.46823853
000040 d0 8a cd bd 61 67 b9 be 78 f5 c9 3c ee be 0f 3e
       -0.10036242 -0.36211684 0.024653181 0.14037678
000050 7c 55 21 3d 67 1f 7e be 5f 9e 92 3e 54 51 a7 be
       0.039388165 -0.24816667 0.28636453 -0.32679236
000060 7b 38 8b 3c 18 fa 4b be b8 d9 0c 3c d9 91 09 3e
       0.016994705 -0.19919622 0.00859683 0.13434543
000070 0c d7 8b 3d 32 5f 91 be 88 e1 94 bc dd 69 90 be
       0.06828126 -0.2839294 -0.018173948 -0.28205767
000080 e9 d7 74 bd a6 15 2b be 5e e0 f0 3c b4 05 c0 3c
       -0.05977622 -0.16707477 0.029403862 0.02344022
000090 14 fc a9 bc 20 55 c4 bc 4c f6 bc bd 16 90 12 bd
       -0.020750083 -0.023966372 -0.09226665 -0.035781942
0000a0 57 bd b9 3e de 85 b4 be f5 1f af bd 8a 70 53 3e
       0.36277267 -0.35258383 -0.08551017 0.20648399
0000b0 35 bb 0e be 70 45 62 3c f6 f8 b9 3d 27 d8 83 3d
       -0.13938601 0.0138105005 0.09080689 0.06437712
0000c0 d6 1f 08 3e 4d d4 80 bd 94 8d 9d be d6 1a 36 bd
       0.13293394 -0.06290493 -0.30772078 -0.044459186
0000d0 da 9d df bd ed bc 32 be 9a d4 04 3d 51 e5 3e be
       -0.1091878 -0.17454882 0.032429315 -0.18642165
0000e0 80 76 ea bd fd 8d 33 3e 60 7f a1 3e 3c c6 a8 bd
       -0.11448383 0.17534633 0.31542492 -0.08240935
0000f0 8b 23 9b be cb 05 d0 3d fd 7f 13 bd 42 a3 1b be
       -0.30300555 0.10157355 -0.03601073 -0.15198997
000100 dd 46 15 be 85 50 58 be 60 80 01 3a 91 49 28 be
       -0.14577813 -0.21124466 0.0004940089 -0.16434313
000110 6e c8 9a 3d 4c a7 98 be 29 f3 2d be a8 4c 43 bd
       0.0755776 -0.29815137 -0.1698729 -0.047680527
000120 1c 30 13 bc 31 3d 4a 3d 28 8c 0b 3e 42 05 34 bd
       -0.008983638 0.049374763 0.13627684 -0.043950327
000130 12 7e 5f 3d 24 cf 15 be 04 6d 8d be 50 2d 21 3d
       0.05456359 -0.14629799 -0.27622235 0.039349854
000140 c0 c2 5e 3c ea 8b ef bd b5 40 b0 bd 9c 0a bf bd
       0.013596237 -0.11696608 -0.08606092 -0.093281955
000150 81 40 46 bd 3e d9 dc bd 52 42 3e 3e 22 46 cd bd
       -0.04840136 -0.10783623 0.18579987 -0.100231424
000160 9e a8 bc 3d 00 7c 8c 38 b9 b9 b9 3d e4 c8 87 be
       0.09211849 6.698817e-05 0.09068627 -0.26520455
000170 d2 6c 2f 3d dc 69 e2 3d 8e b7 2a be ab 48 f4 3d
       0.04282839 0.11055347 -0.16671583 0.11927923
000180 cc d3 da 3c ee 0c 38 3d 93 4b bc 3c 9e d5 ab bd
       0.02671232 0.044934206 0.022985255 -0.083903536
000190 4c bc 93 be 16 25 4f be ca 80 83 be ac fc 77 be
       -0.28854597 -0.20228991 -0.25684196 -0.2421748
0001a0 e0 a8 f5 bb e3 48 02 3e 16 e3 8b bd fa 61 8d be
       -0.007496938 0.12723117 -0.068304226 -0.27613813
0001b0 de 90 54 be 08 fb 43 be 0b 64 87 3d c1 31 94 3e
       -0.20758387 -0.1913873 0.066108786 0.2894421
0001c0 38 2d f9 be 9a 4f 8f be b4 b5 18 3d 5c 06 5a 3d
       -0.48667312 -0.2799042 0.03728266 0.05322872
0001d0 d9 c8 0b be c6 c0 8f 3d 54 8a ce bd c9 bf 02 3e
       -0.13650836 0.070191905 -0.10084978 0.12768473
0001e0 c0 57 76 bb 38 17 e8 3c 80 1d 9a 3c 69 9b 5d be
       -0.0037588924 0.028331384 0.018812895 -0.21641316
0001f0 99 5a 81 be 60 93 bc be e6 9f 8f be a1 01 af be
       -0.25264433 -0.36831188 -0.2805168 -0.3418093
000200 fc 59 f5 bd 08 c9 f7 3d 42 59 c2 bd 46 79 e4 3d
       -0.11980054 0.120988905 -0.09489681 0.111559436
000210 9e 2f 59 be f5 b5 72 be f7 e5 9e be 1a 0c 84 3d
       -0.21209571 -0.23702224 -0.31034824 0.06447621
000220 ef 2f 08 be 6a 0e 1f bd 28 4b 8c bd a7 3d 61 bd
       -0.13299535 -0.038832106 -0.068502724 -0.054990437
000230 e8 43 88 bd 87 ce f7 be a7 eb 6c be 0c 51 c7 be
       -0.06653577 -0.48399755 -0.23136769 -0.3892902
000240 58 6a 8d be 18 c5 1e be eb 08 28 be b0 44 e0 bb
       -0.27620196 -0.15504873 -0.16409652 -0.0068441257
000250 06 7c bf bd 70 d7 9a 3c ca 6d 80 3e db c8 c3 bd
       -0.093498275 0.018901557 0.25083762 -0.095597945
000260 d8 2f 27 3e 66 cd a6 bc 26 bf c1 3c 46 46 b7 bd
       0.16326845 -0.020361613 0.023650717 -0.089489505
000270 c0 83 2b bd 92 63 92 be 5e e4 1d bd 5a 37 61 be
       -0.041873693 -0.2859159 -0.038547866 -0.21993771
000280 60 42 d9 3b 7e 66 4b 3d 80 d4 a1 be 75 92 0a be
       0.006630227 0.04965829 -0.31607437 -0.13532431
000290 78 0d 45 be 73 d0 7b be b0 d4 4d 3d 60 c9 ae 3b
       -0.19243419 -0.24591236 0.050251663 0.0053340644
0002a0 e4 32 ad bd f2 16 8a 3e 90 2b 87 3d 26 75 21 3e
       -0.08456972 0.2697063 0.06600106 0.15767345
0002b0 21 c6 1a 3e e0 97 85 bd 36 73 ea bd 60 26 be 3c
       0.15114643 -0.065231085 -0.11447756 0.023211658
0002c0 10 3d a3 3e ff 7e 82 bd 21 db 26 be 92 39 96 be
       0.31882524 -0.06371879 -0.16294529 -0.29340798
0002d0 6c e1 35 be 36 7d ba 3d a9 3a af bd fb c7 a6 be
       -0.17761773 0.09105913 -0.085561104 -0.32574448
0002e0 17 41 0e be 5a c3 22 be 6a cc bd 3d 4f 28 2d 3e
       -0.13892017 -0.15894833 0.092675045 0.16909908
0002f0 7e a1 5b be 04 19 85 bc ab c5 aa be d8 e9 41 bd
       -0.21448323 -0.01624728 -0.33353934 -0.04734215
000300 36 ae 0a be 31 8d 0c be 3a a3 7d bd 68 05 80 be
       -0.13543019 -0.13725735 -0.061923243 -0.25004125
000310 60 23 f4 3b c1 7c 48 be 39 53 b4 be 42 6d 60 bd
       0.007450506 -0.1957884 -0.35219744 -0.054791696
000320 ac df c5 3d d8 27 65 be cf 26 1c be 66 72 23 be
       0.09661803 -0.2237848 -0.1524918 -0.15961608
000330 a3 ad cc bd dc c4 c1 be 5d e4 ad bd 1c f3 3a be
       -0.09994056 -0.37845504 -0.084908225 -0.18256801
000340 88 a6 63 3d ec 81 af be a8 b4 b1 3c 7c ca 04 bd
       0.05557874 -0.3427881 0.021692589 -0.032419667
000350 e4 08 33 3c bd a4 0d 3e f2 7b 75 be 12 da 7a be
       0.010927413 0.13832374 -0.23973063 -0.2449725
000360 47 3a 90 be b0 cc 0a bd 97 40 d8 3c 79 5a d9 be
       -0.28169462 -0.03388661 0.026397986 -0.42451838
000370 2f d5 4f be 93 85 8c bd 2f aa 44 3e a0 01 70 3d
       -0.20296167 -0.06861415 0.19205545 0.0585953
000380 d0 d9 b6 3d c4 8f 7d be 92 59 ba be 03 93 83 be
       0.08928263 -0.24761873 -0.36396462 -0.256981
000390 a4 7f 89 3c a1 29 b1 bd 2e 66 2a bd a0 d2 57 bb
       0.016784497 -0.08650518 -0.041601352 -0.0032931939
0003a0 2c 76 37 be 40 a3 d8 3d 57 0c 95 bd 8d 40 6e be
       -0.17916173 0.105780125 -0.07277744 -0.23266812
0003b0 40 ab 76 3b ea 24 84 3e 40 2d b6 3a 28 56 18 be
       0.0037638694 0.25809413 0.0013898984 -0.14876616

arith.constant6 f4 [40]
000000 37 51 8f be 20 49 1e bd fa ef 37 3d 58 0b 4f 3d
       -0.2799165 -0.038643956 0.044906594 0.050547928
000010 90 d6 b0 bf 4c 8b 00 3f 3e 99 56 be 85 d0 d9 3e
       -1.3815479 0.5021255 -0.20956895 0.425419
000020 0c f3 6e be 3f 34 84 3f cc dc d8 3d b8 e0 77 3e
       -0.23334903 1.0328444 0.10588989 0.24206817
000030 c2 60 0c 3f 6a f9 00 3f 18 df f1 3d 5a 73 54 bf
       0.5483514 0.50380576 0.1181013 -0.8298851
000040 1f 4e 4d 3e 21 1c 82 3d 61 0d 55 bf 0d e3 30 3f
       0.20049332 0.063530214 -0.8322354 0.6909645
000050 ab 54 ac 3e d8 05 d6 be 52 fc 0e be c6 72 46 3f
       0.33658347 -0.41801333 -0.1396344 0.7751888
000060 4d 2b e5 be ec 3d 6a 3f fe b2 e9 3e fd f6 63 bf
       -0.44759598 0.91500735 0.45644373 -0.8904875
000070 43 bf 26 bf 66 d9 34 be b8 4b 96 3e a0 da 6e bf
       -0.6513559 -0.17661056 0.29354644 -0.93302345
000080 92 1d ae 3e 45 cc 3e 3f 99 9b b3 bf 31 4e ba 3f
       0.34006935 0.7453044 -1.403186 1.4555112
000090 d0 89 c6 bd 98 57 f7 3e 26 75 d3 bf cc 9e 5e bd
       -0.096942544 0.48309016 -1.6520126 -0.05435066

arith.constant7 f4 [240]
000000 d6 ec da be d1 be ab 3e 81 2d ce 3d 3a 04 c0 be
       -0.42758816 0.3354402 0.10067273 -0.37503225
000010 78 59 de bc bc 27 05 be 1a 31 1b be fc 5e f6 bb
       -0.027142271 -0.13003439 -0.1515545 -0.0075186472
000020 3c 99 16 3d 7a 3c 1c be e2 b1 51 3e 21 75 39 be
       0.03676723 -0.15257445 0.20478013 -0.18111087
000030 68 c2 49 bb fb f5 be bd 7a 4c 3f bd 2c 5c c8 3d
       -0.0030786041 -0.09324261 -0.046703793 0.097832054
000040 2e af 20 be 75 cb 91 be 70 79 8b 3d 44 f4 cb bd
       -0.15691826 -0.28475538 0.06810272 -0.09958699
000050 ac 33 a0 3e 92 44 6e be f0 01 29 3b a3 66 39 3d
       0.31289423 -0.23268345 0.0025788508 0.045263898
000060 e2 03 71 be ff fa 29 3d 9d 6a 81 3e 4c 0c e8 bc
       -0.23536637 0.041499134 0.25276652 -0.028326176
000070 89 d7 22 be 08 62 43 be 63 4c 37 3d 60 e6 c9 bd
       -0.15902533 -0.19080365 0.044750582 -0.09858394
000080 20 d9 eb 3c ac 09 52 3e d2 b2 d4 be fc 59 88 3c
       0.028790057 0.20511502 -0.4154268 0.01664447
000090 f6 a4 f4 3d a8 87 56 3e 8a e8 d8 bd 1c 52 33 bd
       0.11945526 0.20950186 -0.10591228 -0.043779477
0000a0 b6 4b 83 3c 6a 29 54 3d 79 15 b7 be e7 ef 9a 3d
       0.016027313 0.051797308 -0.3575857 0.07565289
0000b0 a6 78 5b be cb 9f 47 bd d2 b6 4f bd 44 8d 15 be
       -0.21432742 -0.048736375 -0.05071146 -0.1460467
0000c0 db d5 67 3e b8 80 a9 be 7c 4e dd 3d 8e e0 5c 3d
       0.22640173 -0.33106017 0.10805985 0.05392509
0000d0 5d 33 93 3d 9f a0 f4 bc eb d5 02 3e 14 90 04 be
       0.07187531 -0.029861746 0.12776916 -0.12945586
0000e0 2e 06 1b 3d d4 b8 a9 bd 5a 98 2a be 4e 79 00 3e
       0.03784769 -0.08287206 -0.1665968 0.12546274
0000f0 b4 be 86 3d e0 67 0f bb 38 08 31 be 2d e4 d5 3d
       0.065793425 -0.0021881983 -0.17288291 0.10443912
000100 46 18 80 3e 04 69 71 bd e3 1d b8 bd 1e b9 c6 3d
       0.2501852 -0.05893804 -0.089900754 0.09703277
000110 70 d8 3e bc 4e 25 42 bd 6c ed 79 bd ba 88 19 3e
       -0.011648282 -0.047398858 -0.06101744 0.14993563
000120 eb 66 20 3e 89 dd 21 3e 58 d7 47 be c8 e6 96 bc
       0.1566426 0.15807165 -0.19515741 -0.018420592
000130 a6 39 0b 3e 89 b8 83 3d 98 84 6d bd a1 91 03 be
       0.1359621 0.06431682 -0.05798778 -0.12848522
000140 f4 2a 08 be 0a 6e 01 3d 1f 01 8c 3d 50 1b d2 39
       -0.13297635 0.031599082 0.06836151 0.0004007467
000150 0f d3 1e be de 8f 85 be 33 1a b5 bd 0e 19 47 bd
       -0.155102 -0.26086324 -0.08842888 -0.04860788
000160 b9 13 85 be 84 10 16 be 98 e5 06 3e 6d 57 52 3e
       -0.2599161 -0.14654738 0.1317352 0.20541163
000170 c0 70 83 bc b8 8e 6b bb 94 ab 44 be 58 a4 5b 3e
       -0.016044974 -0.0035943221 -0.19206077 0.21449411
000180 73 a5 0e be 8b 61 dc be 66 f5 a5 be df 28 8f be
       -0.13930301 -0.4304317 -0.32413787 -0.2796087
000190 95 63 19 3c 63 8b 00 be 76 0d ab bd 68 5c 81 be
       0.009362121 -0.12553172 -0.08352177 -0.25265813
0001a0 b8 33 43 be 70 2a 22 3c 92 6f f3 3d fc 7c ea be
       -0.19062698 0.009897813 0.11886515 -0.4579848
0001b0 00 87 88 be ed 3b 2f 3e 6e b1 19 be 40 a4 00 bd
       -0.26665497 0.17112704 -0.1500909 -0.03140664
0001c0 52 a8 9a 3e 0a 24 84 be ae 9f ba bd b0 ed 99 bc
       0.30206543 -0.25808746 -0.09112488 -0.018790096
0001d0 b8 f9 9d bc e3 1b 9d bd 91 6a 8b 3e 10 31 9c 3b
       -0.019284114 -0.076713346 0.2722974 0.004766591
0001e0 00 7f d0 ba 56 a7 bd bd a7 ce a9 3d b3 39 9c 3c
       -0.001590699 -0.092604324 0.08291369 0.019070482
0001f0 90 0d 5d 3b 1c 42 cf be c2 33 c2 3d 08 2a 92 bd
       0.0033730008 -0.40480125 0.09482528 -0.07136923
000200 be 3a 94 bd df 4b fa bd 0a 8e be 3d 43 19 35 be
       -0.07237767 -0.122215025 0.093044356 -0.17685418
000210 86 56 8a 3d cd 93 53 3e 56 d6 0f 3e d2 46 a7 bd
       0.06754784 0.2066185 0.14046606 -0.08167805
000220 16 da 9e bd b4 bd 54 3d f8 cc 7f bc 09 5b 44 be
       -0.0775644 0.051938727 -0.015612833 -0.19175352
000230 70 04 44 3c 1d 1e d3 bd 30 e4 3a 3c c5 ce 62 3e
       0.011963949 -0.10308478 0.011406943 0.22149189
000240 e5 35 dd bd b6 de 14 3c da 12 95 be 74 b2 60 3d
       -0.10801295 0.009086302 -0.29115945 0.054857686
000250 0e e0 a1 3e 40 27 64 3e ec 54 7b 3e 1e c8 c5 bd
       0.31616253 0.22280598 0.24544114 -0.0965731
000260 2e 56 5e be c0 cf 6a 3d 37 ff 03 3e 77 11 05 be
       -0.21712562 0.057327032 0.12890325 -0.12994944
000270 61 24 05 be 98 63 cb bd 6c 26 d9 bd e4 96 ab 3d
       -0.13002159 -0.099311054 -0.106030315 0.083783895
000280 0f 4c 25 3e fd 6d 97 be 60 f1 ca 3d 9f 7a 67 be
       0.16142295 -0.29576102 0.0990932 -0.2260537
000290 5e 64 97 3e e5 26 8f be 98 00 49 3c 7b 42 64 3d
       0.29568762 -0.27959362 0.012268208 0.055727463
0002a0 06 f4 ef bd 10 ff 95 be 0e 84 48 be 23 05 dc 3d
       -0.11716466 -0.2929616 -0.19581625 0.10743167
0002b0 f7 72 32 be 11 9a 12 3e f4 42 82 3d 76 c3 d0 3d
       -0.17426668 0.14316584 0.063604265 0.10193531
0002c0 b6 ae 76 3d e5 f5 69 3d f2 b4 04 3d 29 f2 22 be
       0.06022521 0.05711927 0.032399125 -0.1591269
0002d0 8e 65 9c 3d c5 25 69 be 38 50 ac 3e 54 6d 14 be
       0.076365575 -0.22768314 0.33654952 -0.1449483
0002e0 69 78 c3 bd 00 c2 6e b9 78 38 2c 3c a8 1f 11 bd
       -0.09544451 -0.0002276972 0.01051151 -0.03543058
0002f0 4e f1 69 be 6c f3 8b 3d f0 e2 73 3d 54 70 8c be
       -0.22845957 0.068335384 0.059542596 -0.2742945
000300 1a 97 ce 3d e6 4c dd 3d fd 09 dc 3d c1 25 c1 3d
       0.10087414 0.10805683 0.107440926 0.09431029
000310 4e a4 25 be 2d 66 ce be a0 e9 0e 3e 51 40 7f 3e
       -0.16175959 -0.4031233 0.13956308 0.24926879
000320 a3 2a ad bd a5 15 cb be cc ae 0a 3e 9c 87 a5 3e
       -0.08455398 -0.3966495 0.13543242 0.32330024
000330 1a d6 c8 be 91 17 af be 30 a7 87 be f4 b4 30 bd
       -0.39225847 -0.34197667 -0.2649474 -0.04314132
000340 fa d5 4d 3c a3 4f 0e be 42 20 59 3e 9d a4 28 be
       0.012563223 -0.13897566 0.21203712 -0.16469045
000350 31 10 ae bd 53 60 92 be 70 a8 ca bd ed 89 ae bd
       -0.08499182 -0.28589115 -0.09895408 -0.08522401
000360 d4 21 53 be fa c3 26 be 58 ab 94 3e 7f 6c e8 bd
       -0.20618373 -0.16285697 0.29036975 -0.11348819
000370 a9 25 a2 be 1f 61 f1 bd c8 b3 19 3e fc e9 d1 3c
       -0.31669357 -0.117861025 0.15009987 0.025624268
000380 34 a7 76 bd fe c7 0f be 5a 4a 2b be b2 78 4e bd
       -0.06021805 -0.14041135 -0.16727582 -0.050408073
000390 b4 ac 82 be 7d e5 48 3e f0 78 da bd b0 71 64 bc
       -0.25522387 0.19618793 -0.10667598 -0.013943121
0003a0 0b 55 c7 bc 00 64 92 bd 4b db 92 3e 8c 43 57 be
       -0.024332544 -0.0714798 0.28682932 -0.21021861
0003b0 e7 45 b5 bd 52 97 8b 3c 10 1c e8 3c 3a 27 36 3d
       -0.088512234 0.017039929 0.028333694 0.044471003

arith.constant8 f4 [40]
000000 b4 ba 7c 3e 6f 33 74 3f 5d ca a9 3e 2c f2 c5 be
       0.24680597 0.9539098 0.33162203 -0.38661325
000010 99 a5 a5 be 18 36 4f 3e c7 e4 72 3e d8 86 36 3f
       -0.32352903 0.20235479 0.23720084 0.71299505
000020 9a e0 0d bf c6 f8 6f be 66 d5 d0 3d a8 bb 3c 3f
       -0.5542084 -0.23434743 0.101969525 0.7372384
000030 be a0 87 be 0d 8c 2b 3f 28 c1 b0 3f 1a 92 ab 3e
       -0.26489824 0.67010576 1.3808947 0.33509904
000040 11 2b e1 3e eb 4c bc bd 33 f5 c8 be 6d 39 a5 be
       0.4397817 -0.091943584 -0.39249572 -0.32270375
000050 39 5b 2c bf 5e 6b e2 3d 78 12 79 bf 16 5a ab 3d
       -0.67326695 0.11055635 -0.97293806 0.08366792
000060 80 21 99 3e 5f 5e 20 3f 09 7b df 3e 28 b6 01 3c
       0.2990837 0.62644 0.43648556 0.007916965
000070 1e d5 56 bf e1 7d 66 be e4 6e 23 bf 12 f5 78 3e
       -0.8391894 -0.22508956 -0.6384108 0.24312237
000080 1c 1d 2c 3f eb 01 b7 3d 53 fb df be 43 c6 7a 3e
       0.6723192 0.08935913 -0.43746433 0.24489693
000090 c9 a3 12 be 02 5c 3b 3f 62 f2 43 3f 0c 79 9f 3e
       -0.14320292 0.7318727 0.7654172 0.3114704

arith.constant9 f4 [240]
000000 a8 98 0f be 8e 2e 8c 3e 94 f1 ce bd 7b 52 fe bd
       -0.14023077 0.27379268 -0.10104671 -0.12418076
000010 91 72 05 3e 67 37 8e be 0e 9b 20 be 4a be 45 3d
       0.13031985 -0.27776644 -0.15684149 0.048277177
000020 72 fd 54 3e 44 f0 46 bd c5 a2 02 3e 5b 70 7a 3d
       0.20799807 -0.04856898 0.12757404 0.061142307
000030 cb ea 87 3d 64 e6 fe 3d c2 3c 04 3d af d4 70 3e
       0.0663658 0.12446287 0.032284506 0.23518632
000040 a1 69 3d 3d 2c 33 55 3d 68 dc 82 3d 70 34 ae 3b
       0.046243314 0.052050754 0.063896954 0.0053163096
000050 f7 b2 c4 3d 5a 36 2a 3e 26 24 ba 3d 24 72 db 3c
       0.09604447 0.16622296 0.09088926 0.026787825
000060 78 58 7a 3c 86 fc 91 3d eb a8 da bd 5f 7e 48 be
       0.015279882 0.07128243 -0.1067675 -0.19579457
000070 00 bf ff 3b 46 a2 bc 3d 6b 37 04 bd 95 f1 18 3e
       0.0078047514 0.09210639 -0.032279413 0.14935906
000080 c0 d1 7a 3c 95 34 36 3e ea be 08 3d 9a 01 59 3e
       0.015308797 0.17793496 0.033385195 0.21192017
000090 4a 5d ec bc 10 e1 e6 3c 45 64 1d be 0e 4c bb bd
       -0.028853077 0.02818349 -0.15370281 -0.09145366
0000a0 a0 32 61 bb 20 47 ed ba 34 9b 0f 3e b5 5a c0 3d
       -0.003436245 -0.0018102862 0.14024049 0.09392301
0000b0 a6 c6 96 3c 14 52 12 3e 36 87 6d bd 25 89 2c 3e
       0.01840527 0.14289123 -0.057990275 0.16849191
0000c0 ed 59 21 3e 52 7a d0 3c 74 99 1d 3d d6 8f 13 be
       0.1575696 0.025448952 0.038476422 -0.14410338
0000d0 3b 64 3b 3e 3c c5 fe 3d d5 da 42 3e 54 81 5a be
       0.18299954 0.12439963 0.1902879 -0.21338397
0000e0 ba 3c 42 be 1f cc aa 3d f8 ef c6 bc d2 f2 2a 3d
       -0.18968478 0.08339714 -0.024284348 0.041735478
0000f0 75 e9 55 3e 58 67 fd bd 07 09 25 bd 24 a6 c7 bc
       0.20889838 -0.12373227 -0.040291812 -0.024371214
000100 e7 58 29 3e a6 6b 99 bd aa 3e f1 3d 08 13 8e 3e
       0.1653782 -0.074912354 0.1177953 0.27748895
000110 db 2f 91 3e 19 47 2d be 6f 99 a6 3e 55 09 a7 3e
       0.28356823 -0.16921653 0.32538936 0.32624307
000120 b2 b5 ff bc 34 80 93 3e b3 6a b9 3d f0 0f 1a bb
       -0.031214569 0.2880875 0.090535544 -0.0023508035
000130 ac b4 55 3d 0a d3 e8 bc de 43 02 3e 8a 61 24 3e
       0.052174255 -0.028420944 0.12721202 0.16052833
000140 c7 4f b6 3d 10 8f 64 3e 92 e5 06 be ee d4 cd 3d
       0.08901935 0.22320199 -0.13173512 0.10050379
000150 8b 6a 3d 3e 18 d2 35 be 58 24 a2 bc fd 05 21 3e
       0.18497674 -0.17755926 -0.01979272 0.1572494
000160 40 d7 26 3e d5 1b 86 be f6 a1 02 bd bb 4f 2e be
       0.16293049 -0.2619311 -0.03189274 -0.17022602
000170 1a 7c 85 3b 6e 2b e3 bd b5 b2 22 3e 6a 94 64 3d
       0.004073632 -0.11092268 0.15888484 0.0558056
000180 54 6e c1 3d f8 3f 1e 3c 17 f0 aa 3d b6 1e 22 be
       0.094448715 0.009658806 0.08346575 -0.15832028
000190 52 6c b0 3d 34 3c ea 3d 9d 81 df 3d f8 80 38 3e
       0.086144105 0.11437264 0.10913394 0.18017948
0001a0 0c 8d be bc c0 03 23 3b 1c 79 74 3c 78 65 e6 3d
       -0.023260616 0.0024874061 0.014921453 0.112498224
0001b0 63 ec 27 3e a8 c8 1e bd 4a aa e2 3d 57 41 58 3e
       0.16398768 -0.03876558 0.11067636 0.21118675
0001c0 ee 8e 1e 3e c2 40 4d be 31 b1 01 be ef 5b b0 3d
       0.15484211 -0.20044234 -0.1266525 0.08611285
0001d0 f1 66 81 3e 0e b5 b0 bb a2 02 ce 3c 8e ab 9a bd
       0.2527385 -0.005392677 0.02514774 -0.07552253
0001e0 9b 96 91 3e 40 27 ff bd 95 2d 44 bc be e8 07 bd
       0.28435215 -0.12458658 -0.011973758 -0.033180945
0001f0 f3 4d 1d 3d 5c d4 bc 3d 28 a0 9d bc 88 5e cd 3d
       0.038404416 0.09220192 -0.019241408 0.10027796
000200 88 df 65 3c 27 45 41 3d 5b 43 33 3e 1c 83 5c 3d
       0.014030345 0.04718509 0.17506163 0.053835973
000210 fd 76 62 bd 61 67 80 3e 5e b2 84 3c f8 0b b1 bd
       -0.055289257 0.25078872 0.016198333 -0.08644861
000220 5f cc 45 3d 00 1f ce 3d 64 a7 70 3d d7 45 1d be
       0.048290607 0.100645065 0.058753386 -0.15358673
000230 e8 52 f1 3b 40 6c ae bb e4 26 8f bc b0 fb 62 3c
       0.0073646195 -0.005322963 -0.0174746 0.013853952
000240 76 2b 75 3e 1b de 11 bd 5e 78 04 3e fc 90 de 3d
       0.2394236 -0.035612207 0.12936541 0.10867497
000250 e4 1d 2e 3e 16 6e 52 be 80 8b 44 3e 7c 91 e7 3d
       0.1700359 -0.20549807 0.1919384 0.11307046
000260 30 e3 9c 3c aa 9c ff 3d b6 de 65 3d a6 44 0c be
       0.0191513 0.12481053 0.056120597 -0.13698062
000270 54 0e 44 be af 84 d5 3d 78 53 8c 3d 90 4c 36 3e
       -0.19146091 0.10425698 0.06851858 0.17802644
000280 ac 5d 12 3e 1e 57 97 3d 07 7f b5 3c 0f 1b 1c bd
       0.14293545 0.07389663 0.022155298 -0.038111743
000290 c6 bd c8 3d d9 b3 7a 3d f0 eb 6e bb 77 e7 52 3e
       0.098018214 0.061206672 -0.0036456548 0.2059611
0002a0 38 fb 6b 3e d8 db 80 bd f5 82 bd 3d 0a f8 cf 3d
       0.23045051 -0.06291932 0.09253494 0.101547316
0002b0 00 18 5c 3d cc 92 ba bc 40 54 8f 3d b7 c1 20 3e
       0.053733826 -0.022775076 0.06998491 0.15698896
0002c0 0f 7c bf 3d 22 40 64 be 89 d7 5d bd 86 c3 a0 3d
       0.09349834 -0.2229009 -0.05416063 0.07849793
0002d0 d4 4d 92 bc fc f4 bf bd 28 2c b6 bb 59 12 bb 3d
       -0.017859377 -0.09372899 -0.005559463 0.09134359
0002e0 48 ce 93 3d 8b f2 f7 bc e9 cf 2b 3e 4a ea ad 3d
       0.072170794 -0.03026702 0.1677853 0.08491953
0002f0 35 15 fc 3d f8 ec d2 3c 12 56 90 3e 2b 04 c0 3d
       0.123087324 0.025747761 0.28190666 0.09375795
000300 c0 13 de 3b 0c f7 24 3e 0f 61 8d bd 1c 93 3a 3d
       0.0067772567 0.16109866 -0.06903278 0.04555045
000310 6c 1e 4e 3e d8 eb d7 3c 13 8f 1b be 40 ec f8 3c
       0.20128793 0.026357576 -0.15191297 0.03038609
000320 f0 04 d3 bc 70 ad 6e 3d 65 12 f7 3d 14 d9 42 bc
       -0.02575919 0.05827087 0.12064055 -0.011892576
000330 80 28 3f 3e 66 8e 43 3d b0 38 0a 3c 23 d8 a8 3d
       0.18667793 0.047743224 0.008436367 0.0824435
000340 13 5a 7e 3e 5f da a4 3e 8e 2f 0f be 1b 92 c8 bd
       0.24839048 0.32197854 -0.13982984 -0.097934924
000350 c4 72 d3 bd 55 d3 83 3e da 01 4f 3e 82 f5 6e 3d
       -0.10324624 0.2574717 0.2021555 0.058339603
000360 06 7c 31 3e 33 74 59 3e cd b9 08 3e 9d d7 99 3c
       0.17332467 0.21235733 0.13352127 0.01877957
000370 b7 47 1a 3e 34 e1 9e 3d 69 85 5f 3d ea 96 b3 3d
       0.1506642 0.07757798 0.05457059 0.08769019
000380 08 b6 93 bd a3 4e b7 bd 24 81 41 be 62 30 56 be
       -0.07212454 -0.08950546 -0.1889692 -0.20916894
000390 da cf 39 3e d3 65 04 3e 7e 7c 08 bc 4c d7 a3 3d
       0.18145695 0.12929468 -0.0083304625 0.08000049
0003a0 20 02 3b bc eb a0 a4 3d ec 1b 60 bd e7 f9 4b 3e
       -0.011414081 0.08038505 -0.05471413 0.19919549
0003b0 48 f5 65 3c f6 76 05 3e e0 0d eb 3d 3e 18 da 3b
       0.01403553 0.13033661 0.11477256 0.006655722

arith.constant10 f4 [40]
000000 7e 15 ff bd be 05 03 bf 78 66 26 bf 1e a5 91 3e
       -0.12455271 -0.51180637 -0.65000105 0.28446287
000010 97 a0 2f 3f b1 ef 3b 3e be 04 ca be 06 91 11 be
       0.68604416 0.18353154 -0.39456743 -0.14215478
000020 96 08 82 3f d7 1a 34 3e c3 a9 0a 3e e4 7b c2 be
       1.015887 0.17588364 0.13541321 -0.37985146
000030 b7 c0 83 bf ca d9 86 be c0 ce de bc 9d 9d de 3e
       -1.0293187 -0.26338035 -0.027198195 0.43479624
000040 16 8a 03 be 4d c0 f3 3a aa d3 8d 3f 13 2f 5b 3e
       -0.12845644 0.0018596739 1.108022 0.21404676
000050 17 95 12 3f 06 69 de be a2 41 bf 3e d7 26 49 3f
       0.57258743 -0.43439502 0.3735476 0.7857489
000060 50 e7 44 bf d8 64 36 be 95 cf c6 be 41 31 f2 3e
       -0.76915455 -0.17811906 -0.38830248 0.47303203
000070 e2 e2 8a bf 76 f2 e1 bb 50 59 f5 3b d2 1d 95 3f
       -1.0850489 -0.0068953587 0.0074874535 1.1649725
000080 49 f9 e6 3f 78 e5 52 be 01 56 fd be ad 87 47 bf
       1.8044826 -0.20595348 -0.49479678 -0.779414
000090 3c 23 8e 3e 8c 8c 17 bf dc fa f0 3e 50 b1 72 bf
       0.27761257 -0.5919883 0.4706639 -0.9480181

arith.constant11 f4 [144]
000000 b3 00 7f 3f fa 6c 16 3e d4 ec a8 3f 44 e0 63 bd
       0.9961044 0.14690009 1.3197274 -0.0556338
000010 52 be 7a 3f 41 98 d4 be 1c 73 a7 be fe 2b ba be
       0.97946656 -0.4152241 -0.3270501 -0.36361688
000020 ce ab 43 bf 80 f7 00 bf 6f 92 02 bf f5 a5 fa be
       -0.7643403 -0.50377655 -0.5100469 -0.4895474
000030 83 49 d6 be 68 63 11 3f 9e 47 66 3f 78 75 dd be
       -0.4185296 0.56792307 0.8995303 -0.43253684
000040 10 fc 73 3f 98 93 4e be 3d 2a 04 bf 52 35 a5 be
       0.9530649 -0.2017349 -0.5162695 -0.32267243
000050 fc c2 7d 3f 96 61 a1 3f fe 4e 1a bf 5b 5e 29 bf
       0.9912565 1.2607906 -0.6027678 -0.661596
000060 8b 0f a0 3f b0 3c 22 bf 38 62 b8 3f 58 7a e7 3c
       1.2504743 -0.6337385 1.4404974 0.02825658
000070 dc 2c 90 bd 01 b2 09 bf f2 89 f2 bd 77 c1 2f 3f
       -0.07039806 -0.5378724 -0.11842717 0.6865458
000080 13 4c d9 be 9c 0e a3 be 9b a7 29 3f 2a a1 ce be
       -0.42440853 -0.31847084 0.6627137 -0.40357333
000090 cf da 24 be d5 d7 f6 be 4b 2b 50 bf 1c cb b9 bc
       -0.16099094 -0.48211542 -0.8131606 -0.022679858
0000a0 1d 1c a1 3f 7a f1 22 bf 05 c7 f4 bd 48 95 5a 3e
       1.2586704 -0.63649714 -0.119520225 0.21346009
0000b0 5a fe ba 3e 42 58 77 be 0a af a4 be 71 62 c7 be
       0.3652218 -0.24154761 -0.32164794 -0.38942292
0000c0 e9 c9 8d be f2 bc 99 be ee 3d 42 bf 27 97 a4 3f
       -0.27693108 -0.30026966 -0.7587575 1.2858628
0000d0 03 c2 8a 3f 78 ad ad 3e 80 bd 05 be 4e e4 9f 3f
       1.0840458 0.3392141 -0.1306057 1.2491548
0000e0 58 64 7b be f9 8e b4 3f 26 7e 4e 3f 24 f9 b8 be
       -0.24549997 1.4106132 0.8066124 -0.3612758
0000f0 b1 df e3 3d 78 68 1a bd 8c 94 9c 3f 4a 5b e9 be
       0.1112665 -0.037697285 1.2232833 -0.4557746
000100 fc 96 34 3f 26 65 9f 3d 9e 2a 8e 3f e9 09 49 bf
       0.70542884 0.077829644 1.1106756 -0.78530747
000110 1d c6 a8 3f ed d0 4a be 50 11 c9 bb 45 35 6a 3f
       1.3185459 -0.19806261 -0.006136097 0.9148753
000120 08 54 d8 be 1a 7c a5 3f 00 61 64 bb aa f3 26 bf
       -0.4225161 1.2928498 -0.0034847856 -0.6521555
000130 00 4c 00 bf 94 30 11 be 98 25 87 3f ef 94 1c 3f
       -0.50115967 -0.14178687 1.0558348 0.61164755
000140 50 5d 11 bf 5e 20 0d bf c7 8a 18 be d4 47 a2 3f
       -0.5678301 -0.55127513 -0.1489669 1.267817
000150 42 59 47 be 2b 04 5d 3d 72 75 b1 be da 55 56 be
       -0.19467643 0.053959053 -0.34659916 -0.20931187
000160 58 b8 06 bf e9 a2 58 be 08 f4 b4 3f ee 76 86 3f
       -0.52625036 -0.21155895 1.4136972 1.0505044
000170 a5 91 87 be 3c 9a c7 be 99 b2 b6 be 99 49 b4 be
       -0.26478305 -0.3898486 -0.35683134 -0.352124
000180 de 33 fe be d0 62 ce 3f c6 3f 45 be 27 9b 0b bf
       -0.49648947 1.6123905 -0.19262609 -0.5453362
000190 07 6e 01 bf 8e 03 e6 bd 98 f1 54 bf 30 43 1e bd
       -0.50558513 -0.11231147 -0.8318114 -0.038638294
0001a0 7d 5c 29 bf c0 70 81 be 03 80 ec be 2a 2a 1d bf
       -0.6615675 -0.25281334 -0.46191415 -0.6139246
0001b0 12 35 bf 3f 06 d1 03 be 99 44 78 3f 22 29 d8 3f
       1.4938071 -0.12872705 0.9697967 1.6887553
0001c0 47 ed 90 be ec 5d 17 bf 6d 51 d3 be 2f 02 5b 3f
       -0.28306028 -0.5912769 -0.4127306 0.85550207
0001d0 e8 80 74 be 2f 1b 11 bf e3 8f 9a 3f ab 6f 65 bf
       -0.23877299 -0.56682104 1.2075161 -0.89623517
0001e0 12 ed 05 bf 28 47 c0 bd 10 f1 e3 bb 38 15 08 bf
       -0.52314866 -0.09388572 -0.006956227 -0.5315738
0001f0 ad 16 a9 3f 04 2e 60 be 04 92 a1 be ad 49 03 bf
       1.3210045 -0.21892554 -0.31556714 -0.51284295
000200 44 5f 21 3f 70 84 93 be f9 6b c1 be 52 62 0b bf
       0.6303599 -0.2881198 -0.3777769 -0.544469
000210 f1 a6 75 3f 4f a3 95 be 7f 45 02 bf 1f 44 f0 3e
       0.9595786 -0.29226157 -0.5088729 0.46926972
000220 a2 04 d9 3d 5e f0 92 3f 37 0d fc be 9d a7 bf be
       0.10596587 1.1479604 -0.49228832 -0.37432566
000230 ae 69 d3 be ea 6f 4e 3f 33 f1 7c 3f 21 e9 d6 be
       -0.41291565 0.8063952 0.9880554 -0.41974738
