tflm/tensorflow/lite/micro/examples/fmnist/models/fmnist_float.tflite (tflite, 643972 bytes, 12 tensors)

arith.constant f4 [10]
0	0xbd5832a6	-0.052782677
1	0xbd9e369d	-0.077252604
2	0xbd3f874b	-0.046759885
3	0x3d939262	0.07205655
4	0x3be68de0	0.007035956
5	0xbd225cae	-0.039639167
6	0x3d3296a0	0.04360068
7	0xbc898340	-0.016786218
8	0xbcfb55f1	-0.030680628
9	0x3d55b6dc	0.05217634

arith.constant1 f4 [10, 128]
0	0xbdb67d89	-0.08910663
1	0xbe137d71	-0.14403321
2	0x3b88b6a5	0.0041721635
3	0x3d78e391	0.0607639
4	0xbd8c32d4	-0.06845632
5	0xbddf4a4a	-0.109028414
6	0x3d136d2f	0.035992797
7	0xbe7fcd34	-0.24980623
8	0xbcbc16ba	-0.022960056
9	0xbd8086bc	-0.062756985
10	0x3d451b7b	0.04812191
11	0x3d261734	0.040549472
12	0x3da90411	0.08252729
13	0x3ce31d95	0.027724067
14	0x3e0a5c00	0.13511658
15	0xbddf4b8e	-0.10903083
16	0xbc4b4870	-0.012407407
17	0xbcbdc7b0	-0.023166507
18	0xbe410633	-0.18850021
19	0xbd141571	-0.03615326
20	0xbd1e9c3f	-0.038723227
21	0xbcb5cd7f	-0.022192715
22	0xbc61b82a	-0.013776818
23	0xbd2dae96	-0.042402826
24	0xbeb3fc42	-0.35153395
25	0x3d560c76	0.052257977
26	0xbccc6e70	-0.024955004
27	0xbd90ac0f	-0.070640676
28	0x3daa5f70	0.083189845
29	0xbdb60c6a	-0.088890865
30	0x3dc47554	0.09592691
31	0x3dbbfc3e	0.09178971
32	0x3e17671a	0.14785424
33	0xbe533867	-0.20626985
34	0x3d623cee	0.05523389
35	0xbea07550	-0.31339502
36	0xbbb6cd50	-0.0055786744
37	0xbdbcae1b	-0.092128955
38	0xbd78c66e	-0.060736112
39	0xbe8dd51d	-0.27701655
40	0x3cf0fdd9	0.029417919
41	0x3d0af4f3	0.033925008
42	0xbca759a5	-0.020428488
43	0x3dd066df	0.10175871
44	0xbc59d87c	-0.013296243
45	0x3d2b084a	0.041755952
46	0x3d9a23c7	0.07526355
47	0x3e02c6d2	0.12771156
48	0x3d5abc42	0.053402193
49	0x3d194470	0.037418783
50	0xbd465019	-0.04841623
51	0xbd1b59a8	-0.0379273
52	0xbe40b9ec	-0.18820924
53	0x3d59ba99	0.05315647
54	0xbd915b33	-0.07097473
55	0xbdc3df2d	-0.09564052
56	0x3defc689	0.117077895
57	0x3d8e2ca4	0.06942108
58	0x3da5fb82	0.08104612
59	0x3d243884	0.04009296
60	0x3e312f9e	0.17303321
61	0x3db1f8dc	0.08690044
62	0xbcf2760b	-0.029597303
63	0xbd500516	-0.0507861
64	0x3d15a1b6	0.036531173
65	0x3e8dd10a	0.27698547
66	0xbea5ca52	-0.3238092
67	0x3dd2fae1	0.103017576
68	0x3c4926eb	0.012277345
69	0x3c2c4eba	0.010516817
70	0xbd139655	-0.03603204
71	0xbe328b39	-0.17435922
72	0xbd657eff	-0.056029316
73	0xbdcee727	-0.101026826
74	0xbd2426fe	-0.04007625
75	0x3e104d9f	0.1409211
76	0xbcd6bd3e	-0.026213285
77	0x3b2d5d34	0.0026453258
78	0xbcc1cf09	-0.023658292
79	0xbe0dec61	-0.13859703
80	0x3d6f4f64	0.058425322
81	0xbd824fb7	-0.06362861
82	0xbd40a5b5	-0.04703303
83	0x3ce75769	0.028239923
84	0x3e30b291	0.17255618
85	0xbceffb64	-0.029294677
86	0xbc2621c0	-0.010139883
87	0x3d946e98	0.072476566
88	0x3e10051e	0.14064452
89	0x3d8f8818	0.0700838
90	0xbc6291c1	-0.013828696
91	0x3d7ff682	0.062490948
92	0x3cc1224f	0.02357593
93	0xbd9ac713	-0.07557502
94	0xbe0e53f7	-0.13899218
95	0xbe008567	-0.12550889
96	0xbe082295	-0.13294442
97	0xbb0fff43	-0.0021972216
98	0xbe621a89	-0.22080435
99	0xbe1a0d0d	-0.15044041
100	0x3e071d0c	0.13194674
101	0xbd20b168	-0.039231688
102	0x3cfbb35b	0.030725172
103	0xbd6baf5b	-0.05754028
104	0xbe067986	-0.13132295
105	0x3d49f22a	0.04930321
106	0x3d26bb22	0.040705808
107	0xbecb9bf1	-0.3976741
108	0x3d1b3b4f	0.037898358
109	0x3e183a2d	0.14865942
110	0xbd5d1800	-0.053977966
111	0x3d6b0a64	0.057382956
112	0x3c59e43d	0.013299045
113	0x3d35ef06	0.044417404
114	0xbcdff6af	-0.027339308
115	0x3d8c1551	0.06840003
116	0x3e06086e	0.13089153
117	0xbd17f41e	-0.037098043
118	0xbe371c38	-0.17881858
119	0xbe0ccb3c	-0.13749403
120	0x3d8090df	0.06277632
121	0x3d833eb8	0.06408447
122	0x3de24a61	0.11049343
123	0xbd34304b	-0.04399137
124	0xbe654476	-0.22389397
125	0xbb87436b	-0.00412791
126	0xbd8aedc8	-0.067836344
127	0x3c6477ab	0.013944547
128	0xbb469801	-0.0030303004
129	0x3e4120fd	0.1886024
130	0xbb96b3cf	-0.0045990716
131	0xbc489ed2	-0.012244897
132	0x3c14b7e8	0.00907705
133	0xbe13b17a	-0.1442317
134	0xbe744998	-0.23856199
135	0x3dd38089	0.103272505
136	0xbda3a574	-0.07990542
137	0xbf0ee6d9	-0.55820996
138	0x3d507ba1	0.05089915
139	0xbd72382d	-0.059135605
140	0xbdb58d3a	-0.088648275
141	0xbe391a40	-0.1807642
142	0x3ce52665	0.02797241
143	0xbe6fdb02	-0.23423389
144	0x3d8cf7b1	0.06883181
145	0x3d697714	0.056998327
146	0xbdd21fca	-0.102599695
147	0xbd9ad738	-0.07560581
148	0xbc333e25	-0.010940109
149	0xbced36b4	-0.028956749
150	0x3c35e407	0.011101729
151	0xbde0fc77	-0.10985654
152	0xbe879d78	-0.26487327
153	0xbd5b769f	-0.053579923
154	0x3dc40cf8	0.09572786
155	0x3eeae92e	0.45881027
156	0x3d144355	0.036197025
157	0xbdb9b5e2	-0.090678945
158	0x3d00d39e	0.031451814
159	0xbdc7df13	-0.09759345
160	0xbd5508e8	-0.052010447
161	0xbd836186	-0.064150855
162	0xbe2c72ab	-0.16840617
163	0xbd7890c8	-0.06068495
164	0x3d28d199	0.041215513
165	0x3da8b3e4	0.082374364
166	0x3df7f6df	0.12107634
167	0xbd50741e	-0.050891988
168	0x3db58b97	0.08864515
169	0xbd3437d4	-0.043998554
170	0xbdb9fe9d	-0.09081767
171	0x3da7195f	0.08159136
172	0x3be2ef3b	0.006925491
173	0x3e87f2fa	0.26552564
174	0xbaf7cf49	-0.001890638
175	0x3e09cc99	0.13456954
176	0xbe408976	-0.18802437
177	0x3e890c92	0.26767403
178	0x3e8f8626	0.28032035
179	0x3db0971b	0.08622571
180	0x3de4840f	0.11158001
181	0xbdc3fc0c	-0.095695585
182	0xbe3f2ecd	-0.18670197
183	0x3e3a3d73	0.18187504
184	0xbc8e53b5	-0.017373899
185	0xbe366f48	-0.17815888
186	0xbca099c6	-0.019604575
187	0x3d78b547	0.060719755
188	0x3d50b632	0.050955005
189	0x3d981398	0.07425612
190	0x3c8f197d	0.017468208
191	0xbec8c97f	-0.3921623
192	0xbe2436a1	-0.16036464
193	0xbe4082f2	-0.18799952
194	0x3d05d61c	0.032674894
195	0xbe374b13	-0.17899732
196	0x3d11482d	0.035469223
197	0x3d58e1a5	0.052949566
198	0xbe8b19c6	-0.271681
199	0xbe85671e	-0.26055235
200	0xbdce198e	-0.10063468
201	0x3e7cef4a	0.24700657
202	0xbe4bff1f	-0.1992154
203	0x3dabbfeb	0.08386215
204	0x3ca543b0	0.020173877
205	0xbbd47799	-0.0064839837
206	0xbc907564	-0.017634101
207	0x3e46d137	0.19415747
208	0xbdfd63fd	-0.12372587
209	0x3c8c9126	0.017159056
210	0x3d83f871	0.06443871
211	0xbe68c973	-0.22733097
212	0x3be0aebc	0.0068567675
213	0xbd8a0830	-0.06739843
214	0xbd4ad24b	-0.049516957
215	0xbd869d56	-0.06572978
216	0xbd833692	-0.06406893
217	0xbcc5d41d	-0.024148995
218	0xbe7aa409	-0.24476637
219	0xbebe4c6d	-0.37167683
220	0xbda6d14a	-0.081453875
221	0x3d2314b5	0.03981467
222	0xbdaed27d	-0.08536241
223	0x3cb3cc0a	0.02194788
224	0xbeb1597d	-0.34638587
225	0xbe2bac55	-0.16764958
226	0x3d154bd3	0.036449265
227	0xbd580eec	-0.052748606
228	0x3cc991a2	0.024605576
229	0x3cdc4168	0.026886657
230	0x3d2181c6	0.039430402
231	0xbd46dae9	-0.048548613
232	0x3e59444b	0.21217458
233	0xbd07cb60	-0.033152938
234	0xbd1f4174	-0.03888078
235	0xbf197552	-0.5994464
236	0xbc8fa5db	-0.01753514
237	0xbe4c1c59	-0.19932689
238	0xbd93f046	-0.07223563
239	0xbe1bbf08	-0.15209591
240	0x3dbe3dc4	0.092891246
241	0x3e0767aa	0.13223138
242	0x3d933ae8	0.0718897
243	0x3ccfb3ed	0.02535435
244	0xbe759b1c	-0.23984951
245	0xbd43746b	-0.047718447
246	0xbc4d467b	-0.012529011
247	0x3da3931c	0.07987043
248	0x3b031e76	0.002000717
249	0x3d73e553	0.059544872
250	0x3bdbbdb0	0.006705962
251	0xbe1bdf0b	-0.15221803
252	0xbe550b44	-0.20805079
253	0xbda895b1	-0.08231676
254	0x3d6ddb1d	0.05807029
255	0xbda2ca83	-0.07948782

arith.constant2 f4 [128, 256]
0	0x3d32a4e9	0.0436143
1	0xbde33b1b	-0.11095258
2	0x3b8b390d	0.0042487443
3	0xbcebc1dd	-0.028778965
4	0xbcd7d05a	-0.026344467
5	0x3d1d4d85	0.038404007
6	0x3d3c7970	0.04601425
7	0x3cc4969b	0.023997596
8	0x3d794c5d	0.06086384
9	0x3b1167d5	0.0022187133
10	0x3c93dc1a	0.018049289
11	0x3d16ed5d	0.03684746
12	0x3d21367b	0.039358597
13	0x3da0905d	0.07840035
14	0x3d90ae34	0.070644766
15	0x3df031f0	0.11728275
16	0xbbe7ff41	-0.007079989
17	0x3d0a1c54	0.033718422
18	0xb93a2b6d	-0.0001775452
19	0xbd936f7d	-0.07198999
20	0xbd1aed04	-0.037823692
21	0x3cd4cb08	0.02597572
22	0x3d80a3d1	0.062812455
23	0x3d8102a0	0.06299329
24	0x3dbdbb6e	0.09264265
25	0x3d0c826b	0.034304064
26	0x3d315f2f	0.043303665
27	0xbd732d40	-0.059369326
28	0x3d691c0c	0.056911513
29	0x3d163525	0.036671776
30	0x3c960bc9	0.018316166
31	0x3ccb47a2	0.02481443
32	0x3d85b7dc	0.06529209
33	0x3dcc5e1c	0.099788874
34	0xbbfa0f83	-0.0076312437
35	0xbd734a4f	-0.059397038
36	0x3d8cb3b2	0.06870212
37	0x3e791c1f	0.24327134
38	0x3c89a632	0.01680288
39	0xbd5581fb	-0.052125912
40	0x3d6041c5	0.054750223
41	0xbd0c8f45	-0.03431632
42	0xbd121582	-0.035665043
43	0xbd0a5155	-0.03376897
44	0x3d5dfb7e	0.05419492
45	0xbd37e0dc	-0.044892177
46	0xbc427173	-0.011867869
47	0x3cfd66cc	0.030932806
48	0xbda99459	-0.08280248
49	0xbd8b5ea8	-0.068051636
50	0xbcf480ea	-0.029846627
51	0xbe5c1db7	-0.2149571
52	0x3da41f81	0.080138214
53	0x3c9b0403	0.018922811
54	0xbd119b10	-0.03554827
55	0xbc5b9784	-0.013402823
56	0xbd23e555	-0.04001363
57	0xbd8eb688	-0.06968409
58	0x3b85f6a4	0.0040882397
59	0xbd132d87	-0.03593209
60	0xbe16f990	-0.14743638
61	0x3ccd581a	0.025066424
62	0xba5dda8b	-0.00084630464
63	0x3c88b862	0.016689483
64	0x3c9edc84	0.01939226
65	0xbd64ce33	-0.05586071
66	0xbd5098ce	-0.050926976
67	0xbd970cc0	-0.07375479
68	0xbdef553e	-0.116861805
69	0x3d87f2fd	0.06638143
70	0xbc046888	-0.008081563
71	0x3d9906bc	0.074719876
72	0xbd1f6683	-0.038916122
73	0xbd815e51	-0.063168176
74	0xbd8c987c	-0.068650216
75	0xbd548e47	-0.0518935
76	0x3bae00ee	0.0053101694
77	0xb9405f5d	-0.00018346072
78	0x3ca05264	0.019570537
79	0x3b2d68fa	0.0026460276
80	0x3d29073a	0.041266657
81	0xbbe507c3	-0.0069894507
82	0xbd797238	-0.060899943
83	0x3dc3ecb2	0.095666304
84	0x3c890df5	0.016730288
85	0x3d6bbd5c	0.057553634
86	0x3d34b9cb	0.0441225
87	0x3bef49b5	0.0073024877
88	0x3de16c5f	0.11006998
89	0x3d5946aa	0.053045906
90	0xbce185b9	-0.027529584
91	0x3cfe6989	0.031056182
92	0x3e0705fa	0.13185874
93	0xbccc93f3	-0.024972891
94	0x3d8fb648	0.07017189
95	0x3cf4e181	0.029892685
96	0xbbe16664	-0.006878661
97	0x3d3006d0	0.042975247
98	0xbd0665e4	-0.032812014
99	0x3d71082b	0.05884568
100	0x3d3a2bc1	0.045451883
101	0x3bbcec82	0.0057654986
102	0x3d6dbf8f	0.058044013
103	0x3d3b7ee0	0.045775294
104	0x3c7bd23a	0.015369946
105	0x3d2a1e63	0.041532885
106	0xbd621692	-0.055197306
107	0x3cad0a04	0.02112294
108	0x3d0249f6	0.031808816
109	0xbc0d5c28	-0.008627929
110	0x3bf4b633	0.007468009
111	0x3b2204b0	0.0024722032
112	0xbd52c6d6	-0.051459156
113	0x3d66b016	0.056320272
114	0x3d94b917	0.072618656
115	0xbcd42de2	-0.025900785
116	0x3d50a86a	0.050941862
117	0x3ca17b53	0.019712126
118	0x3cc95905	0.02457858
119	0x3dad5ab1	0.08464564
120	0x3bdb689b	0.0066958196
121	0x3d5370fd	0.051621426
122	0x3c618404	0.013764385
123	0xbd7e19a7	-0.062036183
124	0x3ce76ac4	0.028249152
125	0x3cea5734	0.028606035
126	0x3dc35593	0.09537806
127	0xbe1e0f09	-0.15435423
128	0x3d456f69	0.048201952
129	0xb9cd749a	-0.00039187522
130	0x3da3716f	0.0798062
131	0xbd27e58d	-0.0409904
132	0xbc7cff58	-0.015441738
133	0x3cee75e2	0.029108945
134	0x3d84588f	0.06462204
135	0x3d17b452	0.0370372
136	0x3c82d854	0.015972294
137	0x39fd0051	0.00048256156
138	0x3c89e2a5	0.016831705
139	0x3d378ec7	0.044813897
140	0xbd4202e1	-0.047366027
141	0xbd0f3e1d	-0.034971345
142	0xbe3c16d6	-0.18368086
143	0x3b8fa6fa	0.004383919
144	0xbd3ca4f8	-0.046055764
145	0x3d420ffb	0.04737852
146	0x3bce4607	0.006294969
147	0x3dd8bace	0.10582505
148	0xba974ecd	-0.001154387
149	0x3cc5bb8b	0.024137279
150	0x3cb1fea6	0.021727871
151	0x3ddb93f9	0.10721583
152	0xbdbaf2ef	-0.09128367
153	0xbb80ed62	-0.0039345482
154	0x3d00b1b6	0.03141948
155	0xbe63e639	-0.22255792
156	0x3d4c444e	0.049869828
157	0x3c3d9ab2	0.011572527
158	0xbd4b0e9e	-0.049574487
159	0x3c681d39	0.0141671235
160	0xbd26d0cb	-0.040726464
161	0x3d2d1a07	0.04226115
162	0x3d18b8e1	0.03728569
163	0xbd0f13f5	-0.034931142
164	0xbcab82a4	-0.020936318
165	0xbdd2bc76	-0.10289852
166	0xbc6881e3	-0.014191124
167	0x3cf667cd	0.030078793
168	0xbcf92f81	-0.03041816
169	0xbc128b65	-0.008944367
170	0x3d0206d0	0.03174478
171	0x3b87d6d8	0.0041454844
172	0xbc0de26e	-0.008659942
173	0xbdb020b5	-0.08599988
174	0x3ba6e12b	0.00509276
175	0xbd58dd60	-0.052945495
176	0x3c3946e9	0.01130841
177	0x3d582ae7	0.05277529
178	0xbce04b7b	-0.027379742
179	0xbc4ce0a5	-0.012504731
180	0x3df0be5a	0.11755057
181	0x3d29bd17	0.041440096
182	0xbcb8d58b	-0.022562763
183	0xbd8c59d7	-0.06853073
184	0x3ce3c81a	0.027805377
185	0x3ba7c407	0.005119804
186	0x3c8c8cd7	0.017157001
187	0xbd7eec87	-0.06223729
188	0xbd14410d	-0.03619485
189	0x3d27bbe5	0.040950675
190	0xbe0899eb	-0.13339965
191	0x3c9fcf47	0.019508017
192	0xbe324d11	-0.17412211
193	0x3d30f2e5	0.043200392
194	0x3ca43e7e	0.02004933
195	0x3c397530	0.011319444
196	0x3d336cc0	0.043804884
197	0x3bc2e62c	0.005947849
198	0x3c22baae	0.009932203
199	0x3dcb0e49	0.09914834
200	0x3d559290	0.052141726
201	0xbd2fe055	-0.04293855
202	0x3c1bee37	0.009517244
203	0x3d15614d	0.036469746
204	0x3d047398	0.0323368
205	0x3d8be6b8	0.068311155
206	0xbc720298	-0.014771126
207	0x3d1ced23	0.03831209
208	0xbc6d51f1	-0.014484868
209	0x3cbab6fa	0.022792328
210	0xbc8e25d4	-0.017352022
211	0x3cde145f	0.027109323
212	0x3d985ae8	0.07439214
213	0x3da3dd8a	0.080012396
214	0x3c91d44c	0.017801426
215	0xbd88cb33	-0.06679382
216	0xbd53ec7f	-0.051739212
217	0x3c584655	0.013200362
218	0xbd4d837d	-0.050174225
219	0x3d9fc0db	0.07800456
220	0xbd7a5a88	-0.061121494
221	0x3c4edd65	0.012626027
222	0xbd6bd54c	-0.057576463
223	0xbcca785b	-0.024715593
224	0x3b82982a	0.0039854245
225	0x3b8a5249	0.004221235
226	0xbd8dd3dd	-0.06925175
227	0x3ded2ff4	0.11581412
228	0xbd90bd03	-0.07067301
229	0x3cfa5b6d	0.030561173
230	0x3dd0dffc	0.10198972
231	0x3c9acca2	0.018896405
232	0x3c08ad55	0.008342107
233	0x3cd07c0e	0.025449779
234	0x3bbdeec1	0.005796284
235	0x3d51523e	0.051103823
236	0xbda15481	-0.07877446
237	0x3d49caec	0.049265787
238	0xbd910fde	-0.070831046
239	0xbdaec921	-0.08534456
240	0xbd13e41f	-0.036106225
241	0x3da0ffff	0.078613274
242	0x3876c843	5.883748e-05
243	0xbc2f8059	-0.010711753
244	0x3d2b4e59	0.041822765
245	0x3c78f2f0	0.01519464
246	0x3bfa3a36	0.007636334
247	0x3d71fe10	0.059080184
248	0xbc6772e7	-0.014126516
249	0xbe1f4308	-0.15552914
250	0x3ce42482	0.02784944
251	0x3d14a274	0.03628774
252	0x3d72db95	0.05929144
253	0x3d706ba2	0.058696397
254	0x3b8fa32a	0.0043834643
255	0xbcec4357	-0.028840704

arith.constant3 f4 [256, 128]
0	0x3d0cbf33	0.03436203
1	0xbdd9e789	-0.10639865
2	0x3ddc4825	0.10755948
3	0x3def5552	0.116861954
4	0xbc6f82ff	-0.014618634
5	0x3d878079	0.06616301
6	0x3d5f4c36	0.05451604
7	0xbd4ff69c	-0.050772294
8	0x3d35f43d	0.044422377
9	0x3cfbb129	0.030724125
10	0x3cc6dd34	0.0242754
11	0x3bd10fa0	0.0063800365
12	0xbd31a279	-0.043367837
13	0x3e0a19ef	0.13486455
14	0xbd98ea5f	-0.07466578
15	0xbd353412	-0.04423911
16	0xbcd13330	-0.025537103
17	0xbd6e121a	-0.05812273
18	0x3d2c00f3	0.041993093
19	0xbc64fa25	-0.013975655
20	0xbd451a55	-0.048120815
21	0xbda4e4c1	-0.08051444
22	0x3da6269c	0.08112833
23	0x3d17cf35	0.037062842
24	0xbddf5caa	-0.10906346
25	0x3d5aa4a6	0.053379677
26	0x3b71c621	0.0036891776
27	0x3de7009c	0.11279413
28	0xbd7ecf80	-0.062209606
29	0xbd4f7783	-0.050651085
30	0xbd12f980	-0.035882473
31	0x3b98d8bf	0.00466451
32	0xbbb1d56a	-0.0054270523
33	0x3c6ae20f	0.014336123
34	0x3dd96564	0.10615042
35	0xbd1d71f6	-0.03843876
36	0xbe067dfe	-0.13134
37	0x3d6b5e9d	0.057463277
38	0xbdfd5e29	-0.12371475
39	0x3d8fac17	0.070152454
40	0x3b5ec135	0.0033989672
41	0x3c5fdd64	0.0136636235
42	0x3d9c7b4f	0.07640707
43	0x3d6adbd7	0.057338562
44	0xbd8ff24f	-0.070286386
45	0x3e177062	0.14788964
46	0xbd02fc00	-0.031978607
47	0xbdc7e23b	-0.09759947
48	0x3d45a109	0.04824928
49	0x3d5c3e05	0.053770084
50	0x3d8ec4ef	0.06971156
51	0xbc416b0a	-0.011805305
52	0xbce0a48b	-0.02742221
53	0xbc98c967	-0.018650724
54	0x3c8da3eb	0.017290076
55	0xbdf03939	-0.11729664
56	0x3da278c0	0.079331875
57	0xbd4010da	-0.04689107
58	0x3de4edcc	0.11178169
59	0x3d8d48b6	0.06898634
60	0xbca9b4f4	-0.020716168
61	0x3d3a6010	0.04550177
62	0xbd52a67a	-0.051428296
63	0xbd7f800b	-0.06237797
64	0xbd568cf3	-0.052380513
65	0xbba51796	-0.005038212
66	0x3c7993c2	0.015232982
67	0x3c814a49	0.015782492
68	0x3db0a016	0.08624284
69	0xbd199302	-0.037493713
70	0xbc9fb0de	-0.019493517
71	0xbd18b620	-0.037283063
72	0x3ceaea0a	0.028676052
73	0x3d9dbcba	0.07702012
74	0x3d7d25ee	0.06180375
75	0x3cce7e92	0.025206838
76	0xbda007be	-0.07813977
77	0x3d95c1f1	0.07312382
78	0x3cd49815	0.025951425
79	0x3d95ed26	0.07320623
80	0x3c049d02	0.008094074
81	0x3dce320f	0.10068142
82	0x3dd05c73	0.10173883
83	0xbdaa6106	-0.08319287
84	0xbda68dc0	-0.081325054
85	0xbd215eca	-0.03939704
86	0x3c9c7217	0.019097371
87	0xbcb7b490	-0.022424966
88	0x3d8ddcd3	0.069268845
89	0x3c5f469f	0.013627677
90	0xbd6929c5	-0.0569246
91	0xbd6df9d7	-0.058099594
92	0xbd88653c	-0.06659934
93	0xbe1d29ab	-0.15347926
94	0xbdabf3c1	-0.08396102
95	0xbdf67c81	-0.12035466
96	0x3d84f474	0.06491938
97	0xbc1d945a	-0.009617889
98	0x3cd213e5	0.025644252
99	0x3dddb1ef	0.10824954
100	0x3dd27df1	0.10277928
101	0xbbfb686b	-0.0076723597
102	0xba0b521e	-0.00053146656
103	0xbca2787a	-0.019832838
104	0x3d904daf	0.07046067
105	0xbd38bc16	-0.045101248
106	0x3b9c94c0	0.0047784746
107	0x3cd46d9e	0.025931176
108	0xbbcdf467	-0.0062852385
109	0xbe0549cf	-0.13016437
110	0xbd92abd7	-0.07161682
111	0x3e176550	0.14784741
112	0xbd00adf5	-0.0314159
113	0xbd855764	-0.06510809
114	0x3d174b3e	0.03693699
115	0x3b90a048	0.0044136383
116	0x3d317030	0.04331988
117	0x3c6e245f	0.014535039
118	0x3cf8dd64	0.030379005
119	0x3cadf0b0	0.021232933
120	0xbd8acb48	-0.06777054
121	0x3da81578	0.0820722
122	0xbcaba146	-0.020950925
123	0x3cc0c4d0	0.023531348
124	0xbd0ebfc8	-0.034850866
125	0xbcfe9f2d	-0.03108176
126	0xbcf38acb	-0.029729268
127	0xbcdb8384	-0.02679611
128	0x3d0b9c44	0.034084573
129	0xba5246dd	-0.0008021424
130	0xbd84e2a9	-0.064885445
131	0x3da3bfbc	0.07995555
132	0xbe30b46a	-0.17256323
133	0xbe0f8a06	-0.14017496
134	0xbd373c79	-0.044735406
135	0x3e17a12b	0.14807574
136	0xba846939	-0.001010216
137	0x3dd5fe97	0.1044895
138	0x3c083333	0.008312988
139	0xbe53a2af	-0.20667528
140	0x3dad4b75	0.08461658
141	0x3d8fcc8b	0.07021435
142	0xbe1373f2	-0.14399698
143	0xbdd0494a	-0.10170229
144	0xbd26c32c	-0.040713474
145	0x3dca8def	0.09890353
146	0xbd88b98a	-0.06676014
147	0x3d42f144	0.04759337
148	0xbe127769	-0.14303364
149	0x3e268949	0.16263308
150	0x3d82abd3	0.06380429
151	0x3d82d11d	0.063875414
152	0x3d436351	0.047702137
153	0x3dc43161	0.09579731
154	0xbc87626d	-0.016526425
155	0xbdc55281	-0.09634877
156	0xbd8bbdaf	-0.06823289
157	0x3d00d1be	0.031450026
158	0xbd9db844	-0.077011615
159	0x3ce0c5e8	0.027438119
160	0xbacebee4	-0.0015773443
161	0xbcb846f4	-0.02249477
162	0xb9202591	-0.00015272784
163	0x3dedc0f3	0.11609068
164	0x3e245196	0.16046748
165	0xbcfab51a	-0.030603934
166	0xbc00cf7a	-0.007861966
167	0xbd7ac4b5	-0.06122275
168	0xbd8f3699	-0.069928356
169	0xbde8281b	-0.113357745
170	0xbd939101	-0.07205392
171	0x3d8ddd3a	0.06926961
172	0x3e55e669	0.20888676
173	0xbd260830	-0.040535152
174	0xbd7d10af	-0.06178349
175	0x3db67b6a	0.08910258
176	0xbd6242a7	-0.055239346
177	0xbe394b54	-0.18095142
178	0x3d9f50e9	0.07779104
179	0x3d211a78	0.039331883
180	0xbd130614	-0.03589447
181	0xbd814091	-0.06311143
182	0x3da5657b	0.080759965
183	0x3d7d1c5a	0.061794616
184	0x3e8e6b76	0.2781636
185	0xbd85bec4	-0.06530526
186	0xbe13fbab	-0.14451472
187	0x3cec77b6	0.028865676
188	0x3e1ed7cf	0.15512012
189	0xbdecfe39	-0.115719266
190	0x3cc34151	0.023834856
191	0xbb7cd95d	-0.0038581707
192	0x3c07c5d2	0.00828691
193	0x3dfc0f51	0.12307609
194	0x3d5591bd	0.05214094
195	0x3d0a4369	0.033755694
196	0xbd734264	-0.059389487
197	0x3e44e199	0.19226684
198	0x3d66d3e2	0.05635441
199	0x3df0c03f	0.11755418
200	0xbc23c742	-0.009996237
201	0xbd7894c6	-0.060688756
202	0xbd996c3e	-0.07491349
203	0x3a22119c	0.00061824336
204	0xbde5f19e	-0.112277254
205	0xbd9e3af4	-0.07726088
206	0x3d9a84c4	0.07544854
207	0x3d722cd9	0.0591248
208	0x3e3fbca5	0.18724306
209	0xbe62a2db	-0.22132437
210	0xbd8e4a6c	-0.069477886
211	0x3e2f911c	0.17145199
212	0x3db9f848	0.09080559
213	0xbd1484e0	-0.036259532
214	0xbd569a96	-0.05239352
215	0x3dd5073a	0.10401769
216	0x3d384eae	0.04499691
217	0x3ca1f041	0.019767882
218	0xbd63eb75	-0.05564447
219	0xbd4dbcb7	-0.0502288
220	0xbe2b0822	-0.16702321
221	0x3e1ed346	0.15510282
222	0x3e7c0b94	0.24613792
223	0x3e0b210b	0.13586824
224	0xbd864d69	-0.065577336
225	0x3e5545c6	0.20827398
226	0xbe505f02	-0.20348743
227	0x3d69f0e8	0.05711451
228	0xbd3aa3a3	-0.045566212
229	0xbdf3cd8a	-0.11904438
230	0x3c09f901	0.008421184
231	0x3c0cddb3	0.008597779
232	0xbdbad151	-0.09121955
233	0xbd9b7455	-0.07590548
234	0xbdd2489f	-0.102677576
235	0xbe1a1e48	-0.15050614
236	0xbd4a7a4d	-0.04943304
237	0x3e05d408	0.13069165
238	0x3e04af47	0.12957488
239	0xbd8ef216	-0.06979768
240	0x3cd327e4	0.025775857
241	0x3d10eb2a	0.03538052
242	0xba1c5f25	-0.00059651054
243	0xbd6acfca	-0.05732707
244	0xbe7137f2	-0.23556498
245	0xbcc6e815	-0.024280587
246	0x3ceb12fe	0.02869558
247	0x3b130819	0.0022435247
248	0xbcc22faf	-0.023704378
249	0xbe009265	-0.12555845
250	0x3d777105	0.06041052
251	0x3d55b623	0.052175652
252	0xbd877830	-0.06614721
253	0x3e283b85	0.16428955
254	0x3d8f5bdf	0.06999945
255	0xbe0d8d18	-0.13823354

arith.constant4 f4 [128]
0	0x3c66062a	0.014039556
1	0x3cdb58e5	0.026775787
2	0x3c6b576b	0.014364104
3	0x3c1db2a3	0.00962511
4	0x3dc06872	0.09394921
5	0x3bce7aba	0.0063012512
6	0xbd94b6ed	-0.07261453
7	0x3b4ecf51	0.0031556676
8	0x3c1def0c	0.009639513
9	0xbc9c8e9f	-0.019110976
10	0xbcbbcee2	-0.022925798
11	0xbbc24f5f	-0.005929872
12	0x3c446561	0.011987061
13	0x3c6f1c4a	0.014594147
14	0x3db0c88c	0.08632001
15	0xbc7274ea	-0.014798382
16	0xbd8f60a1	-0.070008524
17	0x3d8d8774	0.06910601
18	0xbba392ea	-0.0049918788
19	0xbd318654	-0.043340996
20	0x3dd29957	0.102831535
21	0x3c81d392	0.015847955
22	0xbd1bc05d	-0.03802525
23	0xbcea4bf9	-0.02860068
24	0xbc9336d6	-0.017970484
25	0x3d7a5db4	0.06112452
26	0x3b41fc36	0.0029599792
27	0xbd5d7bcd	-0.054073144
28	0xbd555e6f	-0.052092012
29	0xbd446b31	-0.04795379
30	0xbc3b7252	-0.01144083
31	0x3d3a6d44	0.04551436
32	0x3d31420c	0.043275878
33	0x3d93e0bf	0.07220601
34	0xbb07bbb4	-0.0020711245
35	0x3d439a10	0.047754347
36	0x3c92e8e1	0.017933311
37	0xbb625c00	-0.00345397
38	0x3c329127	0.010898865
39	0x3d466e3d	0.048444975
40	0xbc7764bc	-0.015099701
41	0xbd61e335	-0.055148322
42	0x3ce648e0	0.028110921
43	0xbb3142b0	-0.0027047805
44	0x3c460561	0.012086243
45	0xbd142322	-0.036166318
46	0xbba8eb9f	-0.0051550413
47	0x3c31d068	0.010852911
48	0xbb8de0e2	-0.0043297866
49	0x3d839609	0.06425101
50	0x3c94b9de	0.018155035
51	0xbc4fee85	-0.012691145
52	0xbd8a8bd2	-0.0676495
53	0x3c938c58	0.018011257
54	0xbd21b5a7	-0.039479878
55	0xbd418c3a	-0.04725287
56	0x3d5ddede	0.05416762
57	0xbab6af7f	-0.00139378
58	0x3cb1ecad	0.021719301
59	0xbd34bc09	-0.044124637
60	0xbc540065	-0.012939547
61	0xbc9fc120	-0.019501269
62	0xbd302d68	-0.043012053
63	0xbd214254	-0.039369896
64	0xbc9dd115	-0.019264737
65	0x3c9163bd	0.017747754
66	0x3d59b6eb	0.05315296
67	0x3c9f51c0	0.019448161
68	0x3cc44009	0.023956316
69	0xbc4865b1	-0.012231276
70	0xbc38227d	-0.011238691
71	0x3d271bb1	0.040797893
72	0x3d0bad4c	0.034100816
73	0xbc18a6a2	-0.009317072
74	0x3c5d605d	0.013511744
75	0xbd32db88	-0.043666393
76	0xbc94a51c	-0.018145137
77	0x3b51d341	0.0032016786
78	0x3cb65487	0.022257103
79	0x3b9168e8	0.0044375546
80	0x3bbc96f0	0.005755298
81	0xbdc59abb	-0.09648653
82	0x3d378e6c	0.04481356
83	0x3d56ef96	0.05247458
84	0x3d7702b4	0.060305312
85	0xbd3f4b24	-0.04670252
86	0xbc91d4d0	-0.017801672
87	0xbd13e76b	-0.03610937
88	0xbca92614	-0.02064804
89	0x3be48155	0.0069734254
90	0x3b135b15	0.002248471
91	0xbc5aa89d	-0.013345865
92	0xbd04685a	-0.03232608
93	0x3db06646	0.08613257
94	0xbd4361fc	-0.047700867
95	0x3d082579	0.03323886
96	0xbc0d5af9	-0.008627647
97	0x3cf567ff	0.029956816
98	0x3d7cb27c	0.061693653
99	0x3d9dd68d	0.07706938
100	0x3d94572c	0.07243189
101	0x3cb1b00b	0.02169039
102	0xbcd1c1a5	-0.025605032
103	0xbbbf1e86	-0.005832496
104	0x3c902771	0.017596932
105	0x3b9bc163	0.004753278
106	0x3cbf2471	0.023332806
107	0xbcb22386	-0.021745455
108	0x3be77c97	0.007064413
109	0xbd9dfa9b	-0.07713815
110	0x3beefff1	0.007293694
111	0x3c947ceb	0.018125972
112	0x3bfd251b	0.0077253706
113	0xbd6a2847	-0.057167318
114	0xbcad2ca9	-0.02113946
115	0xbc92acbe	-0.017904636
116	0x3c8c7d4b	0.017149588
117	0xbb4ff8b3	-0.003173393
118	0x3ba126ef	0.0049179713
119	0xbd316773	-0.043311547
120	0x3de79ab5	0.11308805
121	0xbd704cd6	-0.058667026
122	0x3d42f00c	0.047592208
123	0xbd11e2c5	-0.035616655
124	0xbc16a8c4	-0.00919551
125	0x3d746d9a	0.059674837
126	0xbd588511	-0.052861277
127	0xbbb005fe	-0.005371808

arith.constant5 f4 [64]
0	0xbd99cdfb	-0.07509991
1	0xbca4e13c	-0.020126931
2	0x3d085711	0.033286158
3	0xbd4d0299	-0.050051305
4	0xbcce1c2f	-0.025159923
5	0xbc1e350d	-0.009656203
6	0xbd59d3c7	-0.053180482
7	0x3d5c3c2c	0.053768322
8	0xbd916627	-0.07099562
9	0x3d8b3559	0.06797285
10	0x3da36e11	0.07979978
11	0xbc44ccc7	-0.012011713
12	0x3d8911c6	0.06692843
13	0xbe0aad9a	-0.13542786
14	0xbd14a068	-0.036285788
15	0xbb9d1ed6	-0.0047949357
16	0xbbfbc23f	-0.007683068
17	0xbd5fcf59	-0.0546411
18	0x3d17a851	0.037025753
19	0xbd319b70	-0.043361127
20	0xbc295f37	-0.010337642
21	0xbd5144c3	-0.051090967
22	0x3c561d44	0.013068501
23	0xbd53b104	-0.051682487
24	0xbd4dbc5a	-0.050228454
25	0x3c2e1e2c	0.010627311
26	0x3c8e50c9	0.017372506
27	0xbda4ae5d	-0.0804107
28	0x3dcd03b9	0.10010476
29	0xbc21d8f3	-0.009878385
30	0x3bc0b1ff	0.005880594
31	0xbd0a08c4	-0.033699766
32	0x3d4fd0ae	0.05073612
33	0xbd4d1a08	-0.050073653
34	0x3d271e7e	0.040800564
35	0xbd0b0f3e	-0.033950083
36	0x3d55348a	0.05205206
37	0xbceac131	-0.028656574
38	0xbd348341	-0.044070486
39	0x3d042172	0.03225846
40	0xbd119ae7	-0.035548117
41	0xbd3176e4	-0.043326274
42	0x3cb570e1	0.022148551
43	0xbde0559a	-0.10953827
44	0xbd774c76	-0.060375653
45	0x3d742fb0	0.05961579
46	0x3dad62f9	0.08466143
47	0x3d1724d0	0.03690034
48	0x3d3133a0	0.043262124
49	0xbd47b3c2	-0.048755415
50	0xbd5de568	-0.054173857
51	0xbc8439a3	-0.016140765
52	0x3d3dc2ff	0.04632854
53	0x3d17d367	0.037066843
54	0xbd864df4	-0.06557837
55	0x3cd57ba7	0.026059939
56	0x3b4b922f	0.0031062474
57	0x3cacb2be	0.021081325
58	0xbbfd9dfc	-0.0077397805
59	0xbc8c5aef	-0.017133204
60	0x39f69bf8	0.00047036982
61	0xbd81b2d5	-0.06332938
62	0x3e0226b8	0.12710083
63	0xbb00f1f4	-0.0019675465

arith.constant6 f4 [32]
0	0x3e499a1a	0.19687691
1	0xbcf16414	-0.029466666
2	0x3e0faebd	0.14031501
3	0xbcd0218c	-0.025406621
4	0xbe964fc6	-0.29357737
5	0xbdb5675a	-0.08857603
6	0x3c409f4a	0.0117567275
7	0xbda8f592	-0.08249964
8	0xbd710455	-0.058842022
9	0x3b446949	0.0029969981
10	0xbc217c3f	-0.009856283
11	0xbdd0cdee	-0.10195528
12	0x3e16e848	0.14737046
13	0xbd88e4bc	-0.066842526
14	0xbc06ee90	-0.008235589
15	0x3dc1b492	0.09458269
16	0xbe326038	-0.17419517
17	0x3e1aa3df	0.15101574
18	0xbb185389	-0.002324315
19	0x3dbbfa76	0.09178631
20	0xbd4d3331	-0.050097648
21	0xbc1cb5c0	-0.009564817
22	0x3e9abb6f	0.30221125
23	0x3db0055a	0.08594771
24	0xbd56fa2a	-0.05248467
25	0x3d8ac15e	0.06775163
26	0x3ec92b8d	0.3929104
27	0x3e69e3cc	0.22840804
28	0x3e4215a2	0.18953565
29	0x3e8001a7	0.2500126
30	0xbcf93b90	-0.03042391
31	0x3e42f423	0.19038443

arith.constant7 f4 [1, 128]
0	0x3d8e1519	0.06937618
1	0xbd3c7402	-0.04600907
2	0xbd0a9bb2	-0.03383989
3	0x3d94a2ae	0.07257591
4	0x3d0bbf34	0.034117892
5	0x3c82af63	0.015952772
6	0x3d31d669	0.043417368
7	0x3dc4e098	0.0961315
8	0xbd8f3281	-0.06992055
9	0x3c0361ac	0.008018892
10	0xbd0705e9	-0.03296462
11	0xbd3eed29	-0.046612892
12	0x3d86bfc3	0.065795444
13	0x3d5930da	0.053025104
14	0x3d186b61	0.03721178
15	0x3d2eb839	0.042656157
16	0xbd2d14cd	-0.042256165
17	0x3c196e3c	0.009364661
18	0x3db26250	0.08710158
19	0xbd6399df	-0.055566665
20	0xbd635052	-0.05549652
21	0xbd76068e	-0.060064845
22	0x3d378207	0.044801738
23	0x3de52e67	0.11190491
24	0x3e0d414f	0.13794445
25	0xbd542898	-0.051796526
26	0x3da46ce7	0.08028584
27	0x3d9c8041	0.0764165
28	0x3de9ec67	0.11422043
29	0x3d538491	0.051640097
30	0x3d220d9e	0.039563768
31	0x3da69411	0.0813371
32	0x3d46d3d2	0.04854185
33	0x3db7b64e	0.08970319
34	0x3dbd429a	0.09241219
35	0x3dc93041	0.09823657
36	0x3e072865	0.13199003
37	0x3e076db3	0.1322544
38	0x3d4bf809	0.04979709
39	0x3d2fe002	0.04293824
40	0x3dbf5027	0.0934146
41	0xbd42851d	-0.047490228
42	0x3c4fb19e	0.012676625
43	0xba471679	-0.0007594596
44	0xbda76916	-0.081743404
45	0x3d6fbc1e	0.058529012
46	0x3d10bb64	0.03533496
47	0xbc101e65	-0.008796309
48	0x3cace6e8	0.021106198
49	0x3d885632	0.066570655
50	0x3d346f19	0.044051263
51	0x3d65ebe3	0.056133162
52	0xbc006a78	-0.007837884
53	0xbc140430	-0.0090342015
54	0x3db14358	0.08655423
55	0x3ded248a	0.11579235
56	0x3d94fb15	0.072744526
57	0x3d5caf77	0.053878274
58	0xbc0e1f33	-0.008674431
59	0x3d064ead	0.032789875
60	0xbdaa38d0	-0.083116174
61	0x3d2d630d	0.04233079
62	0xbdadcf46	-0.084868
63	0x3c3fb53d	0.011700925
64	0x3c91af10	0.017783672
65	0xbd7f951d	-0.062398065
66	0xbd1e0382	-0.038577564
67	0xbd745917	-0.059655275
68	0x3dd0b731	0.10191191
69	0x3dd5fec6	0.10448985
70	0x3d374610	0.04474455
71	0xbbadb511	-0.005301126
72	0xbba2aa0b	-0.0049641184
73	0x3da3f402	0.08005525
74	0x3d0fddc1	0.03512359
75	0xbbe43392	-0.0069641555
76	0x3daa37f7	0.08311456
77	0xbcf704b5	-0.030153612
78	0xbc232593	-0.009957689
79	0x3d839721	0.0642531
80	0x3d994d02	0.07485391
81	0xbd99979b	-0.074996196
82	0x3d94d1e2	0.072665945
83	0x3dbd90a9	0.09256107
84	0xbbc6235e	-0.0060466966
85	0xbd8aa9eb	-0.067706905
86	0xbd2159fb	-0.039392453
87	0xbc1d0caa	-0.009585539
88	0x3d621a66	0.055200957
89	0xbdb7735c	-0.0895755
90	0x3e0333cf	0.12812732
91	0x3d8b6458	0.068062484
92	0x3b25ee32	0.0025318977
93	0xbd318bfb	-0.043346386
94	0x3c40a37d	0.011757729
95	0xbb8fd602	-0.0043895254
96	0x3e0c6f42	0.13714316
97	0x3d81367d	0.06309221
98	0xbb8b9bc7	-0.0042605135
99	0x3ccd8cb1	0.025091501
100	0x3db1d3d6	0.086829826
101	0xbd5588d8	-0.052132457
102	0xbcd2591c	-0.025677256
103	0xbd8be9fa	-0.06831737
104	0xbd8e31a9	-0.06943066
105	0x3d84fdff	0.064937584
106	0xbcd97427	-0.026544644
107	0x39b85a3b	0.00035162442
108	0x3c8f3f5f	0.017486272
109	0xbd9efc52	-0.0776297
110	0xbd743475	-0.05962034
111	0x3c1b5c5c	0.009482469
112	0xbd4fdc77	-0.05074736
113	0x3da1c146	0.07898192
114	0x3d8de1d1	0.06927837
115	0x3d73189a	0.059349634
116	0xbd9a7b12	-0.07543005
117	0xbd1babc9	-0.038005624
118	0xbd0cfd4e	-0.034421258
119	0x3d7dc3b1	0.061954204
120	0xbd0bb9b9	-0.034112666
121	0x3cfba155	0.030716578
122	0x3d25f70d	0.04051881
123	0x3c8124f3	0.01576469
124	0xbcce8320	-0.02520901
125	0xbd7bf6a6	-0.06151452
126	0x3e07052f	0.13185571
127	0xbca9c982	-0.02072597

arith.constant8 f4 [1, 256]
0	0x3c9fb1e4	0.019494005
1	0x3d5bfe17	0.053709116
2	0x3c13ab6c	0.009013038
3	0xbce90945	-0.028446803
4	0x3c074a87	0.008257515
5	0xbdadc241	-0.084843166
6	0x3c22df98	0.009941004
7	0xbd451198	-0.04811248
8	0xbbc6e141	-0.006069333
9	0x3c1258cb	0.008932303
10	0xbd911491	-0.07084001
11	0xbcc4c4d4	-0.024019636
12	0x3d6b4c38	0.057445735
13	0x3def3845	0.116806544
14	0x3d7d12ea	0.061785616
15	0x3c7bc89e	0.015367655
16	0xbbb8778a	-0.0056294845
17	0xbbf36fa8	-0.007429082
18	0x3d940b4c	0.07228717
19	0xbd836025	-0.064148225
20	0x3cc30ec4	0.023810752
21	0xbcc49fd8	-0.024002
22	0x3dda2d5a	0.106531814
23	0x3c6a1402	0.014286997
24	0xbdee572c	-0.116377205
25	0xbccb23b1	-0.024797292
26	0x3df15b31	0.117849715
27	0xbcc74921	-0.024326863
28	0x3deaf624	0.11472729
29	0xbddbb380	-0.10727596
30	0x3de0d749	0.109785624
31	0xbd383ffe	-0.044982903
32	0xbcb18af8	-0.02167271
33	0x3c830c6e	0.015997138
34	0xbcede97a	-0.029041994
35	0x3d5cef5a	0.0539392
36	0xbd5e8746	-0.054328226
37	0x3e2934e5	0.16524084
38	0x3e1ff2ca	0.1561996
39	0x3cf4e8b7	0.029896123
40	0x3dafd9c5	0.08586458
41	0x3d42a658	0.04752192
42	0x3d5c324b	0.0537589
43	0x3bf0f71b	0.007353676
44	0x3d3aa428	0.045566708
45	0x3c49ba1d	0.012312439
46	0xbc835ed9	-0.016036438
47	0xbdc9c33f	-0.09851693
48	0x3d192c67	0.03739586
49	0x3da4476d	0.08021436
50	0x3d50afa7	0.050948765
51	0x3dac32a7	0.08408099
52	0x3d736dc6	0.05943086
53	0x3c75a3ef	0.014992698
54	0xb9f92bd4	-0.00047525635
55	0x3c9d8062	0.019226257
56	0xbd7b8f0e	-0.061415724
57	0xbd96b4ea	-0.07358725
58	0xbd770c40	-0.060314417
59	0xbd0fb37c	-0.03508328
60	0xbcfeccf8	-0.031103596
61	0x3de72cac	0.11287817
62	0xbcdc1824	-0.02686698
63	0xbd08103c	-0.033218607
64	0xbd8576e0	-0.06516814
65	0x3b064ca2	0.0020492454
66	0x3de65ce7	0.112481885
67	0x3c317fe7	0.010833717
68	0x3d167075	0.03672834
69	0x3dc10671	0.09425057
70	0xbc8c9e0d	-0.017165208
71	0x3d950c13	0.072776936
72	0xbd0d3219	-0.034471605
73	0xbb7896eb	-0.003793175
74	0xbc7d3c42	-0.015456261
75	0x3d373f28	0.044737965
76	0xbdaba5c7	-0.08381229
77	0xbd88c40c	-0.06678018
78	0x3da1f700	0.0790844
79	0xbd93d87f	-0.07219028
80	0xbbff6a5c	-0.0077946614
81	0xbdd90785	-0.10597137
82	0xbd932286	-0.07184319
83	0x3e1aeec3	0.15130143
84	0xbd7b4642	-0.0613463
85	0x3da3cc91	0.07998002
86	0x3d88b11c	0.06674406
87	0xbdaaea5f	-0.08345484
88	0x3dfe3de0	0.124141455
89	0xbcf76567	-0.03019972
90	0x3bf76ce3	0.007550822
91	0xbd03823d	-0.032106627
92	0x3e1b0357	0.15137993
93	0x3d72d3fa	0.059284188
94	0xbd3e80ce	-0.046509556
95	0x3dd1ee6e	0.10250555
96	0xbdbba33e	-0.09161995
97	0xbda5563d	-0.08073089
98	0xbd62d81b	-0.055381875
99	0xbcac4452	-0.021028671
100	0x3dc7210c	0.097231
101	0xbd888565	-0.06666068
102	0x3df77835	0.120834745
103	0x3d8dd5b5	0.06925527
104	0xbb00137d	-0.0019542866
105	0x3dedb04c	0.116058916
106	0xbda72bb7	-0.08162635
107	0x3da87796	0.08225934
108	0x3de200b6	0.11035292
109	0x3d5700a8	0.05249086
110	0x3dba075a	0.090834334
111	0x3cb24e89	0.021765964
112	0x3ce22baf	0.02760872
113	0x3df59a88	0.11992365
114	0x3d61d475	0.055134255
115	0xbd56e06a	-0.05246011
116	0x3d88c59a	0.066783145
117	0xbd55d1ae	-0.05220192
118	0x3e053748	0.1300937
119	0x3e0112c0	0.12604809
120	0xbd83cd3d	-0.064356305
121	0x3ce7a873	0.028278565
122	0xbc899d9c	-0.016798787
123	0x3c461e32	0.01209216
124	0x3d67d320	0.05659783
125	0xbd166f6f	-0.036727365
126	0x3db0edcf	0.086391084
127	0x3d7cfca5	0.061764378
128	0xbc9bf1e7	-0.019036246
129	0xbd87cffe	-0.06631468
130	0xbd06c85f	-0.032905933
131	0x3ca6ed13	0.020376718
132	0x3da1eb7d	0.07906244
133	0xbd9837f3	-0.074325465
134	0xbdc10c95	-0.09426228
135	0xbdc9b41f	-0.098488085
136	0x3cc26a17	0.023732228
137	0xbd8fcdeb	-0.070216976
138	0x3b7d9405	0.0038692963
139	0xbd4a2769	-0.04935399
140	0x3d5b8f91	0.053603712
141	0x3c54641b	0.01296332
142	0xbd562c94	-0.052288607
143	0x3c834410	0.016023666
144	0xbd7ed182	-0.06221152
145	0x3c0a179b	0.00842848
146	0xbd9bd57b	-0.076090775
147	0x3da2adf0	0.07943332
148	0x3bf0c90f	0.007348187
149	0x3dc72551	0.097239144
150	0x3caf2e11	0.02138427
151	0xbcc6fb23	-0.024289673
152	0x3d34b521	0.04411805
153	0xbda5d3d3	-0.08097043
154	0x3dc105e2	0.0942495
155	0x3e11ee0e	0.14250967
156	0xbcb4aec2	-0.022055987
157	0xbd7b5a95	-0.061365683
158	0xbdc5bc5d	-0.09655068
159	0x3d0e139a	0.034686662
160	0x3db5a419	0.0886919
161	0x3d7c5379	0.061603043
162	0x3e26570b	0.16244142
163	0xbde3842f	-0.111091964
164	0xbce34b10	-0.027745754
165	0xbcca2bab	-0.024679026
166	0xbc96b396	-0.01839618
167	0xbcf0c4b7	-0.029390676
168	0x3c654e24	0.013995681
169	0xbd1cb392	-0.03825719
170	0xbd30dcb9	-0.043179248
171	0xbd932aff	-0.07185935
172	0x3daa98f7	0.08329957
173	0xbba41d28	-0.0050083585
174	0x3e020501	0.12697221
175	0xbdd1ef9d	-0.10250781
176	0x3dcccd25	0.10000066
177	0x3cbdd8da	0.023174692
178	0x3d03bd38	0.032162875
179	0xbd7a4803	-0.061103832
180	0xbdcafb54	-0.09911218
181	0x3e043380	0.1291027
182	0xbc71df04	-0.014762644
183	0xbdd90280	-0.1059618
184	0xbdb232f2	-0.08701123
185	0x3d7b0cfb	0.061291676
186	0x3d9ac595	0.07557217
187	0xbdb05f46	-0.08611922
188	0x3d527125	0.051377434
189	0x3d0735e8	0.033010393
190	0x3ced5c67	0.028974725
191	0x3cc7b3b2	0.024377678
192	0xbd419bb6	-0.04726764
193	0xbd82501f	-0.06362938
194	0x3dd6bef5	0.10485641
195	0x3d832f0e	0.06405459
196	0x3ccea816	0.025226634
197	0x3bf30df0	0.007417433
198	0x3d26c89f	0.04071867
199	0x3b9beb34	0.004758263
200	0xbb1c0e0a	-0.002381208
201	0x3d549f2c	0.05190961
202	0xbd5baa3e	-0.053629152
203	0xbdd13b3c	-0.10216376
204	0xbdb49165	-0.08816794
205	0x3e042262	0.12903741
206	0x3db4dd5e	0.08831285
207	0xbc53ae06	-0.012919908
208	0x3ca3e987	0.020008815
209	0x3dd63fa7	0.104613595
210	0xbd6744a1	-0.056461934
211	0xbd88b5de	-0.066753134
212	0xbb12e4e5	-0.0022414264
213	0x3d768840	0.060188532
214	0xbd061287	-0.032732513
215	0xbcd9d14d	-0.02658906
216	0x3d313c89	0.04327062
217	0xbc387a3a	-0.01125961
218	0x3d8cd513	0.06876578
219	0xbd0be11a	-0.03415022
220	0xbdcf0f8a	-0.10110386
221	0xbcce9646	-0.02521814
222	0xbda00187	-0.07812791
223	0x3d0025d8	0.03128609
224	0xbceb99db	-0.028759887
225	0xbbfbc80a	-0.0076837586
226	0x3e07e7d2	0.13272026
227	0x3d4e7b9b	0.050410848
228	0x3c84d573	0.016215062
229	0xbd2924ad	-0.041294742
230	0x3d0c2cc8	0.034222394
231	0xbccdd9c2	-0.02512825
232	0x3caf99b2	0.021435592
233	0x3d45a174	0.048249677
234	0xbdb7531f	-0.08951401
235	0x3c807f81	0.015685799
236	0xbdae3934	-0.085070044
237	0x3db3ada2	0.08773352
238	0xbdb572c1	-0.08859778
239	0xbd51c67d	-0.051214684
240	0x3cc252c0	0.023721099
241	0x3d80975f	0.06278872
242	0x3c58c4df	0.0132305315
243	0x3a6c65f6	0.0009017879
244	0x3c220681	0.009889246
245	0xbca51c02	-0.020154957
246	0x3c4088b6	0.011751344
247	0x3dcbd140	0.09952021
248	0xbd9f2942	-0.07771541
249	0x3e0949a6	0.13407001
250	0x3dc2d58a	0.095133856
251	0x3de50d6f	0.11184203
252	0x3dab49e2	0.083637014
253	0xbd278aa3	-0.0409037
254	0x3d50e991	0.051003996
255	0x3d3bc6d2	0.045843907

arith.constant9 f4 [128, 3, 3, 64]
0	0x3cfc941e	0.030832347
1	0xbcf08f46	-0.029365193
2	0x3a925d79	0.0011166773
3	0x3cbbdc00	0.022932053
4	0xbd63a24b	-0.055574697
5	0x3c89e49b	0.01683264
6	0x3c956c4a	0.018240113
7	0x3bbed359	0.0058235344
8	0x3cd6471e	0.026156958
9	0xbca20740	-0.019778848
10	0xbcb99747	-0.022655142
11	0xbd26ac8a	-0.04069189
12	0xbcf0353a	-0.029322255
13	0x3cb327e8	0.021869615
14	0x3c125810	0.008932129
15	0xbd647bb0	-0.05578202
16	0xbc0e7970	-0.008695945
17	0xbd1ddc6d	-0.038540293
18	0xbd0c3a44	-0.034235254
19	0x3d168fed	0.036758352
20	0xbc74cbf5	-0.014941205
21	0x3d26b411	0.04069907
22	0x3d2c5a19	0.04207811
23	0xbc5519ab	-0.013006608
24	0xbcf81e85	-0.03028799
25	0x3c0883c0	0.008332193
26	0x3d1f304e	0.038864426
27	0xbae520b5	-0.0017481061
28	0xbd0c1693	-0.034201216
29	0xbc9bbefb	-0.019011965
30	0xbd294bd3	-0.041332077
31	0xbba53bfd	-0.0050425516
32	0x3ca66b1a	0.020314742
33	0xbbadb9de	-0.005301698
34	0xbc73bbde	-0.014876334
35	0x3cbc415c	0.022980385
36	0x3c1d882e	0.009614987
37	0xbcb263c1	-0.021776082
38	0x3c275201	0.010212422
39	0xbd029ecd	-0.031889725
40	0xbd6c977d	-0.057761658
41	0xbd5a0096	-0.053223215
42	0xb982d071	-0.00024950833
43	0xbbea3feb	-0.007148733
44	0xbc4e2f08	-0.012584455
45	0x3c161eaf	0.009162589
46	0xbcdb2813	-0.026752507
47	0xbd2d1e9d	-0.042265523
48	0x3cb8b94f	0.0225493
49	0xbc52e3bf	-0.012871682
50	0xbc99f644	-0.018794186
51	0xbd0b934f	-0.03407603
52	0xbd14da4e	-0.036341004
53	0xbd19dd7d	-0.037564743
54	0xbc3f3f6c	-0.011672836
55	0xbc96e114	-0.018417872
56	0xbbc9d815	-0.006159792
57	0xbd57795c	-0.05260597
58	0xbc23b060	-0.009990782
59	0x3c09fd38	0.008422188
60	0x3cb7cb85	0.022435913
61	0xbd4092da	-0.04701505
62	0xbd0dc61f	-0.03461277
63	0x3c1350d4	0.008991439
64	0x3c217de9	0.0098566795
65	0xbd2c9b81	-0.042140488
66	0xbd285021	-0.041092042
67	0xbc727872	-0.014799224
68	0xbb533dfd	-0.0032232993
69	0xbc40a20d	-0.011757386
70	0xbbac2a52	-0.0052540684
71	0x3b7ea604	0.0038856277
72	0x3c910b58	0.017705604
73	0xbbb85a16	-0.0056259735
74	0x3c3491a9	0.011021056
75	0x3c802ab6	0.015645366
76	0xbd0f5bbf	-0.034999605
77	0x3c73d7dd	0.014883009
78	0x3d19945c	0.037495002
79	0xb9805cf8	-0.0002448333
80	0xbca6260c	-0.020281814
81	0x3c585d8d	0.013205898
82	0xbd191551	-0.037373845
83	0xbb999122	-0.0046864906
84	0x3bc583a5	0.006027656
85	0x3c53140b	0.012883197
86	0xbd12c162	-0.035828955
87	0xbbc66a51	-0.0060551544
88	0xbc9a1bc4	-0.018812068
89	0xbc9a5c99	-0.018842982
90	0x3c111848	0.008855887
91	0xbd5db120	-0.054123998
92	0xbcc6694f	-0.024220137
93	0x3ce08dd8	0.027411386
94	0x3b90affa	0.0044155093
95	0xbd03ffbf	-0.03222632
96	0xbc367d3c	-0.011138257
97	0xbc8a2a99	-0.016866015
98	0xbd522d98	-0.051313013
99	0x3d20a6b0	0.039221466
100	0xbd102341	-0.03518987
101	0xbc57bd74	-0.013167728
102	0x3cb4da09	0.022076624
103	0xbbf4dd12	-0.0074726427
104	0xbce9cb1c	-0.028539233
105	0xbc312402	-0.010811808
106	0xbd2a6eb3	-0.041609477
107	0x3c5f9a69	0.013647654
108	0x3cb90e35	0.022589782
109	0xbd62d003	-0.055374157
110	0x3c5e2de0	0.013560742
111	0xbcad1e73	-0.021132683
112	0xbd64fecc	-0.055907056
113	0x3c22edc3	0.009944382
114	0x3d02acf3	0.03190322
115	0xbd4da26e	-0.050203733
116	0x3c7d41fb	0.0154576255
117	0x3c4998c7	0.012304491
118	0xbce2370c	-0.027614139
119	0x3c8282c8	0.015931502
120	0xba3933db	-0.0007064917
121	0xba8ad081	-0.0010590703
122	0x3ca8946f	0.020578591
123	0x3d098e2f	0.033582862
124	0x3c771833	0.015081453
125	0x3c0c8b5b	0.008578147
126	0x3a2808e6	0.00064100174
127	0x3c91e6b4	0.017810203
128	0xbd1ba114	-0.037995413
129	0xbd099276	-0.03358694
130	0xbd6259ca	-0.05526141
131	0xbd2431b6	-0.04008647
132	0xbd3d1230	-0.046159923
133	0x3c71584e	0.014730526
134	0x3c94d12e	0.01816615
135	0xba759331	-0.00093679415
136	0xbabf00eb	-0.0014572417
137	0x3c82a812	0.015949283
138	0xbd505bb6	-0.050868712
139	0x3b8856d1	0.00416074
140	0xbc0a2a6e	-0.008432968
141	0xbcb4e255	-0.02208058
142	0xbc7db699	-0.015485429
143	0xbc4ceb06	-0.012507206
144	0x3ca91621	0.020640435
145	0xbce434cb	-0.027857205
146	0xbc8961db	-0.016770294
147	0xbcb2ee0e	-0.021842029
148	0x3cd1da47	0.025616778
149	0x3bb46e78	0.005506333
150	0x3c24ba4c	0.010054182
151	0xbd1e6e4d	-0.03867941
152	0xbcb7774b	-0.02239575
153	0xbc6650ad	-0.014057321
154	0xbd5861f6	-0.052827798
155	0x3b059103	0.0020380623
156	0x3ccb307e	0.024803396
157	0x3c8fde9d	0.017562205
158	0xbc5d23da	-0.013497317
159	0x3ba7c197	0.0051195133
160	0xbcc56c7a	-0.024099577
161	0x3cf1e2a1	0.02952701
162	0x3c0e8a7b	0.0087000085
163	0x3a3ffad2	0.0007323447
164	0xbd121596	-0.035665117
165	0x3b26cf39	0.0025453104
166	0xbd011416	-0.031513296
167	0x3cda6d1e	0.02666336
168	0xbcaba3be	-0.020952102
169	0xbd2c0cbb	-0.04200433
170	0x3d063d10	0.032773077
171	0xbce4605e	-0.027877983
172	0xbc50a8bd	-0.012735543
173	0xbcb80f06	-0.022468101
174	0xbd3dc7f8	-0.046333283
175	0xbccb0472	-0.024782393
176	0xbc4fdfc1	-0.012687624
177	0x3cf8526c	0.03031274
178	0xbc5808f7	-0.013185731
179	0x3c163126	0.009166991
180	0x3bc84fbf	0.006113022
181	0xb9b20c9c	-0.000339602
182	0x3c0e10db	0.008671011
183	0x3c92e864	0.017933078
184	0xbc3fc583	-0.011704805
185	0xbb0c7737	-0.0021433362
186	0xbc91ca94	-0.017796792
187	0x3cc0d4c6	0.023538958
188	0xbd2eedb9	-0.04270718
189	0xbd1e501e	-0.038650624
190	0xbd4addbe	-0.049527876
191	0x3d69b1ed	0.05705445
192	0xbd0bef72	-0.0341639
193	0x3cbb9532	0.02289829
194	0xbc2b38b2	-0.010450529
195	0x3cfedf4b	0.031112334
196	0xbd7d08d1	-0.061775986
197	0xba2288e6	-0.0006200209
198	0xbd03fa92	-0.032221384
199	0xbaeb08b7	-0.0017931674
200	0x3d0d0de0	0.03443706
201	0xbb7c25ac	-0.0038474603
202	0xbc5e778c	-0.013578307
203	0xbbe7af7d	-0.0070704804
204	0xbd2a4323	-0.041567933
205	0xbce586e9	-0.028018432
206	0xbcc99bb6	-0.024610382
207	0xbd32b291	-0.043627325
208	0xbd825540	-0.063639164
209	0xbc82a4c0	-0.0159477
210	0x3c4fe4a1	0.012688787
211	0x3cb73480	0.022363901
212	0xbd02b93d	-0.03191494
213	0x3ca0877e	0.019595858
214	0xbc019683	-0.00790942
215	0x3c9ceece	0.01915684
216	0xbb29e4d9	-0.0025923757
217	0xbbe3a10e	-0.0069466894
218	0xba348089	-0.00068856083
219	0x3c7f38f2	0.015577542
220	0x3b54fce6	0.0032499372
221	0x3cc3f945	0.023922572
222	0xbce88891	-0.028385432
223	0xbcdd1fa5	-0.026992628
224	0x3b5db193	0.0033827766
225	0xbb66a28c	-0.00351921
226	0xbbd63338	-0.0065368675
227	0xbcda2d60	-0.026632965
228	0x3b8d4346	0.004310998
229	0x3cbc5e25	0.02299411
230	0x3c3a7d30	0.011382386
231	0x3c2e3de5	0.010634874
232	0x3bde963d	0.006792812
233	0xbcdb43fe	-0.02676582
234	0x3c1df5d4	0.0096411295
235	0xbd4f215d	-0.050568927
236	0xba808690	-0.0009805728
237	0xbcc81a3a	-0.024426568
238	0xbce95fb8	-0.028488025
239	0xbd34a66d	-0.04410403
240	0xbc1d804e	-0.00961311
241	0xbcc3b7ea	-0.023891408
242	0x3c13357e	0.0089849215
243	0xbc410127	-0.01178006
244	0xbd72fea3	-0.05932487
245	0x3cbe8d3d	0.023260707
246	0xbc87c7d8	-0.016574785
247	0xbd86f712	-0.06590094
248	0x3ccf65d2	0.025317106
249	0xbd3a81b7	-0.045533862
250	0x3c7c81a3	0.015411767
251	0xbb11ca2b	-0.0022245746
252	0xbca749b2	-0.020420883
253	0x3c06b6d6	0.008222302
254	0xbc2eb428	-0.01066307
255	0xbb847dde	-0.004043325
