tflm/tensorflow/lite/micro/examples/fmnist/models/fmnist_pruned_int8.tflite (tflite, 47288 bytes, 6 tensors)

torch.fx.graph_module.GraphModule.__new__.<locals>.GraphModuleImpl/torch.nn.modules.conv.Conv2d_conv1; i1 [1, 3, 3, 16] scale=0.01458 zero_point=0
00000000: fef3 041a ee07 adf4 dbfc 0706 0e0a c181
00000010: 06f6 0eee 14f5 f2f3 c60c e90e 0efe 9b82
00000020: f8dc 10eb fc07 2118 dc0f 14e8 14f7 8deb
00000030: ea19 0df3 0617 adee 0814 ff06 fc00 e8e9
00000040: 02ef ebf5 faee fa15 fb19 ec0b ffc4 b8a2
00000050: 1e15 ef0f 11f6 f307 15eb 18dc 18cd 9ef9
00000060: b808 ef0d eb19 aeeb f909 0616 ecff 0bfc
00000070: f900 e819 f7f4 e31a 25f5 f118 f2e5 f7f9
00000080: 0217 24fa 10f6 07fd fbf7 02e7 e4f3 ea19
-0.02916 -0.18954 0.05832 0.37908 -0.26244 0.102060005 -1.21014 -0.17496
-0.53946 -0.05832 0.102060005 0.08748 0.20412001 0.1458 -0.91854 -1.85166
0.08748 -0.1458 0.20412001 -0.26244 0.2916 -0.16038 -0.20412001 -0.18954
-0.84564 0.17496 -0.33534 0.20412001 0.20412001 -0.02916 -1.4725801 -1.83708
-0.11664 -0.52488 0.23328 -0.30618 -0.05832 0.102060005 0.48114002 0.34992
-0.52488 0.2187 0.2916 -0.34992 0.2916 -0.13122 -1.6767 -0.30618
-0.32076 0.36450002 0.18954 -0.18954 0.08748 0.33534 -1.21014 -0.26244
0.11664 0.2916 -0.01458 0.08748 -0.05832 0.0 -0.34992 -0.33534
0.02916 -0.24786 -0.30618 -0.16038 -0.08748 -0.26244 -0.08748 0.30618
-0.0729 0.36450002 -0.2916 0.16038 -0.01458 -0.8748 -1.04976 -1.37052
0.4374 0.30618 -0.24786 0.2187 0.24786 -0.1458 -0.18954 0.102060005
0.30618 -0.30618 0.34992 -0.52488 0.34992 -0.74358 -1.42884 -0.102060005
-1.04976 0.11664 -0.24786 0.18954 -0.30618 0.36450002 -1.19556 -0.30618
-0.102060005 0.13122 0.08748 0.32076 -0.2916 -0.01458 0.16038 -0.05832
-0.102060005 0.0 -0.34992 0.36450002 -0.13122 -0.17496 -0.42282 0.37908
0.53946 -0.16038 -0.2187 0.34992 -0.20412001 -0.39366 -0.13122 -0.102060005
0.02916 0.33534 0.52488 -0.08748 0.23328 -0.1458 0.102060005 -0.04374
-0.0729 -0.13122 0.02916 -0.36450002 -0.40824002 -0.18954 -0.32076 0.36450002

torch.fx.graph_module.GraphModule.__new__.<locals>.GraphModuleImpl/torch.nn.modules.conv.Conv2d_conv2; i1 [32, 3, 3, 16] scale=0.00722206 zero_point=0
00000000: 00f3 e207 170b 1806 0d07 02eb 08ef e0f6
00000010: 00fb 0413 0209 dd02 fa0d f0e8 22e1 d6e2
00000020: f20d 1305 0309 f30d 090c f8fd 2ffa daec
00000030: f909 d303 0101 12f5 24fd eee3 2203 ebfb
00000040: 0405 fc08 f313 e7fe f811 fefc 1d12 effe
00000050: fcfa f605 f50c fcfb 0215 02fa 1e1c e8f4
00000060: 14de 07fc 06f4 fadb 13f7 e406 601e 0205
00000070: 2e06 0ddf 13ea 16f3 05f6 03f8 5f31 061d
00000080: 20f4 f2e7 03e2 15fd 06ee fef4 2e22 0c2b
00000090: 0af8 ea0a 02f2 0403 1cf8 09e2 f7f8 f806
000000a0: f9ee c702 26ea eb0c f4fe 26f4 0ff8 ecf3
000000b0: dcee f710 eb08 dd04 e615 d20f e7ff 10fa
000000c0: 0df8 eb08 f9fb ffee eefc ecf4 f202 f904
000000d0: f4c0 bcf7 13fb f80d f003 2d0b 1105 01f7
000000e0: ffed e405 05f2 f913 0a07 eeec f8f1 ebf3
000000f0: 20f5 f208 fbf9 08f6 1f03 e4f2 1c05 0307
0.0 -0.09388678 -0.21666181 0.05055442 0.16610739 0.079442665 0.17332944 0.04333236
0.09388678 0.05055442 0.01444412 -0.15166326 0.05777648 -0.12277502 -0.23110592 -0.0722206
0.0 -0.0361103 0.02888824 0.13721915 0.01444412 0.06499854 -0.2527721 0.01444412
-0.04333236 0.09388678 -0.11555296 -0.17332944 0.24555004 -0.22388387 -0.30332652 -0.21666181
-0.10110884 0.09388678 0.13721915 0.0361103 0.02166618 0.06499854 -0.09388678 0.09388678
0.06499854 0.08666472 -0.05777648 -0.02166618 0.33943683 -0.04333236 -0.2744383 -0.1444412
-0.05055442 0.06499854 -0.32499272 0.02166618 0.00722206 0.00722206 0.12999707 -0.079442665
0.25999415 -0.02166618 -0.12999707 -0.20943974 0.24555004 0.02166618 -0.15166326 -0.0361103
0.02888824 0.0361103 -0.02888824 0.05777648 -0.09388678 0.13721915 -0.1805515 -0.01444412
-0.05777648 0.12277502 -0.01444412 -0.02888824 0.20943974 0.12999707 -0.12277502 -0.01444412
-0.02888824 -0.04333236 -0.0722206 0.0361103 -0.079442665 0.08666472 -0.02888824 -0.0361103
0.01444412 0.15166326 0.01444412 -0.04333236 0.21666181 0.20221768 -0.17332944 -0.08666472
0.1444412 -0.24555004 0.05055442 -0.02888824 0.04333236 -0.08666472 -0.04333236 -0.26721624
0.13721915 -0.06499854 -0.20221768 0.04333236 0.6933178 0.21666181 0.01444412 0.0361103
0.33221477 0.04333236 0.09388678 -0.23832798 0.13721915 -0.15888533 0.15888533 -0.09388678
0.0361103 -0.0722206 0.02166618 -0.05777648 0.6860957 0.35388094 0.04333236 0.20943974
0.23110592 -0.08666472 -0.10110884 -0.1805515 0.02166618 -0.21666181 0.15166326 -0.02166618
0.04333236 -0.12999707 -0.01444412 -0.08666472 0.33221477 0.24555004 0.08666472 0.31054857
0.0722206 -0.05777648 -0.15888533 0.0722206 0.01444412 -0.10110884 0.02888824 0.02166618
0.20221768 -0.05777648 0.06499854 -0.21666181 -0.06499854 -0.05777648 -0.05777648 0.04333236
-0.05055442 -0.12999707 -0.41165742 0.01444412 0.2744383 -0.15888533 -0.15166326 0.08666472
-0.08666472 -0.01444412 0.2744383 -0.08666472 0.108330905 -0.05777648 -0.1444412 -0.09388678
-0.25999415 -0.12999707 -0.06499854 0.11555296 -0.15166326 0.05777648 -0.2527721 0.02888824
-0.18777356 0.15166326 -0.33221477 0.108330905 -0.1805515 -0.00722206 0.11555296 -0.04333236
0.09388678 -0.05777648 -0.15166326 0.05777648 -0.05055442 -0.0361103 -0.00722206 -0.12999707
-0.12999707 -0.02888824 -0.1444412 -0.08666472 -0.10110884 0.01444412 -0.05055442 0.02888824
-0.08666472 -0.46221185 -0.49110007 -0.06499854 0.13721915 -0.0361103 -0.05777648 0.09388678
-0.11555296 0.02166618 0.32499272 0.079442665 0.12277502 0.0361103 0.00722206 -0.06499854
-0.00722206 -0.13721915 -0.20221768 0.0361103 0.0361103 -0.10110884 -0.05055442 0.13721915
0.0722206 0.05055442 -0.12999707 -0.1444412 -0.05777648 -0.108330905 -0.15166326 -0.09388678
0.23110592 -0.079442665 -0.10110884 0.05777648 -0.0361103 -0.05055442 0.05777648 -0.0722206
0.22388387 0.02166618 -0.20221768 -0.10110884 0.20221768 0.0361103 0.02166618 0.05055442

torch.fx.graph_module.GraphModule.__new__.<locals>.GraphModuleImpl/torch.nn.modules.conv.Conv2d_conv3; i1 [64, 3, 3, 32] scale=0.00484567 zero_point=0
00000000: 0b10 020a 0fed f7df fa12 e2ef 09ef 150c
00000010: d839 0e08 ee14 1ee8 05f5 24e8 0aea 1f0b
00000020: 0f06 eb17 fdff 1a01 d612 f109 1cee 0102
00000030: 0aeb ecec 1ef2 e606 f308 f9fa e3fd f608
00000040: 0b0f d324 1407 fefe de05 0bf2 0d06 01fe
00000050: dd2b eaf8 fd0e e11c 1201 faf7 16ff 1afb
00000060: fbf5 0de7 04fc 01ec 0a01 f115 06f5 2808
00000070: e612 1d15 120a 12f7 f10a d612 09f9 0bfc
00000080: 0df1 f3fe e4f8 ed0d e0dd 021c d9e2 ed01
00000090: f4f3 2d0d f3ec 1102 f408 1119 f413 050b
000000a0: fa13 eafb 161d ee1a fdf3 060b f4f7 fde3
000000b0: eeff eaff 0fe9 d803 ff20 ff0c ed08 13f4
000000c0: fa01 20fe f212 1d02 0e25 16c4 ef20 150a
000000d0: 14fb 012c edea 0020 1100 fcfc 0d06 0c04
000000e0: fbf2 df07 04ff 06e5 fbfe f50f f9d2 05f8
000000f0: f6ef 0cf8 d501 0ce9 ebe2 3dee 2405 f702
0.05330237 0.07753072 0.00969134 0.0484567 0.07268505 -0.092067726 -0.04361103 -0.1599071
-0.02907402 0.08722206 -0.1453701 -0.08237639 0.04361103 -0.08237639 0.10175907 0.05814804
-0.1938268 0.2762032 0.06783938 0.03876536 -0.08722206 0.0969134 0.1453701 -0.11629608
0.02422835 -0.05330237 0.17444412 -0.11629608 0.0484567 -0.10660474 0.15021577 0.05330237
0.07268505 0.02907402 -0.10175907 0.11145041 -0.01453701 -0.00484567 0.12598743 0.00484567
-0.20351814 0.08722206 -0.07268505 0.04361103 0.13567875 -0.08722206 0.00484567 0.00969134
0.0484567 -0.10175907 -0.0969134 -0.0969134 0.1453701 -0.06783938 -0.12598743 0.02907402
-0.06299371 0.03876536 -0.03391969 -0.02907402 -0.14052443 -0.01453701 -0.0484567 0.03876536
0.05330237 0.07268505 -0.21805514 0.17444412 0.0969134 0.03391969 -0.00969134 -0.00969134
-0.16475278 0.02422835 0.05330237 -0.06783938 0.06299371 0.02907402 0.00484567 -0.00969134
-0.16959845 0.2083638 -0.10660474 -0.03876536 -0.01453701 0.06783938 -0.15021577 0.13567875
0.08722206 0.00484567 -0.02907402 -0.04361103 0.10660474 -0.00484567 0.12598743 -0.02422835
-0.02422835 -0.05330237 0.06299371 -0.12114175 0.01938268 -0.01938268 0.00484567 -0.0969134
0.0484567 0.00484567 -0.07268505 0.10175907 0.02907402 -0.05330237 0.1938268 0.03876536
-0.12598743 0.08722206 0.14052443 0.10175907 0.08722206 0.0484567 0.08722206 -0.04361103
-0.07268505 0.0484567 -0.20351814 0.08722206 0.04361103 -0.03391969 0.05330237 -0.01938268
0.06299371 -0.07268505 -0.06299371 -0.00969134 -0.13567875 -0.03876536 -0.092067726 0.06299371
-0.15506144 -0.16959845 0.00969134 0.13567875 -0.18898113 -0.1453701 -0.092067726 0.00484567
-0.05814804 -0.06299371 0.21805514 0.06299371 -0.06299371 -0.0969134 0.08237639 0.00969134
-0.05814804 0.03876536 0.08237639 0.12114175 -0.05814804 0.092067726 0.02422835 0.05330237
-0.02907402 0.092067726 -0.10660474 -0.02422835 0.10660474 0.14052443 -0.08722206 0.12598743
-0.01453701 -0.06299371 0.02907402 0.05330237 -0.05814804 -0.04361103 -0.01453701 -0.14052443
-0.08722206 -0.00484567 -0.10660474 -0.00484567 0.07268505 -0.11145041 -0.1938268 0.01453701
-0.00484567 0.15506144 -0.00484567 0.05814804 -0.092067726 0.03876536 0.092067726 -0.05814804
-0.02907402 0.00484567 0.15506144 -0.00969134 -0.06783938 0.08722206 0.14052443 0.00969134
0.06783938 0.17928979 0.10660474 -0.2907402 -0.08237639 0.15506144 0.10175907 0.0484567
0.0969134 -0.02422835 0.00484567 0.21320948 -0.092067726 -0.10660474 0.0 0.15506144
0.08237639 0.0 -0.01938268 -0.01938268 0.06299371 0.02907402 0.05814804 0.01938268
-0.02422835 -0.06783938 -0.1599071 0.03391969 0.01938268 -0.00484567 0.02907402 -0.13083309
-0.02422835 -0.00969134 -0.05330237 0.07268505 -0.03391969 -0.22290082 0.02422835 -0.03876536
-0.0484567 -0.08237639 0.05814804 -0.03876536 -0.2083638 0.00484567 0.05814804 -0.11145041
-0.10175907 -0.1453701 0.29558587 -0.08722206 0.17444412 0.02422835 -0.04361103 0.00969134

torch.fx.graph_module.GraphModule.__new__.<locals>.GraphModuleImpl;4 i1 [128, 64] scale=0.00611746 zero_point=0
00000000: f80f e1fe 17fc da0d fbeb f2e7 0901 f6eb
00000010: f828 fdfe f8ef ed2b f31b fbe7 1637 f620
00000020: ee0f 0cfb f31a 05e7 0f08 ddfd 1932 1424
00000030: d80b e812 eced fdf4 d406 04ff ee0f 1ee1
00000040: 0518 0f12 05fe 0206 0a0a 150c 0e1a f5ec
00000050: feed 07e9 0f1b 0303 1729 0220 0cdd f112
00000060: da05 f20d 0ee8 0f14 e101 fff3 defe 07e2
00000070: 2509 01e2 d903 f6fb e20e 0114 00fd f9f8
00000080: 00f0 24e2 06e4 e9e5 3121 2614 2008 f728
00000090: 0d1c cef9 f3ea f5fd ca23 15f4 e2df 02fa
000000a0: f9f7 0ceb f80c 050a 0716 fb07 1bf0 e808
000000b0: efe7 e214 f604 fffb 00fa f005 fe05 e8fa
000000c0: 01df d502 2909 0911 ebdb 03ee eeeb 0315
000000d0: 0b11 0704 1f1a 01fc f5e3 0feb fa12 ee0a
000000e0: 1f1b e8f8 0ae5 e20c f517 f11b f714 0fcc
000000f0: 29ef 0cfc 14f1 2003 180a 10da efe2 1e0f
-0.04893968 0.091761895 -0.18964125 -0.01223492 0.14070158 -0.02446984 -0.23246348 0.079526976
-0.030587299 -0.12846665 -0.08564444 -0.1529365 0.05505714 0.00611746 -0.061174598 -0.12846665
-0.04893968 0.24469839 -0.01835238 -0.01223492 -0.04893968 -0.10399682 -0.11623174 0.26305076
-0.079526976 0.16517141 -0.030587299 -0.1529365 0.13458411 0.3364603 -0.061174598 0.19575872
-0.11011428 0.091761895 0.07340952 -0.030587299 -0.079526976 0.15905395 0.030587299 -0.1529365
0.091761895 0.04893968 -0.21411109 -0.01835238 0.1529365 0.305873 0.122349195 0.22022855
-0.24469839 0.06729206 -0.14681904 0.11011428 -0.122349195 -0.11623174 -0.01835238 -0.07340952
-0.26916823 0.03670476 0.02446984 -0.00611746 -0.11011428 0.091761895 0.18352379 -0.18964125
0.030587299 0.14681904 0.091761895 0.11011428 0.030587299 -0.01223492 0.01223492 0.03670476
0.061174598 0.061174598 0.12846665 0.07340952 0.08564444 0.15905395 -0.06729206 -0.122349195
-0.01223492 -0.11623174 0.04282222 -0.14070158 0.091761895 0.16517141 0.01835238 0.01835238
0.14070158 0.25081587 0.01223492 0.19575872 0.07340952 -0.21411109 -0.091761895 0.11011428
-0.23246348 0.030587299 -0.08564444 0.079526976 0.08564444 -0.14681904 0.091761895 0.122349195
-0.18964125 0.00611746 -0.00611746 -0.079526976 -0.20799364 -0.01223492 0.04282222 -0.18352379
0.22634602 0.05505714 0.00611746 -0.18352379 -0.23858093 0.01835238 -0.061174598 -0.030587299
-0.18352379 0.08564444 0.00611746 0.122349195 0.0 -0.01835238 -0.04282222 -0.04893968
0.0 -0.09787936 0.22022855 -0.18352379 0.03670476 -0.17128888 -0.14070158 -0.16517141
0.29975554 0.20187618 0.23246348 0.122349195 0.19575872 0.04893968 -0.05505714 0.24469839
0.079526976 0.17128888 -0.305873 -0.04282222 -0.079526976 -0.13458411 -0.06729206 -0.01835238
-0.33034283 0.21411109 0.12846665 -0.07340952 -0.18352379 -0.20187618 0.01223492 -0.03670476
-0.04282222 -0.05505714 0.07340952 -0.12846665 -0.04893968 0.07340952 0.030587299 0.061174598
0.04282222 0.13458411 -0.030587299 0.04282222 0.16517141 -0.09787936 -0.14681904 0.04893968
-0.10399682 -0.1529365 -0.18352379 0.122349195 -0.061174598 0.02446984 -0.00611746 -0.030587299
0.0 -0.03670476 -0.09787936 0.030587299 -0.01223492 0.030587299 -0.14681904 -0.03670476
0.00611746 -0.20187618 -0.26305076 0.01223492 0.25081587 0.05505714 0.05505714 0.10399682
-0.12846665 -0.22634602 0.01835238 -0.11011428 -0.11011428 -0.12846665 0.01835238 0.12846665
0.06729206 0.10399682 0.04282222 0.02446984 0.18964125 0.15905395 0.00611746 -0.02446984
-0.06729206 -0.17740634 0.091761895 -0.12846665 -0.03670476 0.11011428 -0.11011428 0.061174598
0.18964125 0.16517141 -0.14681904 -0.04893968 0.061174598 -0.16517141 -0.18352379 0.07340952
-0.06729206 0.14070158 -0.091761895 0.16517141 -0.05505714 0.122349195 0.091761895 -0.3181079
0.25081587 -0.10399682 0.07340952 -0.02446984 0.122349195 -0.091761895 0.19575872 0.01835238
0.14681904 0.061174598 0.09787936 -0.23246348 -0.10399682 -0.18352379 0.18352379 0.091761895

torch.fx.graph_module.GraphModule.__new__.<locals>.GraphModuleImpl;5 i1 [64, 128] scale=0.00646233 zero_point=0
00000000: da03 fa0e 0f1b f8fc 18f8 0618 0d07 2418
00000010: 0ecb 04eb 0c17 cd18 03f7 00fe 00f5 25eb
00000020: 040c 17fb 0700 f80b 0bed 2e02 00df 0f07
00000030: e023 1315 fe03 06fd 1ff7 03fa 0c12 0110
00000040: 1913 f90f d619 0d18 ddfd 060c 1ceb 04e7
00000050: 07f9 1b23 c804 d803 1eea 3b01 fbf5 13f3
00000060: 55d4 e71f 1411 f6fe 0501 e90e fbd9 16f0
00000070: 15ed 0a0e fd13 1034 1614 f4da 0712 fae5
00000080: 0cec ebf8 f1ec fdf7 0d17 04fc fb00 d413
00000090: ee21 1a07 0de8 2e0c 1205 1c29 f108 da24
000000a0: fbfb f513 0b13 ff03 1106 e00e eb1d f90a
000000b0: 19e7 f91a 1003 fe15 f617 0425 070b 1705
000000c0: c4fa 17fd f60b f702 fd0f 1f16 fdfa 0501
000000d0: 1007 1001 0805 0806 ed2c bef7 0f08 f514
000000e0: b0f5 fffd 0709 0906 fa11 2105 fa06 17f8
000000f0: 1102 1906 12fa 12ea f109 1005 1d1f fb19
-0.24556854 0.01938699 -0.03877398 0.09047262 0.09693495 0.17448291 -0.05169864 -0.02584932
0.15509592 -0.05169864 0.03877398 0.15509592 0.08401029 0.04523631 0.23264387 0.15509592
0.09047262 -0.3425035 0.02584932 -0.13570893 0.07754796 0.14863358 -0.32957882 0.15509592
0.01938699 -0.058160968 0.0 -0.01292466 0.0 -0.07108563 0.23910621 -0.13570893
0.02584932 0.07754796 0.14863358 -0.032311648 0.04523631 0.0 -0.05169864 0.07108563
0.07108563 -0.12278427 0.29726717 0.01292466 0.0 -0.2132569 0.09693495 0.04523631
-0.20679456 0.22618155 0.12278427 0.13570893 -0.01292466 0.01938699 0.03877398 -0.01938699
0.20033222 -0.058160968 0.01938699 -0.03877398 0.07754796 0.116321936 0.00646233 0.10339728
0.16155826 0.12278427 -0.04523631 0.09693495 -0.27141786 0.16155826 0.08401029 0.15509592
-0.22618155 -0.01938699 0.03877398 0.07754796 0.18094525 -0.13570893 0.02584932 -0.16155826
0.04523631 -0.04523631 0.17448291 0.22618155 -0.3618905 0.02584932 -0.25849319 0.01938699
0.1938699 -0.14217126 0.38127747 0.00646233 -0.032311648 -0.07108563 0.12278427 -0.08401029
0.54929805 -0.28434253 -0.16155826 0.20033222 0.12924659 0.10985961 -0.064623296 -0.01292466
0.032311648 0.00646233 -0.14863358 0.09047262 -0.032311648 -0.25203088 0.14217126 -0.10339728
0.13570893 -0.12278427 0.064623296 0.09047262 -0.01938699 0.12278427 0.10339728 0.33604115
0.14217126 0.12924659 -0.07754796 -0.24556854 0.04523631 0.116321936 -0.03877398 -0.17448291
0.07754796 -0.12924659 -0.13570893 -0.05169864 -0.09693495 -0.12924659 -0.01938699 -0.058160968
0.08401029 0.14863358 0.02584932 -0.02584932 -0.032311648 0.0 -0.28434253 0.12278427
-0.116321936 0.2132569 0.16802058 0.04523631 0.08401029 -0.15509592 0.29726717 0.07754796
0.116321936 0.032311648 0.18094525 0.26495552 -0.09693495 0.05169864 -0.24556854 0.23264387
-0.032311648 -0.032311648 -0.07108563 0.12278427 0.07108563 0.12278427 -0.00646233 0.01938699
0.10985961 0.03877398 -0.20679456 0.09047262 -0.13570893 0.18740757 -0.04523631 0.064623296
0.16155826 -0.16155826 -0.04523631 0.16802058 0.10339728 0.01938699 -0.01292466 0.13570893
-0.064623296 0.14863358 0.02584932 0.23910621 0.04523631 0.07108563 0.14863358 0.032311648
-0.3877398 -0.03877398 0.14863358 -0.01938699 -0.064623296 0.07108563 -0.058160968 0.01292466
-0.01938699 0.09693495 0.20033222 0.14217126 -0.01938699 -0.03877398 0.032311648 0.00646233
0.10339728 0.04523631 0.10339728 0.00646233 0.05169864 0.032311648 0.05169864 0.03877398
-0.12278427 0.28434253 -0.4265138 -0.058160968 0.09693495 0.05169864 -0.07108563 0.12924659
-0.51698637 -0.07108563 -0.00646233 -0.01938699 0.04523631 0.058160968 0.058160968 0.03877398
-0.03877398 0.10985961 0.2132569 0.032311648 -0.03877398 0.03877398 0.14863358 -0.05169864
0.10985961 0.01292466 0.16155826 0.03877398 0.116321936 -0.03877398 0.116321936 -0.14217126
-0.09693495 0.058160968 0.10339728 0.032311648 0.18740757 0.20033222 -0.032311648 0.16155826

torch.fx.graph_module.GraphModule.__new__.<locals>.GraphModuleImpl;6 i1 [10, 64] scale=0.00806299 zero_point=0
00000000: de06 d5f4 0c05 f0f8 fcc8 fa0d 0d02 bef0
00000010: f9d1 0716 0707 fafa ef13 0b1c f931 be13
00000020: fe05 f9dc ee16 00eb 0af0 071c 1500 0be7
00000030: eaff e6e7 c01c 09f4 0f12 e70c 12f7 dcf4
00000040: 18cb 0fb7 ebe1 db08 ede0 4506 04e7 f50a
00000050: 1207 2a15 d529 290b 18fc e706 bfd9 ffdf
00000060: 030b cac9 200d 061d e905 db00 f5da c100
00000070: c2de 051d a2d2 1607 fdcb 090d fee4 e30e
00000080: 11fd 12fc 0608 ef09 f301 e312 c815 0a01
00000090: cdd3 22d3 19eb 00cf d6e5 dd14 051d 1307
000000a0: 10e7 0edd 0f0b 0cee ff0b 110e 0f03 f91b
000000b0: 0d02 cfdb e90a 0911 020f dbf8 04e3 ff10
000000c0: 01fa d61a 0714 10ee b9c3 c607 161d 050b
000000d0: 0cc9 d9e3 dcf2 03f8 19bb fbf2 06eb 0cd4
000000e0: 11fa f8ef e50b 0606 f714 cf1b 0807 fcef
000000f0: 0614 19fa d2f1 0218 e904 0cfd f40c c3dd
-0.27414167 0.048377942 -0.3467086 -0.096755885 0.096755885 0.04031495 -0.12900785 -0.06450392
-0.03225196 -0.45152748 -0.048377942 0.10481887 0.10481887 0.01612598 -0.53215736 -0.12900785
-0.056440935 -0.37896055 0.056440935 0.17738579 0.056440935 0.056440935 -0.048377942 -0.048377942
-0.13707083 0.15319681 0.088692896 0.22576374 -0.056440935 0.39508653 -0.53215736 0.15319681
-0.01612598 0.04031495 -0.056440935 -0.29026765 -0.14513382 0.17738579 0.0 -0.1693228
0.0806299 -0.12900785 0.056440935 0.22576374 0.1693228 0.0 0.088692896 -0.20157476
-0.17738579 -0.00806299 -0.20963775 -0.20157476 -0.5160314 0.22576374 0.07256691 -0.096755885
0.12094486 0.14513382 -0.20157476 0.096755885 0.14513382 -0.07256691 -0.29026765 -0.096755885
0.19351177 -0.42733848 0.12094486 -0.5885983 -0.1693228 -0.2499527 -0.29833063 0.06450392
-0.15319681 -0.2580157 0.55634636 0.048377942 0.03225196 -0.20157476 -0.088692896 0.0806299
0.14513382 0.056440935 0.3386456 0.1693228 -0.3467086 0.33058262 0.33058262 0.088692896
0.19351177 -0.03225196 -0.20157476 0.048377942 -0.5240944 -0.3144566 -0.00806299 -0.26607868
0.024188971 0.088692896 -0.43540147 -0.44346446 0.2580157 0.10481887 0.048377942 0.23382673
-0.18544878 0.04031495 -0.29833063 0.0 -0.088692896 -0.30639362 -0.50796837 0.0
-0.4999054 -0.27414167 0.04031495 0.23382673 -0.7579211 -0.37089756 0.17738579 0.056440935
-0.024188971 -0.42733848 0.07256691 0.10481887 -0.01612598 -0.22576374 -0.23382673 0.11288187
0.13707083 -0.024188971 0.14513382 -0.03225196 0.048377942 0.06450392 -0.13707083 0.07256691
-0.10481887 0.00806299 -0.23382673 0.14513382 -0.45152748 0.1693228 0.0806299 0.00806299
-0.4112125 -0.36283457 0.27414167 -0.36283457 0.20157476 -0.1693228 0.0 -0.39508653
-0.3386456 -0.21770073 -0.28220466 0.1612598 0.04031495 0.23382673 0.15319681 0.056440935
0.12900785 -0.20157476 0.11288187 -0.28220466 0.12094486 0.088692896 0.096755885 -0.14513382
-0.00806299 0.088692896 0.13707083 0.11288187 0.12094486 0.024188971 -0.056440935 0.21770073
0.10481887 0.01612598 -0.39508653 -0.29833063 -0.18544878 0.0806299 0.07256691 0.13707083
0.01612598 0.12094486 -0.29833063 -0.06450392 0.03225196 -0.23382673 -0.00806299 0.12900785
0.00806299 -0.048377942 -0.3386456 0.20963775 0.056440935 0.1612598 0.12900785 -0.14513382
-0.57247233 -0.49184242 -0.46765345 0.056440935 0.17738579 0.23382673 0.04031495 0.088692896
0.096755885 -0.44346446 -0.3144566 -0.23382673 -0.29026765 -0.11288187 0.024188971 -0.06450392
0.20157476 -0.55634636 -0.04031495 -0.11288187 0.048377942 -0.1693228 0.096755885 -0.35477158
0.13707083 -0.048377942 -0.06450392 -0.13707083 -0.21770073 0.088692896 0.048377942 0.048377942
-0.07256691 0.1612598 -0.39508653 0.21770073 0.06450392 0.056440935 -0.03225196 -0.13707083
0.048377942 0.1612598 0.20157476 -0.048377942 -0.37089756 -0.12094486 0.01612598 0.19351177
-0.18544878 0.03225196 0.096755885 -0.024188971 -0.096755885 0.096755885 -0.49184242 -0.28220466
