tflm/tensorflow/lite/micro/examples/fmnist/models/fmnist_int8.tflite (tflite, 167560 bytes, 6 tensors)

torch.fx.graph_module.GraphModule.__new__.<locals>.GraphModuleImpl/torch.nn.modules.conv.Conv2d_conv1; i1 [1, 3, 3, 32] scale=0.012419 zero_point=0
000000 0f e6 f8 f3 fc 01 0d f9 21 eb 09 e7 ad ea f3 da
       0.186285 -0.322894 -0.099352 -0.161447 -0.049676 0.012419 0.161447 -0.086933 0.409827 -0.260799 0.111771 -0.310475 -1.030777 -0.273218 -0.161447 -0.471922
000010 fc e3 08 09 06 08 08 e9 10 11 0e b3 f9 ed 0e 81
       -0.049676 -0.360151 0.099352 0.111771 0.074514 0.099352 0.099352 -0.28563702 0.198704 0.211123 0.173866 -0.956263 -0.086933 -0.235961 0.173866 -1.577213
000020 11 11 0a f7 0d 12 0f 09 ec 16 f4 f1 ec f5 ee c3
       0.211123 0.211123 0.12419 -0.111771 0.161447 0.223542 0.186285 0.111771 -0.24838 0.273218 -0.149028 -0.186285 -0.24838 -0.136609 -0.223542 -0.757559
000030 0c 1c e5 0f 0e f8 06 f8 0f 13 fe a2 ee 1b e0 8d
       0.149028 0.347732 -0.33531302 0.186285 0.173866 -0.099352 0.074514 -0.099352 0.186285 0.235961 -0.024838 -1.167386 -0.223542 0.33531302 -0.397408 -1.428185
000040 f8 07 f8 d6 fc 14 09 fc e8 fb 09 06 26 f1 1c d6
       -0.099352 0.086933 -0.099352 -0.521598 -0.049676 0.24838 0.111771 -0.049676 -0.298056 -0.062095 0.111771 0.074514 0.471922 -0.186285 0.347732 -0.521598
000050 10 e4 16 e5 06 ea e9 08 18 0b f8 92 f4 f0 0e ec
       0.198704 -0.347732 0.273218 -0.33531302 0.074514 -0.273218 -0.28563702 0.099352 0.298056 0.136609 -0.099352 -1.36609 -0.149028 -0.198704 0.173866 -0.24838
000060 12 0c e3 1f f9 0f fa 1b f3 09 1a fd c8 00 ef 10
       0.223542 0.149028 -0.360151 0.38498902 -0.086933 0.186285 -0.074514 0.33531302 -0.161447 0.111771 0.322894 -0.037257 -0.695464 0.0 -0.211123 0.198704
000070 18 fb ff 06 f5 11 fa 12 fb ed fc de e1 0b 09 db
       0.298056 -0.062095 -0.012419 0.074514 -0.136609 0.211123 -0.074514 0.223542 -0.062095 -0.235961 -0.049676 -0.422246 -0.38498902 0.136609 0.111771 -0.459503
000080 f8 00 00 eb 0c e9 12 f4 f4 f9 ea ee fa f7 18 fb
       -0.099352 0.0 0.0 -0.260799 0.149028 -0.28563702 0.223542 -0.149028 -0.149028 -0.086933 -0.273218 -0.223542 -0.074514 -0.111771 0.298056 -0.062095
000090 1d 0b e9 08 0b 15 16 0c fe e4 ba c3 07 1b 11 9d
       0.360151 0.136609 -0.28563702 0.099352 0.136609 0.260799 0.273218 0.149028 -0.024838 -0.347732 -0.86933005 -0.757559 0.086933 0.33531302 0.211123 -1.229481
0000a0 02 0b 22 18 fa ee ed f4 12 14 f3 01 ef fe 09 18
       0.024838 0.136609 0.422246 0.298056 -0.074514 -0.223542 -0.235961 -0.149028 0.223542 0.24838 -0.161447 0.012419 -0.211123 -0.024838 0.111771 0.298056
0000b0 e8 03 1c d4 0d f6 11 e3 1d ea b7 a6 ea f1 ef f9
       -0.298056 0.037257 0.347732 -0.546436 0.161447 -0.12419 0.211123 -0.360151 0.360151 -0.273218 -0.906587 -1.11771 -0.273218 -0.186285 -0.211123 -0.086933
0000c0 f2 fe b2 09 0c eb fc f1 10 e8 1e ef bf ef e7 f6
       -0.173866 -0.024838 -0.96868205 0.111771 0.149028 -0.260799 -0.049676 -0.186285 0.198704 -0.298056 0.37257 -0.211123 -0.807235 -0.211123 -0.310475 -0.12419
0000d0 0b e9 09 1a 09 01 fb ef e8 13 05 0f 13 02 ea fa
       0.136609 -0.28563702 0.111771 0.322894 0.111771 0.012419 -0.062095 -0.211123 -0.298056 0.235961 0.062095 0.186285 0.235961 0.024838 -0.273218 -0.074514
0000e0 10 17 f9 fc 18 e2 e9 1b 1c f5 f2 ea e4 ef 19 2a
       0.198704 0.28563702 -0.086933 -0.049676 0.298056 -0.37257 -0.28563702 0.33531302 0.347732 -0.136609 -0.173866 -0.273218 -0.347732 -0.211123 0.310475 0.521598
0000f0 f3 1c ef 1b fa 04 e5 fd f2 0f e5 f6 13 fb 0a f5
       -0.161447 0.347732 -0.211123 0.33531302 -0.074514 0.049676 -0.33531302 -0.037257 -0.173866 0.186285 -0.33531302 -0.12419 0.235961 -0.062095 0.12419 -0.136609

torch.fx.graph_module.GraphModule.__new__.<locals>.GraphModuleImpl/torch.nn.modules.conv.Conv2d_conv2; i1 [64, 3, 3, 32] scale=0.00658757 zero_point=0
000000 02 0b 06 f1 0c e2 fe 16 08 19 05 fa 1a 00 04 04
       0.01317514 0.072463274 0.03952542 -0.09881355 0.07905084 -0.1976271 -0.01317514 0.14492655 0.05270056 0.16468926 0.03293785 -0.03952542 0.17127682 0.0 0.02635028 0.02635028
000010 0b 05 fc e0 0a 00 01 10 10 07 f1 e2 f7 f1 0f f7
       0.072463274 0.03293785 -0.02635028 -0.21080224 0.0658757 0.0 0.00658757 0.10540112 0.10540112 0.046112992 -0.09881355 -0.1976271 -0.05928813 -0.09881355 0.09881355 -0.05928813
000020 07 13 03 f5 0a 04 06 11 0d 04 fb 00 e1 fe 09 f5
       0.046112992 0.12516384 0.01976271 -0.072463274 0.0658757 0.02635028 0.03952542 0.11198869 0.08563841 0.02635028 -0.03293785 0.0 -0.20421468 -0.01317514 0.05928813 -0.072463274
000030 0d fa f1 e2 0d 0e ff fc 21 09 e0 d6 f2 f0 14 e1
       0.08563841 -0.03952542 -0.09881355 -0.1976271 0.08563841 0.092225984 -0.00658757 -0.02635028 0.2173898 0.05928813 -0.21080224 -0.27667794 -0.092225984 -0.10540112 0.1317514 -0.20421468
000040 0c 0b fb 0d ff 16 0e 14 0b 02 15 fd f8 01 0f 0b
       0.07905084 0.072463274 -0.03293785 0.08563841 -0.00658757 0.14492655 0.092225984 0.1317514 0.072463274 0.01317514 0.13833897 -0.01976271 -0.05270056 0.00658757 0.09881355 0.072463274
000050 13 01 fc f7 0f 05 fe fd 32 04 f9 d4 f4 05 02 e9
       0.12516384 0.00658757 -0.02635028 -0.05928813 0.09881355 0.03293785 -0.01317514 -0.01976271 0.32937852 0.02635028 -0.046112992 -0.2898531 -0.07905084 0.03293785 0.01317514 -0.15151411
000060 07 fc ff 18 06 cc 05 01 0c 02 ff fa 0f fd f8 35
       0.046112992 -0.02635028 -0.00658757 0.15810168 0.03952542 -0.34255365 0.03293785 0.00658757 0.07905084 0.01317514 -0.00658757 -0.03952542 0.09881355 -0.01976271 -0.05270056 0.3491412
000070 00 fa ee e3 0f 06 0a 0f 25 0b 03 ec fd fb 09 fb
       0.0 -0.03952542 -0.11857626 -0.19103953 0.09881355 0.03952542 0.0658757 0.09881355 0.2437401 0.072463274 0.01976271 -0.1317514 -0.01976271 -0.03293785 0.05928813 -0.03293785
000080 fc fa 07 0b f9 f5 0f 08 06 f7 16 05 ea 06 00 fd
       -0.02635028 -0.03952542 0.046112992 0.072463274 -0.046112992 -0.072463274 0.09881355 0.05270056 0.03952542 -0.05928813 0.14492655 0.03293785 -0.14492655 0.03952542 0.0 -0.01976271
000090 16 f1 00 fc 0f f9 09 0a 1c 00 10 f2 fd ff ff ff
       0.14492655 -0.09881355 0.0 -0.02635028 0.09881355 -0.046112992 0.05928813 0.0658757 0.18445197 0.0 0.10540112 -0.092225984 -0.01976271 -0.00658757 -0.00658757 -0.00658757
0000a0 f7 00 00 03 f4 f4 02 04 0d f3 12 07 09 00 f7 07
       -0.05928813 0.0 0.0 0.01976271 -0.07905084 -0.07905084 0.01317514 0.02635028 0.08563841 -0.08563841 0.11857626 0.046112992 0.05928813 0.0 -0.05928813 0.046112992
0000b0 17 f6 05 fd 07 f8 08 fc 19 fa 1e e4 0a fc f8 f4
       0.15151411 -0.0658757 0.03293785 -0.01976271 0.046112992 -0.05270056 0.05270056 -0.02635028 0.16468926 -0.03952542 0.1976271 -0.18445197 0.0658757 -0.02635028 -0.05270056 -0.07905084
0000c0 f2 eb 10 e4 e8 0b 08 f9 01 07 f7 01 fc 07 e1 1d
       -0.092225984 -0.13833897 0.10540112 -0.18445197 -0.15810168 0.072463274 0.05270056 -0.046112992 0.00658757 0.046112992 -0.05928813 0.00658757 -0.02635028 0.046112992 -0.20421468 0.19103953
0000d0 01 f2 e0 08 f4 ea 39 07 5f 06 1f 06 ed 0d f8 04
       0.00658757 -0.092225984 -0.21080224 0.05270056 -0.07905084 -0.14492655 0.3754915 0.046112992 0.62581915 0.03952542 0.20421468 0.03952542 -0.12516384 0.08563841 -0.05270056 0.02635028
0000e0 ed ec 2e 09 ea 0b ff f1 eb 15 ef ff 1f 08 f8 01
       -0.12516384 -0.1317514 0.30302823 0.05928813 -0.14492655 0.072463274 -0.00658757 -0.09881355 -0.13833897 0.13833897 -0.11198869 -0.00658757 0.20421468 0.05270056 -0.05270056 0.00658757
0000f0 f8 f1 04 f4 ef f7 28 0f 5b f9 2f 07 ee 05 f3 1b
       -0.05270056 -0.09881355 0.02635028 -0.07905084 -0.11198869 -0.05928813 0.2635028 0.09881355 0.5994689 -0.046112992 0.3096158 0.046112992 -0.11857626 0.03293785 -0.08563841 0.17786439

torch.fx.graph_module.GraphModule.__new__.<locals>.GraphModuleImpl/torch.nn.modules.conv.Conv2d_conv3; i1 [128, 3, 3, 64] scale=0.00429703 zero_point=0
000000 07 f9 00 05 f3 04 04 01 06 fb fb f7 f9 05 02 f3
       0.030079212 -0.030079212 0.0 0.02148515 -0.05586139 0.01718812 0.01718812 0.00429703 0.025782181 -0.02148515 -0.02148515 -0.03867327 -0.030079212 0.02148515 0.00859406 -0.05586139
000010 fe f7 f8 09 fd 09 0a fd f9 02 09 00 f8 fc f6 ff
       -0.00859406 -0.03867327 -0.03437624 0.03867327 -0.0128910905 0.03867327 0.0429703 -0.0128910905 -0.030079212 0.00859406 0.03867327 0.0 -0.03437624 -0.01718812 -0.0429703 -0.00429703
000020 05 ff fd 05 02 fb 02 f9 f3 f4 00 fe fd 02 fa f6
       0.02148515 -0.00429703 -0.0128910905 0.02148515 0.00859406 -0.02148515 0.00859406 -0.030079212 -0.05586139 -0.051564362 0.0 -0.00859406 -0.0128910905 0.00859406 -0.025782181 -0.0429703
000030 05 fd fc f8 f8 f7 fd fc ff f4 fe 02 05 f5 f8 02
       0.02148515 -0.0128910905 -0.01718812 -0.03437624 -0.03437624 -0.03867327 -0.0128910905 -0.01718812 -0.00429703 -0.051564362 -0.00859406 0.00859406 0.02148515 -0.047267333 -0.03437624 0.00859406
000040 02 f6 f6 fd ff fd ff 01 04 ff 03 04 f8 03 09 00
       0.00859406 -0.0429703 -0.0429703 -0.0128910905 -0.00429703 -0.0128910905 -0.00429703 0.00429703 0.01718812 -0.00429703 0.0128910905 0.01718812 -0.03437624 0.0128910905 0.03867327 0.0
000050 fb 03 f7 ff 01 03 f8 ff fc fc 02 f3 fa 06 01 f9
       -0.02148515 0.0128910905 -0.03867327 -0.00429703 0.00429703 0.0128910905 -0.03437624 -0.00429703 -0.01718812 -0.01718812 0.00859406 -0.05586139 -0.025782181 0.025782181 0.00429703 -0.030079212
000060 fd fc f4 09 f8 fd 05 fe f9 fd f6 03 05 f3 03 fb
       -0.0128910905 -0.01718812 -0.051564362 0.03867327 -0.03437624 -0.0128910905 0.02148515 -0.00859406 -0.030079212 -0.0128910905 -0.0429703 0.0128910905 0.02148515 -0.05586139 0.0128910905 -0.02148515
000070 f3 02 07 f4 04 03 fa 04 00 00 05 08 04 02 00 04
       -0.05586139 0.00859406 0.030079212 -0.051564362 0.01718812 0.0128910905 -0.025782181 0.01718812 0.0 0.0 0.02148515 0.03437624 0.01718812 0.00859406 0.0 0.01718812
000080 f7 f8 f3 f7 f5 03 04 00 00 04 f4 01 fe fb fc fd
       -0.03867327 -0.03437624 -0.05586139 -0.03867327 -0.047267333 0.0128910905 0.01718812 0.0 0.0 0.01718812 -0.051564362 0.00429703 -0.00859406 -0.02148515 -0.01718812 -0.0128910905
000090 05 fa fc fb 06 01 02 f7 fb fd f4 00 06 04 fd 01
       0.02148515 -0.025782181 -0.01718812 -0.02148515 0.025782181 0.00429703 0.00859406 -0.03867327 -0.02148515 -0.0128910905 -0.051564362 0.0 0.025782181 0.01718812 -0.0128910905 0.00429703
0000a0 fa 07 02 00 f8 01 f9 06 fb f6 08 fa fd fb f5 fa
       -0.025782181 0.030079212 0.00859406 0.0 -0.03437624 0.00429703 -0.030079212 0.025782181 -0.02148515 -0.0429703 0.03437624 -0.025782181 -0.0128910905 -0.02148515 -0.047267333 -0.025782181
0000b0 fd 07 fd 02 01 00 02 04 fd 00 fc 05 f6 f7 f4 0d
       -0.0128910905 0.030079212 -0.0128910905 0.00859406 0.00429703 0.0 0.00859406 0.01718812 -0.0128910905 0.0 -0.01718812 0.02148515 -0.0429703 -0.03867327 -0.051564362 0.05586139
0000c0 f8 05 fe 07 f2 00 f9 00 08 ff fd fe f6 f9 fa f6
       -0.03437624 0.02148515 -0.00859406 0.030079212 -0.060158424 0.0 -0.030079212 0.0 0.03437624 -0.00429703 -0.0128910905 -0.00859406 -0.0429703 -0.030079212 -0.025782181 -0.0429703
0000d0 f1 fc 03 05 f9 05 fe 04 ff fe 00 04 01 06 f9 fa
       -0.06445545 -0.01718812 0.0128910905 0.02148515 -0.030079212 0.02148515 -0.00859406 0.01718812 -0.00429703 -0.00859406 0.0 0.01718812 0.00429703 0.025782181 -0.030079212 -0.025782181
0000e0 01 ff fe fa 01 05 03 02 02 fa 02 f4 00 fa f9 f6
       0.00429703 -0.00429703 -0.00859406 -0.025782181 0.00429703 0.02148515 0.0128910905 0.00859406 0.00859406 -0.025782181 0.00859406 -0.051564362 0.0 -0.025782181 -0.030079212 -0.0429703
0000f0 fe fa 02 fd f2 05 fc f1 06 f5 04 ff fb 02 fe ff
       -0.00859406 -0.025782181 0.00859406 -0.0128910905 -0.060158424 0.02148515 -0.01718812 -0.06445545 0.025782181 -0.047267333 0.01718812 -0.00429703 -0.02148515 0.00859406 -0.00859406 -0.00429703

torch.fx.graph_module.GraphModule.__new__.<locals>.GraphModuleImpl;4 i1 [256, 128] scale=0.00551512 zero_point=0
000000 06 ed 14 15 fd 0c 0a f7 08 06 04 01 f8 18 f2 f8
       0.033090718 -0.10478728 0.1103024 0.11581752 -0.016545359 0.066181436 0.0551512 -0.04963608 0.04412096 0.033090718 0.02206048 0.00551512 -0.04412096 0.13236287 -0.07721168 -0.04412096
000010 fb f5 08 fd f7 f1 0f 07 ec 0a 01 14 f5 f7 f9 01
       -0.0275756 -0.06066632 0.04412096 -0.016545359 -0.04963608 -0.0827268 0.0827268 0.03860584 -0.1103024 0.0551512 0.00551512 0.1103024 -0.06066632 -0.04963608 -0.03860584 0.00551512
000020 ff 03 13 f9 e8 0a ea 0d 01 02 0e 0a f3 1b fa ee
       -0.00551512 0.016545359 0.10478728 -0.03860584 -0.13236287 0.0551512 -0.12133264 0.07169656 0.00551512 0.01103024 0.07721168 0.0551512 -0.07169656 0.14890824 -0.033090718 -0.09927216
000030 09 0a 0d fe fb fd 03 eb 0e f7 14 0d fc 08 f7 f5
       0.04963608 0.0551512 0.07169656 -0.01103024 -0.0275756 -0.016545359 0.016545359 -0.11581752 0.07721168 -0.04963608 0.1103024 0.07169656 -0.02206048 0.04412096 -0.04963608 -0.06066632
000040 f7 ff 03 03 10 f9 fc f9 05 0e 0b 05 f2 0d 05 0d
       -0.04963608 -0.00551512 0.016545359 0.016545359 0.08824192 -0.03860584 -0.02206048 -0.03860584 0.0275756 0.07721168 0.06066632 0.0275756 -0.07721168 0.07169656 0.0275756 0.07169656
000050 01 12 12 f1 f1 f9 03 fc 0d 02 f6 f5 f4 e4 f1 ea
       0.00551512 0.09927216 0.09927216 -0.0827268 -0.0827268 -0.03860584 0.016545359 -0.02206048 0.07169656 0.01103024 -0.0551512 -0.06066632 -0.066181436 -0.15442336 -0.0827268 -0.12133264
000060 0c fe 05 14 13 ff 00 fc 0d f8 01 05 ff e8 f3 1b
       0.066181436 -0.01103024 0.0275756 0.1103024 0.10478728 -0.00551512 0.0 -0.02206048 0.07169656 -0.04412096 0.00551512 0.0275756 -0.00551512 -0.13236287 -0.07169656 0.14890824
000070 fa f4 07 01 08 03 06 04 f4 0f fc 04 fa fa fb fb
       -0.033090718 -0.066181436 0.03860584 0.00551512 0.04412096 0.016545359 0.033090718 0.02206048 -0.066181436 0.0827268 -0.02206048 0.02206048 -0.033090718 -0.033090718 -0.0275756 -0.0275756
000080 06 00 f4 0e e1 e7 f8 1b 00 13 02 db 0f 0d e6 ee
       0.033090718 0.0 -0.066181436 0.07721168 -0.17096873 -0.137878 -0.04412096 0.14890824 0.0 0.10478728 0.01103024 -0.20405944 0.0827268 0.07169656 -0.14339311 -0.09927216
000090 f9 12 f4 09 e6 1d 0c 0c 09 11 fd ef f4 06 f2 05
       -0.03860584 0.09927216 -0.066181436 0.04963608 -0.14339311 0.15993848 0.066181436 0.066181436 0.04963608 0.09375704 -0.016545359 -0.09375704 -0.066181436 0.033090718 -0.07721168 0.0275756
0000a0 00 fc 00 15 1d fa ff f5 f3 eb f3 0d 26 f9 f5 10
       0.0 -0.02206048 0.0 0.11581752 0.15993848 -0.033090718 -0.00551512 -0.06066632 -0.07169656 -0.11581752 -0.07169656 0.07169656 0.20957457 -0.03860584 -0.06066632 0.08824192
0000b0 f6 df 0e 07 f9 f5 0f 0b 32 f4 e6 05 1c eb 04 ff
       -0.0551512 -0.18199895 0.07721168 0.03860584 -0.03860584 -0.06066632 0.0827268 0.06066632 0.275756 -0.066181436 -0.14339311 0.0275756 0.15442336 -0.11581752 0.02206048 -0.00551512
0000c0 02 16 09 06 f5 23 0a 15 fe f5 f2 00 ec f2 0e 0b
       0.01103024 0.12133264 0.04963608 0.033090718 -0.06066632 0.1930292 0.0551512 0.11581752 -0.01103024 -0.06066632 -0.07721168 0.0 -0.1103024 -0.07721168 0.07721168 0.06066632
0000d0 22 d8 f3 1f 10 f9 f7 13 08 04 f6 f7 e2 1c 2d 19
       0.18751408 -0.2206048 -0.07169656 0.17096873 0.08824192 -0.03860584 -0.04963608 0.10478728 0.04412096 0.02206048 -0.0551512 -0.04963608 -0.1654536 0.15442336 0.2481804 0.137878
0000e0 f4 26 db 0a f8 ea 02 02 ef f2 ed e5 f7 18 17 f3
       -0.066181436 0.20957457 -0.20405944 0.0551512 -0.04412096 -0.12133264 0.01103024 0.01103024 -0.09375704 -0.07721168 -0.10478728 -0.14890824 -0.04963608 0.13236287 0.12684776 -0.07169656
0000f0 05 06 00 f6 d5 fc 05 00 fc e9 0b 09 f4 1e 0d e7
       0.0275756 0.033090718 0.0 -0.0551512 -0.23715016 -0.02206048 0.0275756 0.0 -0.02206048 -0.12684776 0.06066632 0.04963608 -0.066181436 0.1654536 0.07169656 -0.137878

torch.fx.graph_module.GraphModule.__new__.<locals>.GraphModuleImpl;5 i1 [128, 256] scale=0.00563266 zero_point=0
000000 08 ec 01 fb fb 07 08 04 0b 00 03 07 07 0e 0d 15
       0.04506128 -0.112653196 0.00563266 -0.028163299 -0.028163299 0.039428618 0.04506128 0.02253064 0.06195926 0.0 0.01689798 0.039428618 0.039428618 0.078857236 0.07322458 0.11828586
000010 ff 06 00 f3 f9 05 0b 0b 10 06 08 f5 0a 07 03 04
       -0.00563266 0.03379596 0.0 -0.07322458 -0.039428618 0.028163299 0.06195926 0.06195926 0.09012256 0.03379596 0.04506128 -0.06195926 0.056326598 0.039428618 0.01689798 0.02253064
000020 0c 12 ff f5 0c 2b 03 f7 0a fa fa fa 0a f8 fe 05
       0.06759192 0.10138788 -0.00563266 -0.06195926 0.06759192 0.24220437 0.01689798 -0.05069394 0.056326598 -0.03379596 -0.03379596 -0.03379596 0.056326598 -0.04506128 -0.01126532 0.028163299
000030 f1 f4 fb da 0e 03 fa fe f9 f4 01 fa e6 04 00 03
       -0.0844899 -0.06759192 -0.028163299 -0.21404107 0.078857236 0.01689798 -0.03379596 -0.01126532 -0.039428618 -0.06759192 0.00563266 -0.03379596 -0.14644916 0.02253064 0.0 0.01689798
000040 03 f6 f7 f3 eb 0c ff 0d f9 f5 f4 f7 01 00 03 00
       0.01689798 -0.056326598 -0.05069394 -0.07322458 -0.11828586 0.06759192 -0.00563266 0.07322458 -0.039428618 -0.06195926 -0.06759192 -0.05069394 0.00563266 0.0 0.01689798 0.0
000050 07 ff f5 11 03 0a 08 01 14 09 fb 06 17 fc 0c 05
       0.039428618 -0.00563266 -0.06195926 0.09575522 0.01689798 0.056326598 0.04506128 0.00563266 0.112653196 0.05069394 -0.028163299 0.03379596 0.12955117 -0.02253064 0.06759192 0.028163299
000060 ff 08 fa 0a 08 01 0a 08 03 07 f6 04 06 fe 01 00
       -0.00563266 0.04506128 -0.03379596 0.056326598 0.04506128 0.00563266 0.056326598 0.04506128 0.01689798 0.039428618 -0.056326598 0.02253064 0.03379596 -0.01126532 0.00563266 0.0
000070 f7 0a 0d fb 09 03 04 0f 01 09 02 f5 05 05 11 e5
       -0.05069394 0.056326598 0.07322458 -0.028163299 0.05069394 0.01689798 0.02253064 0.0844899 0.00563266 0.05069394 0.01126532 -0.06195926 0.028163299 0.028163299 0.09575522 -0.15208182
000080 09 00 0e f9 fd 05 0b 07 03 00 03 08 f8 fa df 01
       0.05069394 0.0 0.078857236 -0.039428618 -0.01689798 0.028163299 0.06195926 0.039428618 0.01689798 0.0 0.01689798 0.04506128 -0.04506128 -0.03379596 -0.18587777 0.00563266
000090 f8 08 01 13 00 04 04 13 f0 ff 06 d8 09 02 f7 03
       -0.04506128 0.04506128 0.00563266 0.107020535 0.0 0.02253064 0.02253064 0.107020535 -0.09012256 -0.00563266 0.03379596 -0.22530639 0.05069394 0.01126532 -0.05069394 0.01689798
0000a0 f9 08 07 fa fc ee fd 05 fb fe 06 01 fe f1 01 f7
       -0.039428618 0.04506128 0.039428618 -0.03379596 -0.02253064 -0.10138788 -0.01689798 0.028163299 -0.028163299 -0.01126532 0.03379596 0.00563266 -0.01126532 -0.0844899 0.00563266 -0.05069394
0000b0 02 09 fb fe 15 07 fc f4 05 01 03 f5 fa 07 e8 03
       0.01126532 0.05069394 -0.028163299 -0.01126532 0.11828586 0.039428618 -0.02253064 -0.06759192 0.028163299 0.00563266 0.01689798 -0.06195926 -0.03379596 0.039428618 -0.13518384 0.01689798
0000c0 e1 08 04 02 08 01 02 12 09 f8 02 06 06 0c fd 07
       -0.17461246 0.04506128 0.02253064 0.01126532 0.04506128 0.00563266 0.01126532 0.10138788 0.05069394 -0.04506128 0.01126532 0.03379596 0.03379596 0.06759192 -0.01689798 0.039428618
0000d0 fd 04 fd 05 0d 0e 03 f4 f7 02 f7 0e f5 02 f6 fc
       -0.01689798 0.02253064 -0.01689798 0.028163299 0.07322458 0.078857236 0.01689798 -0.06759192 -0.05069394 0.01126532 -0.05069394 0.078857236 -0.06195926 0.01126532 -0.056326598 -0.02253064
0000e0 01 01 f4 15 f3 05 12 03 01 05 01 09 f2 09 f3 f1
       0.00563266 0.00563266 -0.06759192 0.11828586 -0.07322458 0.028163299 0.10138788 0.01689798 0.00563266 0.028163299 0.00563266 0.05069394 -0.078857236 0.05069394 -0.07322458 -0.0844899
0000f0 fa 0e 00 fe 07 03 01 0a fd e4 05 06 0b 0a 01 fb
       -0.03379596 0.078857236 0.0 -0.01126532 0.039428618 0.01689798 0.00563266 0.056326598 -0.01689798 -0.15771447 0.028163299 0.03379596 0.06195926 0.056326598 0.00563266 -0.028163299

torch.fx.graph_module.GraphModule.__new__.<locals>.GraphModuleImpl;6 i1 [10, 128] scale=0.00591116 zero_point=0
000000 f1 e8 01 0a f4 ee 06 d6 fc f5 08 07 0e 05 17 ee
       -0.0886674 -0.14186783 0.00591116 0.0591116 -0.070933916 -0.10640088 0.035466958 -0.24826871 -0.02364464 -0.06502276 0.04728928 0.041378118 0.082756236 0.0295558 0.13595667 -0.10640088
000010 fe fc e0 fa f9 fc fe f9 c5 09 fc f4 0e f1 10 10
       -0.01182232 -0.02364464 -0.18915711 -0.035466958 -0.041378118 -0.02364464 -0.01182232 -0.041378118 -0.34875843 0.05320044 -0.02364464 -0.070933916 0.082756236 -0.0886674 0.09457856 0.09457856
000020 19 dd 09 cb ff f0 f6 d1 05 06 fd 11 fe 07 0d 16
       0.14777899 -0.2068906 0.05320044 -0.31329146 -0.00591116 -0.09457856 -0.0591116 -0.27782452 0.0295558 0.035466958 -0.017733479 0.10048971 -0.01182232 0.041378118 0.07684508 0.13004552
000030 09 06 f8 fa e0 09 f4 f0 14 0c 0e 07 1d 0f fb f7
       0.05320044 0.035466958 -0.04728928 -0.035466958 -0.18915711 0.05320044 -0.070933916 -0.09457856 0.1182232 0.070933916 0.082756236 0.041378118 0.17142363 0.0886674 -0.0295558 -0.05320044
000040 06 2f c9 11 02 02 fa e3 f7 ef f9 18 fc 00 fc e9
       0.035466958 0.27782452 -0.3251138 0.10048971 0.01182232 0.01182232 -0.035466958 -0.17142363 -0.05320044 -0.10048971 -0.041378118 0.14186783 -0.02364464 0.0 -0.02364464 -0.13595667
000050 0a f5 f8 05 1d fb fe 0c 18 0c fe 0b 04 f3 e8 eb
       0.0591116 -0.06502276 -0.04728928 0.0295558 0.17142363 -0.0295558 -0.01182232 0.070933916 0.14186783 0.070933916 -0.01182232 0.06502276 0.02364464 -0.07684508 -0.14186783 -0.124134354
000060 ea 00 db e7 16 f9 05 f6 ea 08 07 bd 06 19 f7 0a
       -0.13004552 0.0 -0.21871291 -0.14777899 0.13004552 -0.041378118 0.0295558 -0.0591116 -0.13004552 0.04728928 0.041378118 -0.3960477 0.035466958 0.14777899 -0.05320044 0.0591116
000070 02 08 fb 0c 16 fa e2 e9 0b 0b 13 f9 da ff f5 02
       0.01182232 0.04728928 -0.0295558 0.070933916 0.13004552 -0.035466958 -0.1773348 -0.13595667 0.06502276 0.06502276 0.112312034 -0.041378118 -0.22462407 -0.00591116 -0.06502276 0.01182232
000080 ff 20 ff fe 02 e8 d8 11 f2 a2 09 f6 f1 e1 05 d8
       -0.00591116 0.18915711 -0.00591116 -0.01182232 0.01182232 -0.14186783 -0.2364464 0.10048971 -0.082756236 -0.55564904 0.05320044 -0.0591116 -0.0886674 -0.18324596 0.0295558 -0.2364464
000090 0c 0a ef f3 fe fb 02 ed d3 f7 10 4e 06 f1 05 ef
       0.070933916 0.0591116 -0.10048971 -0.07684508 -0.01182232 -0.0295558 0.01182232 -0.112312034 -0.26600218 -0.05320044 0.09457856 0.46107048 0.035466958 -0.0886674 0.0295558 -0.10048971
0000a0 f7 f5 e4 f6 07 0e 14 f7 0f f9 f1 0e 01 2d 00 17
       -0.05320044 -0.06502276 -0.16551247 -0.0591116 0.041378118 0.082756236 0.1182232 -0.05320044 0.0886674 -0.041378118 -0.0886674 0.082756236 0.00591116 0.26600218 0.0 0.13595667
0000b0 e0 2d 2f 0f 13 f0 e0 1f fd e2 fd 0a 09 0d 03 be
       -0.18915711 0.26600218 0.27782452 0.0886674 0.112312034 -0.09457856 -0.18915711 0.18324596 -0.017733479 -0.1773348 -0.017733479 0.0591116 0.05320044 0.07684508 0.017733479 -0.39013654
0000c0 e5 e0 06 e2 06 09 d2 d4 ef 2a de 0e 03 ff fd 21
       -0.15960132 -0.18915711 0.035466958 -0.1773348 0.035466958 0.05320044 -0.27191335 -0.26009104 -0.10048971 0.24826871 -0.20097943 0.082756236 0.017733479 -0.00591116 -0.017733479 0.19506827
0000d0 eb 03 0b da 01 f5 f8 f5 f5 fc d7 c1 f2 07 f2 04
       -0.124134354 0.017733479 0.06502276 -0.22462407 0.00591116 -0.06502276 -0.04728928 -0.06502276 -0.06502276 -0.02364464 -0.24235755 -0.37240306 -0.082756236 0.041378118 -0.082756236 0.02364464
0000e0 c5 e4 06 f7 04 05 07 f8 24 fa f9 9b fd de f4 e6
       -0.34875843 -0.16551247 0.035466958 -0.05320044 0.02364464 0.0295558 0.041378118 -0.04728928 0.21280175 -0.035466958 -0.041378118 -0.5970271 -0.017733479 -0.20097943 -0.070933916 -0.15369016
0000f0 10 16 0c 04 d7 f8 fe 0e 00 0a 01 e6 dd f2 0a f3
       0.09457856 0.13004552 0.070933916 0.02364464 -0.24235755 -0.04728928 -0.01182232 0.082756236 0.0 0.0591116 0.00591116 -0.15369016 -0.2068906 -0.082756236 0.0591116 -0.07684508
