tflm/tensorflow/lite/micro/examples/mnist/models/mnist_pruned_int8.tflite (tflite, 61936 bytes, 4 tensors)

torch.fx.graph_module.GraphModule.__new__.<locals>.GraphModuleImpl/torch.nn.modules.conv.Conv2d_conv1; i1 [1, 3, 3, 16] scale=0.00437147 zero_point=0
0	0xf5	-0.048086166
1	0xcf	-0.21420202
2	0x12	0.07868646
3	0xfd	-0.0131144095
4	0x56	0.3759464
5	0xe5	-0.118029684
6	0x32	0.2185735
7	0xf3	-0.05682911
8	0xc8	-0.24480231
9	0xd7	-0.17923026
10	0x19	0.10928675
11	0xfe	-0.00874294
12	0x0f	0.065572046
13	0x3f	0.2754026
14	0x8e	-0.49834755
15	0x09	0.03934323
16	0x43	0.2928885
17	0xdf	-0.1442585
18	0x62	0.42840403
19	0x0d	0.05682911
20	0xb3	-0.33660316
21	0x49	0.3191173
22	0xfe	-0.00874294
23	0xfe	-0.00874294
24	0xe0	-0.13988703
25	0x83	-0.54643375
26	0x3b	0.25791672
27	0xae	-0.35846052
28	0x3e	0.27103114
29	0x27	0.17048733
30	0x85	-0.5376908
31	0xa9	-0.38031787
32	0x10	0.06994352
33	0x91	-0.48523316
34	0x2f	0.20545909
35	0xc5	-0.25791672
36	0x87	-0.52894783
37	0x01	0.00437147
38	0x1b	0.118029684
39	0x7a	0.5333193
40	0x63	0.43277553
41	0xb3	-0.33660316
42	0x55	0.37157494
43	0x3a	0.25354525
44	0xc5	-0.25791672
45	0x4d	0.33660316
46	0x9b	-0.44151846
47	0xc1	-0.2754026
48	0xec	-0.0874294
49	0x66	0.44588992
50	0x53	0.362832
51	0x5e	0.41091818
52	0xed	-0.083057925
53	0x2a	0.18360174
54	0x5c	0.40217522
55	0x3e	0.27103114
56	0xf1	-0.065572046
57	0x2d	0.19671614
58	0x6e	0.4808617
59	0xf6	-0.0437147
60	0x01	0.00437147
61	0xf5	-0.048086166
62	0x07	0.030600289
63	0x9e	-0.42840403
64	0x19	0.10928675
65	0xea	-0.09617233
66	0xd4	-0.19234467
67	0xec	-0.0874294
68	0xe4	-0.122401156
69	0x19	0.10928675
70	0xdc	-0.15737292
71	0x2a	0.18360174
72	0x64	0.437147
73	0x1a	0.11365822
74	0x6c	0.47211874
75	0xdc	-0.15737292
76	0x06	0.026228819
77	0xf5	-0.048086166
78	0x0a	0.0437147
79	0xbe	-0.288517
80	0x6f	0.48523316
81	0x5c	0.40217522
82	0x93	-0.4764902
83	0xb6	-0.32348877
84	0x27	0.17048733
85	0x59	0.38906083
86	0xbd	-0.2928885
87	0xc0	-0.27977407
88	0x3c	0.26228818
89	0x5b	0.39780375
90	0xd5	-0.1879732
91	0x5f	0.41528964
92	0x84	-0.5420623
93	0x60	0.4196611
94	0xa7	-0.38906083
95	0x14	0.0874294
96	0x81	-0.5551767
97	0x36	0.23605937
98	0xd9	-0.17048733
99	0xfd	-0.0131144095
100	0x4a	0.32348877
101	0x98	-0.45463288
102	0x68	0.45463288
103	0xcf	-0.21420202
104	0xe2	-0.13114409
105	0xf4	-0.052457638
106	0x4c	0.3322317
107	0x19	0.10928675
108	0x43	0.2928885
109	0xb8	-0.31474584
110	0x6b	0.46774727
111	0xb8	-0.31474584
112	0xc3	-0.26665965
113	0x19	0.10928675
114	0xa2	-0.41091818
115	0x71	0.4939761
116	0x6f	0.48523316
117	0xe7	-0.10928675
118	0xec	-0.0874294
119	0xb4	-0.3322317
120	0x5b	0.39780375
121	0x75	0.511462
122	0xfb	-0.02185735
123	0xdb	-0.16174439
124	0x63	0.43277553
125	0xbe	-0.288517
126	0x28	0.1748588
127	0xf1	-0.065572046
128	0x0f	0.065572046
129	0x57	0.38031787
130	0x3e	0.27103114
131	0x37	0.24043085
132	0x0a	0.0437147
133	0x45	0.30163142
134	0xc6	-0.25354525
135	0xe5	-0.118029684
136	0x09	0.03934323
137	0xf8	-0.03497176
138	0xd4	-0.19234467
139	0xf2	-0.061200578
140	0xaa	-0.3759464
141	0xa1	-0.41528964
142	0xf1	-0.065572046
143	0x7c	0.5420623

torch.fx.graph_module.GraphModule.__new__.<locals>.GraphModuleImpl/torch.nn.modules.conv.Conv2d_conv2; i1 [32, 3, 3, 16] scale=0.00506448 zero_point=0
0	0x0c	0.06077376
1	0x19	0.12661201
2	0x06	0.03038688
3	0x34	0.26335296
4	0x35	0.26841745
5	0x15	0.10635408
6	0x09	0.04558032
7	0x04	0.02025792
8	0xfd	-0.01519344
9	0x15	0.10635408
10	0x05	0.0253224
11	0xf8	-0.04051584
12	0x07	0.03545136
13	0x04	0.02025792
14	0x06	0.03038688
15	0xfa	-0.03038688
16	0x01	0.00506448
17	0x14	0.1012896
18	0xea	-0.11141856
19	0x0d	0.06583824
20	0x2e	0.23296608
21	0x09	0.04558032
22	0xf4	-0.06077376
23	0x00	0.0
24	0x1e	0.1519344
25	0x1a	0.13167648
26	0x04	0.02025792
27	0x13	0.09622512
28	0xf9	-0.03545136
29	0x02	0.01012896
30	0xf4	-0.06077376
31	0x11	0.08609616
32	0xf8	-0.04051584
33	0x17	0.11648304
34	0xf6	-0.0506448
35	0xf6	-0.0506448
36	0x06	0.03038688
37	0x0e	0.07090272
38	0x0a	0.0506448
39	0x28	0.2025792
40	0x28	0.2025792
41	0x1e	0.1519344
42	0x12	0.09116064
43	0x12	0.09116064
44	0xe6	-0.13167648
45	0x15	0.10635408
46	0xe7	-0.12661201
47	0x10	0.08103168
48	0x33	0.25828847
49	0xff	-0.00506448
50	0xe2	-0.1519344
51	0xfa	-0.03038688
52	0xe9	-0.11648304
53	0x19	0.12661201
54	0x03	0.01519344
55	0x1e	0.1519344
56	0xf2	-0.07090272
57	0x0a	0.0506448
58	0x01	0.00506448
59	0x14	0.1012896
60	0x03	0.01519344
61	0x4d	0.38996497
62	0xf9	-0.03545136
63	0xd6	-0.21270816
64	0x16	0.11141856
65	0xf2	-0.07090272
66	0x18	0.12154752
67	0xdf	-0.16712785
68	0xba	-0.3545136
69	0x09	0.04558032
70	0x01	0.00506448
71	0x25	0.18738577
72	0xfd	-0.01519344
73	0xee	-0.09116064
74	0x22	0.17219232
75	0x0d	0.06583824
76	0x07	0.03545136
77	0x32	0.25322402
78	0xf7	-0.04558032
79	0xe2	-0.1519344
80	0xea	-0.11141856
81	0xe3	-0.14686993
82	0x4f	0.4000939
83	0xd6	-0.21270816
84	0xce	-0.25322402
85	0xf1	-0.0759672
86	0xfb	-0.0253224
87	0x32	0.25322402
88	0xe1	-0.15699887
89	0xc7	-0.28867537
90	0x20	0.16206336
91	0xd9	-0.19751471
92	0x01	0.00506448
93	0x1f	0.15699887
94	0xfd	-0.01519344
95	0x09	0.04558032
96	0xf0	-0.08103168
97	0x0a	0.0506448
98	0xff	-0.00506448
99	0xf9	-0.03545136
100	0x0e	0.07090272
101	0xea	-0.11141856
102	0xe7	-0.12661201
103	0x01	0.00506448
104	0xd8	-0.2025792
105	0x1c	0.14180544
106	0xeb	-0.10635408
107	0xc7	-0.28867537
108	0x0b	0.05570928
109	0x1a	0.13167648
110	0x13	0.09622512
111	0xff	-0.00506448
112	0xd8	-0.2025792
113	0x08	0.04051584
114	0x1a	0.13167648
115	0xf1	-0.0759672
116	0xfa	-0.03038688
117	0xe8	-0.12154752
118	0xe5	-0.13674095
119	0xf4	-0.06077376
120	0xe1	-0.15699887
121	0x46	0.3545136
122	0xe3	-0.14686993
123	0xdc	-0.18232128
124	0xfa	-0.03038688
125	0xfc	-0.02025792
126	0x15	0.10635408
127	0x23	0.1772568
128	0xe5	-0.13674095
129	0x0f	0.0759672
130	0x07	0.03545136
131	0xe8	-0.12154752
132	0xfd	-0.01519344
133	0xf2	-0.07090272
134	0xce	-0.25322402
135	0xc3	-0.3089333
136	0x02	0.01012896
137	0x4a	0.37477154
138	0xec	-0.1012896
139	0xeb	-0.10635408
140	0xe4	-0.14180544
141	0xd7	-0.20764369
142	0x0b	0.05570928
143	0x25	0.18738577
144	0xf7	-0.04558032
145	0xf6	-0.0506448
146	0x0c	0.06077376
147	0x02	0.01012896
148	0x1f	0.15699887
149	0xfe	-0.01012896
150	0xf5	-0.05570928
151	0x09	0.04558032
152	0x0d	0.06583824
153	0x09	0.04558032
154	0xfd	-0.01519344
155	0x13	0.09622512
156	0x00	0.0
157	0xfd	-0.01519344
158	0xef	-0.08609616
159	0xf1	-0.0759672
160	0x12	0.09116064
161	0xf6	-0.0506448
162	0x1e	0.1519344
163	0x0e	0.07090272
164	0x14	0.1012896
165	0x10	0.08103168
166	0x12	0.09116064
167	0x0c	0.06077376
168	0x15	0.10635408
169	0xfc	-0.02025792
170	0x06	0.03038688
171	0x29	0.20764369
172	0xf6	-0.0506448
173	0x02	0.01012896
174	0xdd	-0.1772568
175	0xf3	-0.06583824
176	0xf0	-0.08103168
177	0xfe	-0.01012896
178	0x30	0.24309504
179	0x21	0.16712785
180	0x1c	0.14180544
181	0x07	0.03545136
182	0x16	0.11141856
183	0x14	0.1012896
184	0xfb	-0.0253224
185	0x15	0.10635408
186	0x17	0.11648304
187	0x09	0.04558032
188	0x14	0.1012896
189	0x18	0.12154752
190	0xf5	-0.05570928
191	0xf1	-0.0759672
192	0x00	0.0
193	0xd6	-0.21270816
194	0x04	0.02025792
195	0xe2	-0.1519344
196	0xe9	-0.11648304
197	0x00	0.0
198	0x00	0.0
199	0x04	0.02025792
200	0xfc	-0.02025792
201	0xf4	-0.06077376
202	0xff	-0.00506448
203	0x04	0.02025792
204	0x06	0.03038688
205	0xfa	-0.03038688
206	0xec	-0.1012896
207	0xf5	-0.05570928
208	0x1c	0.14180544
209	0xe8	-0.12154752
210	0xf5	-0.05570928
211	0x07	0.03545136
212	0xfd	-0.01519344
213	0x21	0.16712785
214	0xf3	-0.06583824
215	0x0a	0.0506448
216	0x04	0.02025792
217	0xd8	-0.2025792
218	0xf8	-0.04051584
219	0x17	0.11648304
220	0xf7	-0.04558032
221	0x1c	0.14180544
222	0xf0	-0.08103168
223	0xe5	-0.13674095
224	0x21	0.16712785
225	0x10	0.08103168
226	0xf1	-0.0759672
227	0x41	0.3291912
228	0x46	0.3545136
229	0x18	0.12154752
230	0xf4	-0.06077376
231	0x0c	0.06077376
232	0x07	0.03545136
233	0x15	0.10635408
234	0xfc	-0.02025792
235	0x0a	0.0506448
236	0x0c	0.06077376
237	0x10	0.08103168
238	0x07	0.03545136
239	0xd9	-0.19751471
240	0x10	0.08103168
241	0xd0	-0.24309504
242	0x17	0.11648304
243	0xec	-0.1012896
244	0x05	0.0253224
245	0xf9	-0.03545136
246	0xf0	-0.08103168
247	0x13	0.09622512
248	0xed	-0.09622512
249	0xf4	-0.06077376
250	0xdb	-0.18738577
251	0xf7	-0.04558032
252	0xf9	-0.03545136
253	0x20	0.16206336
254	0x12	0.09116064
255	0xfc	-0.02025792

torch.fx.graph_module.GraphModule.__new__.<locals>.GraphModuleImpl;5 i1 [64, 800] scale=0.00310979 zero_point=0
0	0x08	0.02487832
1	0x06	0.018658739
2	0x1c	0.087074116
3	0x13	0.05908601
4	0xec	-0.0621958
5	0x01	0.00310979
6	0x16	0.06841538
7	0x14	0.0621958
8	0x07	0.021768529
9	0xef	-0.05286643
10	0x23	0.10884265
11	0x31	0.1523797
12	0x27	0.12128181
13	0x03	0.009329369
14	0x0b	0.03420769
15	0x09	0.02798811
16	0x14	0.0621958
17	0x28	0.1243916
18	0x04	0.01243916
19	0xfd	-0.009329369
20	0x0e	0.043537058
21	0x19	0.077744745
22	0x0f	0.04664685
23	0xfe	-0.00621958
24	0xf6	-0.0310979
25	0xf7	-0.02798811
26	0xf7	-0.02798811
27	0xfa	-0.018658739
28	0x0f	0.04664685
29	0xf6	-0.0310979
30	0xf8	-0.02487832
31	0x0d	0.040427268
32	0xff	-0.00310979
33	0xfd	-0.009329369
34	0xe7	-0.077744745
35	0x02	0.00621958
36	0x09	0.02798811
37	0xf1	-0.04664685
38	0xfc	-0.01243916
39	0xf3	-0.040427268
40	0xfd	-0.009329369
41	0x09	0.02798811
42	0x17	0.07152517
43	0x07	0.021768529
44	0xf3	-0.040427268
45	0xfc	-0.01243916
46	0xe8	-0.074634954
47	0xeb	-0.06530559
48	0x0c	0.037317477
49	0x27	0.12128181
50	0xfe	-0.00621958
51	0xee	-0.05597622
52	0xf0	-0.04975664
53	0x09	0.02798811
54	0xe7	-0.077744745
55	0x01	0.00310979
56	0x09	0.02798811
57	0x0a	0.0310979
58	0x19	0.077744745
59	0x12	0.05597622
60	0xf3	-0.040427268
61	0xff	-0.00310979
62	0xf8	-0.02487832
63	0x10	0.04975664
64	0x08	0.02487832
65	0xfc	-0.01243916
66	0xe0	-0.09951328
67	0xc9	-0.17103845
68	0x1c	0.087074116
69	0x20	0.09951328
70	0xfa	-0.018658739
71	0xf7	-0.02798811
72	0xfb	-0.01554895
73	0x23	0.10884265
74	0x0c	0.037317477
75	0xe6	-0.080854535
76	0xf3	-0.040427268
77	0xf4	-0.037317477
78	0x08	0.02487832
79	0x12	0.05597622
80	0xf2	-0.043537058
81	0xe3	-0.090183906
82	0xe8	-0.074634954
83	0xf4	-0.037317477
84	0xe6	-0.080854535
85	0xde	-0.10573286
86	0xe1	-0.09640349
87	0xeb	-0.06530559
88	0xf3	-0.040427268
89	0x0d	0.040427268
90	0xf4	-0.037317477
91	0x00	0.0
92	0xf8	-0.02487832
93	0xf7	-0.02798811
94	0xf3	-0.040427268
95	0xe9	-0.07152517
96	0xfc	-0.01243916
97	0xe3	-0.090183906
98	0x05	0.01554895
99	0x18	0.074634954
100	0xfc	-0.01243916
101	0xf0	-0.04975664
102	0xfe	-0.00621958
103	0xf2	-0.043537058
104	0xfa	-0.018658739
105	0xf5	-0.03420769
106	0xf5	-0.03420769
107	0x0a	0.0310979
108	0xf7	-0.02798811
109	0x0a	0.0310979
110	0x01	0.00310979
111	0xe9	-0.07152517
112	0xdf	-0.10262307
113	0x04	0.01243916
114	0x09	0.02798811
115	0x05	0.01554895
116	0xfe	-0.00621958
117	0xd6	-0.13061118
118	0xfd	-0.009329369
119	0x02	0.00621958
120	0xf7	-0.02798811
121	0xe5	-0.083964325
122	0xe3	-0.090183906
123	0x09	0.02798811
124	0x09	0.02798811
125	0x07	0.021768529
126	0x05	0.01554895
127	0x07	0.021768529
128	0x05	0.01554895
129	0xff	-0.00310979
130	0x04	0.01243916
131	0xfe	-0.00621958
132	0x08	0.02487832
133	0xfc	-0.01243916
134	0xfa	-0.018658739
135	0x05	0.01554895
136	0xf3	-0.040427268
137	0x02	0.00621958
138	0x0b	0.03420769
139	0x0e	0.043537058
140	0x0e	0.043537058
141	0x14	0.0621958
142	0x0a	0.0310979
143	0xfd	-0.009329369
144	0xfc	-0.01243916
145	0x06	0.018658739
146	0x1c	0.087074116
147	0x06	0.018658739
148	0xeb	-0.06530559
149	0x08	0.02487832
150	0xfe	-0.00621958
151	0x11	0.05286643
152	0x06	0.018658739
153	0x16	0.06841538
154	0x03	0.009329369
155	0x06	0.018658739
156	0x11	0.05286643
157	0x09	0.02798811
158	0x0c	0.037317477
159	0xf8	-0.02487832
160	0x11	0.05286643
161	0x1e	0.0932937
162	0x2a	0.13061118
163	0x1b	0.083964325
164	0x09	0.02798811
165	0x22	0.10573286
166	0x1d	0.090183906
167	0x1b	0.083964325
168	0x09	0.02798811
169	0xd3	-0.13994054
170	0x03	0.009329369
171	0x33	0.15859929
172	0x24	0.11195244
173	0xe6	-0.080854535
174	0xdf	-0.10262307
175	0x00	0.0
176	0xfd	-0.009329369
177	0x02	0.00621958
178	0x1e	0.0932937
179	0x00	0.0
180	0xf2	-0.043537058
181	0x05	0.01554895
182	0xf4	-0.037317477
183	0x04	0.01243916
184	0xf1	-0.04664685
185	0xff	-0.00310979
186	0x06	0.018658739
187	0x03	0.009329369
188	0xeb	-0.06530559
189	0xf3	-0.040427268
190	0x0c	0.037317477
191	0x0e	0.043537058
192	0x12	0.05597622
193	0x12	0.05597622
194	0xe7	-0.077744745
195	0x0d	0.040427268
196	0x0f	0.04664685
197	0x0a	0.0310979
198	0xfe	-0.00621958
199	0x0c	0.037317477
200	0x14	0.0621958
201	0xdb	-0.11506223
202	0xfe	-0.00621958
203	0xfa	-0.018658739
204	0x03	0.009329369
205	0xfe	-0.00621958
206	0xef	-0.05286643
207	0x03	0.009329369
208	0x02	0.00621958
209	0x06	0.018658739
210	0x0e	0.043537058
211	0xec	-0.0621958
212	0xe7	-0.077744745
213	0xf6	-0.0310979
214	0x15	0.06530559
215	0x09	0.02798811
216	0xe7	-0.077744745
217	0xe9	-0.07152517
218	0xfd	-0.009329369
219	0xfe	-0.00621958
220	0x15	0.06530559
221	0xfa	-0.018658739
222	0xf1	-0.04664685
223	0x08	0.02487832
224	0x19	0.077744745
225	0xf1	-0.04664685
226	0x06	0.018658739
227	0x00	0.0
228	0x19	0.077744745
229	0x09	0.02798811
230	0xfd	-0.009329369
231	0x0b	0.03420769
232	0x07	0.021768529
233	0x0b	0.03420769
234	0xf7	-0.02798811
235	0x04	0.01243916
236	0x0e	0.043537058
237	0x04	0.01243916
238	0x0d	0.040427268
239	0xfe	-0.00621958
240	0xfb	-0.01554895
241	0x0d	0.040427268
242	0x11	0.05286643
243	0x0f	0.04664685
244	0x05	0.01554895
245	0xfb	-0.01554895
246	0xfb	-0.01554895
247	0xf3	-0.040427268
248	0x10	0.04975664
249	0x17	0.07152517
250	0x00	0.0
251	0x01	0.00310979
252	0xf7	-0.02798811
253	0xe5	-0.083964325
254	0x13	0.05908601
255	0xf2	-0.043537058

torch.fx.graph_module.GraphModule.__new__.<locals>.GraphModuleImpl;6 i1 [10, 64] scale=0.00255991 zero_point=0
0	0xa9	-0.22271217
1	0x14	0.0511982
2	0x17	0.05887793
3	0xd3	-0.11519595
4	0x2d	0.11519595
5	0xcb	-0.13567524
6	0x3b	0.1510347
7	0xd3	-0.11519595
8	0x15	0.05375811
9	0xb1	-0.2022329
10	0x3a	0.14847478
11	0x20	0.08191712
12	0xc9	-0.14079505
13	0xbb	-0.17663379
14	0x1e	0.0767973
15	0x10	0.04095856
16	0x1a	0.06655766
17	0xd7	-0.104956314
18	0xf3	-0.03327883
19	0x1c	0.07167748
20	0xe9	-0.05887793
21	0xbb	-0.17663379
22	0x0e	0.03583874
23	0x1d	0.07423739
24	0xdf	-0.08447703
25	0xe2	-0.0767973
26	0x1e	0.0767973
27	0x2f	0.120315775
28	0xcf	-0.12543559
29	0x13	0.04863829
30	0x17	0.05887793
31	0xe2	-0.0767973
32	0x41	0.16639416
33	0xa6	-0.2303919
34	0x2b	0.11007613
35	0x1c	0.07167748
36	0x2d	0.11519595
37	0x07	0.01791937
38	0xd4	-0.112636045
39	0xe9	-0.05887793
40	0xc2	-0.15871443
41	0xf6	-0.0255991
42	0xb4	-0.19455317
43	0x2a	0.10751622
44	0xef	-0.043518472
45	0xa3	-0.23807164
46	0x2d	0.11519595
47	0x26	0.09727658
48	0xd7	-0.104956314
49	0x96	-0.27135047
50	0x30	0.12287568
51	0xd1	-0.120315775
52	0x1b	0.06911757
53	0x16	0.056318022
54	0x31	0.12543559
55	0x06	0.01535946
56	0xd1	-0.120315775
57	0xe2	-0.0767973
58	0x3f	0.16127433
59	0xd3	-0.11519595
60	0x00	0.0
61	0xc8	-0.14335497
62	0x00	0.0
63	0x62	0.25087118
64	0x05	0.01279955
65	0x30	0.12287568
66	0xc3	-0.15615451
67	0x2a	0.10751622
68	0x21	0.08447703
69	0xc2	-0.15871443
70	0x0a	0.0255991
71	0x0c	0.03071892
72	0x34	0.13311532
73	0x0a	0.0255991
74	0x0d	0.03327883
75	0xcf	-0.12543559
76	0xba	-0.1791937
77	0x02	0.00511982
78	0xf3	-0.03327883
79	0x15	0.05375811
80	0xe2	-0.0767973
81	0xe3	-0.07423739
82	0x07	0.01791937
83	0xb1	-0.2022329
84	0x27	0.09983649
85	0x0c	0.03071892
86	0xc5	-0.1510347
87	0x32	0.1279955
88	0x19	0.06399775
89	0x10	0.04095856
90	0x2f	0.120315775
91	0xb9	-0.18175362
92	0x1c	0.07167748
93	0xc7	-0.14591487
94	0xfd	-0.00767973
95	0x06	0.01535946
96	0x27	0.09983649
97	0xb8	-0.18431352
98	0xc1	-0.16127433
99	0x0b	0.028159011
100	0x27	0.09983649
101	0x0c	0.03071892
102	0x27	0.09983649
103	0x1f	0.079357214
104	0x2c	0.112636045
105	0xb8	-0.18431352
106	0x27	0.09983649
107	0x1a	0.06655766
108	0x35	0.13567524
109	0x16	0.056318022
110	0x09	0.02303919
111	0xdb	-0.094716676
112	0x24	0.09215676
113	0x23	0.08959685
114	0xda	-0.09727658
115	0x13	0.04863829
116	0x0a	0.0255991
117	0x95	-0.27391037
118	0x34	0.13311532
119	0x19	0.06399775
120	0x2a	0.10751622
121	0xa4	-0.23551172
122	0x44	0.17407389
123	0xc6	-0.14847478
124	0xca	-0.13823514
125	0x4a	0.18943335
126	0xe4	-0.07167748
127	0x26	0.09727658
128	0x13	0.04863829
129	0x36	0.13823514
130	0xd1	-0.120315775
131	0x35	0.13567524
132	0xcd	-0.1305554
133	0x12	0.04607838
134	0xa9	-0.22271217
135	0xc8	-0.14335497
136	0x3b	0.1510347
137	0xe3	-0.07423739
138	0x0e	0.03583874
139	0x2b	0.11007613
140	0xe0	-0.08191712
141	0x15	0.05375811
142	0xda	-0.09727658
143	0xc1	-0.16127433
144	0x0a	0.0255991
145	0xe2	-0.0767973
146	0x35	0.13567524
147	0xf4	-0.03071892
148	0x22	0.087036945
149	0x26	0.09727658
150	0x32	0.1279955
151	0x17	0.05887793
152	0x23	0.08959685
153	0xca	-0.13823514
154	0x21	0.08447703
155	0x3a	0.14847478
156	0x81	-0.3251086
157	0x02	0.00511982
158	0x1b	0.06911757
159	0xda	-0.09727658
160	0x07	0.01791937
161	0xfb	-0.01279955
162	0x23	0.08959685
163	0xdb	-0.094716676
164	0xc0	-0.16383424
165	0xa3	-0.23807164
166	0x39	0.14591487
167	0xf4	-0.03071892
168	0xac	-0.21503244
169	0xf2	-0.03583874
170	0xfb	-0.01279955
171	0x02	0.00511982
172	0x30	0.12287568
173	0xf1	-0.03839865
174	0x44	0.17407389
175	0xec	-0.0511982
176	0x29	0.104956314
177	0xe6	-0.06655766
178	0x05	0.01279955
179	0x91	-0.28415
180	0x12	0.04607838
181	0x3e	0.15871443
182	0xf0	-0.04095856
183	0x1f	0.079357214
184	0xe2	-0.0767973
185	0x41	0.16639416
186	0x0a	0.0255991
187	0x01	0.00255991
188	0x1c	0.07167748
189	0xb5	-0.19199325
190	0x3b	0.1510347
191	0x0f	0.03839865
192	0x3b	0.1510347
193	0xfa	-0.01535946
194	0x0b	0.028159011
195	0x27	0.09983649
196	0x0c	0.03071892
197	0xc4	-0.1535946
198	0x2e	0.11775586
199	0x01	0.00255991
200	0x9c	-0.255991
201	0x26	0.09727658
202	0xa4	-0.23551172
203	0x2c	0.112636045
204	0x47	0.18175362
205	0x21	0.08447703
206	0x45	0.17663379
207	0x35	0.13567524
208	0x27	0.09983649
209	0x1b	0.06911757
210	0x31	0.12543559
211	0xda	-0.09727658
212	0xf8	-0.02047928
213	0xc3	-0.15615451
214	0xd9	-0.09983649
215	0xf5	-0.028159011
216	0xc4	-0.1535946
217	0x1f	0.079357214
218	0x1e	0.0767973
219	0xed	-0.04863829
220	0x2c	0.112636045
221	0xcb	-0.13567524
222	0xb2	-0.19967298
223	0xfd	-0.00767973
224	0xa7	-0.22783199
225	0x2b	0.11007613
226	0xe4	-0.07167748
227	0xd6	-0.10751622
228	0x0d	0.03327883
229	0xa8	-0.22527209
230	0x8b	-0.29950947
231	0xd6	-0.10751622
232	0x59	0.22783199
233	0x26	0.09727658
234	0x16	0.056318022
235	0xbe	-0.16895406
236	0xa9	-0.22271217
237	0xcf	-0.12543559
238	0x1c	0.07167748
239	0x90	-0.28670993
240	0x1f	0.079357214
241	0x07	0.01791937
242	0x2a	0.10751622
243	0xe2	-0.0767973
244	0x1e	0.0767973
245	0x2c	0.112636045
246	0x18	0.06143784
247	0xd1	-0.120315775
248	0x24	0.09215676
249	0xf3	-0.03327883
250	0xf9	-0.01791937
251	0xf8	-0.02047928
252	0x2b	0.11007613
253	0x96	-0.27135047
254	0xd2	-0.11775586
255	0x22	0.087036945
