tflm/tensorflow/lite/micro/examples/mnist/models/mnist_float.tflite (tflite, 903832 bytes, 8 tensors)

arith.constant f4 [10]
00000000: 2c36 783c 6e15 cd3d ba51 43bd 6c19 c4bd
00000010: f379 4ebd 2f4d 41bc ad1f 1ebd e6ad 373d
00000020: 9eb4 b83d 884b b03d
0.015149634 0.10013853 -0.047685362 -0.09575161 -0.05040927 -0.011798187 -0.038604427 0.044843577
0.09018825 0.086081564

arith.constant1 f4 [10, 128]
00000000: 5cb9 1f3c 1dd5 b1bd a75b b63c 9f52 3abe
00000010: 9bc7 3f3d aa81 673d 91bd babd 67d1 e03d
00000020: f865 6bbd 6966 593d 629a 233d dc04 da3c
00000030: f5dc ecbc c2b9 c9bd ea02 033e f536 68bd
00000040: 8940 60bd f555 b2bd 2415 c7bd 4b7a 6b3c
00000050: adad 1bbe 33a4 ff3d 6dad a43d cdc4 b03c
00000060: 2019 fbbd 2bc0 343d b566 0dbe 9b91 4a3c
00000070: 3c8d 003c 861d 913d 2f2d 2a3d 09c3 953d
00000080: 5585 713d ab5f 9bbd 944a edbc 4e61 7c3d
00000090: 57a9 0bbd 4087 09be d9c7 82bd 8871 7e3d
000000a0: 4cd9 f93c e729 963d f9d9 a2bc c69c 94bd
000000b0: 0172 a43d a936 82bd f7a8 8f3d dda7 98bc
000000c0: e750 7bbd a7ae ea3c 25d7 75bd 6c62 5f3d
000000d0: 5952 b93d 4ff8 41bd e3bc d8bd db63 2f3d
000000e0: c733 263d b26a 8f3c c8ce 923d 9d7a 6bbd
000000f0: 1562 083e 465f 2b3d b9ce bdbd 5877 5abd
00000100: 63de 42be 0a72 c73d 6ffd 8f3d 24c1 7bbd
00000110: f777 e63d bb65 cbbc caa4 89bc b1ef cf3c
00000120: 2198 9dbb f8e4 8e3d 5be4 08bd 97b7 b9bd
00000130: a660 b93c 7ce3 adbd 93b6 123d e750 0dbd
00000140: af2e f4bd bd74 aebc ce43 b53d 5f4c 1cbe
00000150: 31ce c63c 5933 b63d d4e3 1bbd 8ab3 36be
00000160: 1f8c f13d 0005 b93d dbf9 aabd 25b4 6bbc
00000170: 82be 2d3d 0bfa 90bd 2c05 3fbe bb3b f5bc
00000180: b8e1 be3d b003 053d 4294 d8bd fdc3 7f3d
00000190: f9e2 323d 0858 173d 0cab 2dbd a153 043d
000001a0: 9a80 5b3c 7898 d03d f0a8 93bd 30a9 d03c
000001b0: 894a bdbd 4601 75bd 0b24 a0bd 8146 57bd
000001c0: 8bd7 0d3e ac43 96bd 9880 7abd 0699 85bd
000001d0: 92a9 56bd 8a93 913d c8b3 983d 5860 a83c
000001e0: 1956 80bd 9d7e b0bd f763 fcbb 36a5 cabd
000001f0: d6b7 683c 0a73 57bd ca32 4e3e ff4e acbc
00000200: c1a7 b3bd a2cd cbbd 12f9 bd3d 32fd ce3c
00000210: 82c9 e43d 5d25 0dbe 3278 b13d 0664 9f3d
00000220: c6a0 b53c 074e babb 14e3 973d 1dcc f2bd
00000230: 4d1b f03c b67e f6bd 262d 933c 1de3 e93c
00000240: d5bb 303d 985c 60bd aa27 d13c f588 fc3d
00000250: 8b32 173d 950d 2d3d d435 cabd 57d3 173b
00000260: 6e53 14be 4e0a 80bd c30c f93b cdef 56bd
00000270: f0a5 36bd c9af b6bc b097 373d b213 693d
00000280: 610e 80bd 30ec 8abd 7a64 ad3c 8876 13be
00000290: e616 bf3d d939 d23c 0eaf 963c cc94 07bd
000002a0: 547c 04be a363 d93d db4e 7f3d 5f9e 603d
000002b0: 508b 13be f0e0 8d3c 8506 c53c 259e e8bc
000002c0: d94d 443d 6ec1 ae3c 990a 4d3c 58c2 e53d
000002d0: 290e 21be 88e0 e13b 4ef5 9a3d 97a6 a13c
000002e0: bae6 e8bd c6db 90bd 2cef bcba 7271 713c
000002f0: 3ac2 b33d c53d da3c 67c8 00bd bea9 383d
00000300: 62cb 17be f048 fbbd 8a22 cc3c 26d9 9a3c
00000310: 3ec5 b53d 7ebc 42bb f31d fdbd cb27 0b3d
00000320: 26b4 39bc 9e81 543d 30cc 75bd 5105 b53d
00000330: 8128 b7bd db46 debd 7341 ac3c 594e a63d
00000340: deb1 c13d 6b76 17be 9c1c 7bbd 4c6b b93d
00000350: 691e 603d d89d 873d 408e ee3d 4604 6c3d
00000360: a98e 8e3c ba4e 91bd bba9 08bd b08a b53d
00000370: 6463 afbc c335 a43d c119 a73d dc8c 363d
00000380: e62a acbd 20a4 093d a325 313d 90c7 d43c
00000390: fee7 2a3d 6317 67be 4aeb df3c 16ca 2cbe
000003a0: 28eb 5abd e01b ed3d dc6d f43c 2f64 7e3d
000003b0: ecb0 9a3d 4a94 aa3d 51e6 ca3d 2e8f 3abe
000003c0: d1ca 203e 8c84 123a 1d95 823d 31ac 85bd
000003d0: 7a78 9d3c cb81 d6bc 3c1b 8d3c 0346 d0bd
000003e0: 332d b73c 1867 f3bd ccfc d4bd 9d67 2f3e
000003f0: 4d7c 82bd 6329 963d 934f 8f3d 9a02 c33c
0.009748783 -0.08683226 0.0222605 -0.1819558 0.046821218 0.05652014 -0.09118188 0.1097744
-0.05747029 0.05307618 0.039942153 0.026613645 -0.028913954 -0.098498836 0.1279408 -0.056693036
-0.054749046 -0.08707801 -0.09720829 0.014372419 -0.15202971 0.124824904 0.08040891 0.021578217
-0.122606516 0.04412858 -0.13808711 0.012363817 0.007846173 0.07085709 0.041546997 0.07312591
0.058965046 -0.075866066 -0.028966226 0.061616234 -0.034097042 -0.134305 -0.06385774 0.06211999
0.030499123 0.07332211 -0.019879328 -0.07256465 0.08029557 -0.06358082 0.07014649 -0.018634731
-0.06135645 0.028647734 -0.06001963 0.05453722 0.0904891 -0.047355946 -0.10582902 0.04281984
0.040576722 0.017506931 0.07168347 -0.05748998 0.13318665 0.041838907 -0.09267945 -0.05333647
-0.19030146 0.09738548 0.070307605 -0.06146349 0.1125335 -0.024828782 -0.01680221 0.025382848
-0.004809395 0.06977266 -0.0334209 -0.0906822 0.022629093 -0.08490655 0.035818648 -0.034500983
-0.11922967 -0.0212959 0.08850823 -0.15263508 0.024268242 0.088965125 -0.03805907 -0.17841926
0.11794304 0.09034157 -0.083484374 -0.0143862115 0.04241801 -0.07078942 -0.18654317 -0.029935708
0.09320396 0.03247422 -0.10575153 0.06244277 0.04367349 0.036949188 -0.04239945 0.032306317
0.01339736 0.10185331 -0.07209957 0.0254713 -0.09242732 -0.059815668 -0.07819375 -0.052557472
0.13851754 -0.07337126 -0.061157793 -0.065233275 -0.05240781 0.07108219 0.074561656 0.020553753
-0.06266422 -0.086178996 -0.0077023464 -0.09894793 0.014203986 -0.052599944 0.20136562 -0.021033762
-0.08772231 -0.09951331 0.09276022 0.025267217 0.11171247 -0.13783784 0.086655036 0.0778275
0.02217139 -0.005685571 0.074163586 -0.11855338 0.029309893 -0.12035887 0.017965864 0.028550679
0.04314788 -0.054775804 0.025531609 0.1233081 0.036913436 0.04224928 -0.09873548 0.002316674
-0.14484951 -0.062519655 0.0076003983 -0.052474786 -0.044591844 -0.022300618 0.044822395 0.05690355
-0.062527426 -0.067833304 0.021166075 -0.14400685 0.093305394 0.02566235 0.01839402 -0.033100888
-0.12938052 0.10614707 0.06233106 0.054838534 -0.14408612 0.017319173 0.02405096 -0.028395722
0.047925804 0.021332469 0.012514734 0.11218709 -0.15728058 0.0068932213 0.075663194 0.019732757
-0.113721326 -0.070731685 -0.001441454 0.01473652 0.0877728 0.026640782 -0.03144112 0.045083754
-0.14823678 -0.12269771 0.024918813 0.018902373 0.088755116 -0.00297144 -0.12359228 0.033973496
-0.011334455 0.051881425 -0.06000918 0.08838905 -0.089432724 -0.10853358 0.021027302 0.081204124
0.094577536 -0.14791267 -0.06130658 0.090536684 0.0547165 0.06621903 0.11648226 0.057621263
0.01740201 -0.07095094 -0.033364993 0.08864343 -0.021409698 0.08018067 0.08159209 0.044567928
-0.0840662 0.033603787 0.043248784 0.025974065 0.04172515 -0.22567515 0.027333874 -0.16873965
-0.05344692 0.11577582 0.029837541 0.06210726 0.075532764 0.08329065 0.099072106 -0.18218681
0.15702368 0.0005589209 0.06376097 -0.065269835 0.019222487 -0.026184937 0.0172249 -0.10169604
0.02236042 -0.11884898 -0.1039978 0.17129369 -0.06371365 0.07332113 0.069975995 0.023804951

arith.constant2 f4 [128, 1600]
00000000: 3609 813c 776f b03d 1079 0b3d 31c3 ad3d
00000010: b2ab 1b3d 7f2c 583d a976 e73b 44a0 e93c
00000020: 6547 3e3d a3f6 0b3d cc2b 213d 8512 eebc
00000030: 4e21 333d 5990 d03d 1a25 053d 4866 babc
00000040: 8fb4 d2bc 3477 29bb 6f08 883b 7b37 e8bc
00000050: d121 a7bd aeba d7bb 059c 783c e45a 49bd
00000060: 79e7 4dbd 7173 b8bc cc2a debc c4f8 fbbb
00000070: 4cdf 1ebd 5382 3fbc fab7 ba3c f4c7 303d
00000080: 3958 cd3d 95ed 053d 9cb9 373d 793d f43c
00000090: c678 503c 6e35 133d 9fca 7e3c df7d 83bc
000000a0: 90c2 dcbb 774a 47bc 3a92 68bc db82 703d
000000b0: 7471 2e3d 9a48 4c3d 7da4 1d3d e552 a3bc
000000c0: 97eb febb aae6 b4bd a54b a23c d6e1 6e3d
000000d0: da9b 833b 3e09 b43b 862f 983c b56e 85bb
000000e0: cd76 c2bc 2640 37bd 824e 0fbc 5d7f a73b
000000f0: a3b5 ecbc 4b2b 3bbd 9471 3fbb 517d cb3c
00000100: b406 923c 9c4e fe3c d319 863d e497 593d
00000110: 50f8 1cbc 6bb9 1dbd 3f8c 2ebc f233 4a3c
00000120: 1b42 193d e75f c73c d33c 2abc 3e78 153d
00000130: 106e 21ba d335 6ebd 773a 94bd 9530 60bd
00000140: 9970 3c3b 5de4 5339 414a 2dbd 01ff 1cbc
00000150: 4bfa 593b e1df 1ebd 8a5b 0ebd 531a 21bc
00000160: a9da 06bd b3ea a8bd a1d4 5b3d d50f 463d
00000170: eec4 babc 3e07 42bd 6b37 b7bd fc66 d73c
00000180: 3164 b03c c0d1 38bd 1937 52bd 70f0 c7bb
00000190: ddcf d03c 6375 8d3c ef5e 0f3c f417 1c3b
000001a0: 1283 0abd 716e 1a3c eeec 91bc e565 4c3c
000001b0: 070e 6cbc 5ba2 96bb 43ee 1b3c f7f9 fabc
000001c0: 8b38 2ebc d7f6 a7bb 4231 c53b 9002 ffbb
000001d0: b4e6 47bc 25c8 bf3c 724d 803c 378b debc
000001e0: d6ef 833c 07a7 513d e5aa 49bb cfef 2abb
000001f0: e791 69bc d694 c73b 67b8 b63b 7cc2 bf3c
00000200: a065 1ebc 78b8 7bbc 53d1 c43c 0179 8a3c
00000210: 9b4e b2bc 4a9c bcbc a6fe 153c dfb2 48bc
00000220: 4d77 8c3b ce72 d1ba f019 fbbb 9df3 ab3c
00000230: 5a1d 043c a992 f23b a9ae 96bc 2976 0dbc
00000240: 834f 3c3c be77 5d3c 2962 2b3b df4f c5bc
00000250: 78bc 58bc ae82 c63c 0d1c f7bd 830f 20be
00000260: e742 02be 6db9 85bc 7917 c7bb 66b9 51bd
00000270: 8d2c 8bbd b8f4 bd3d ccdb 6a3d 4452 e53c
00000280: 04ee 2bbd 2fd8 fb3d 9295 9f3d 4fdc 0d3d
00000290: 5eed c0bc d6a2 54bd 5c47 1dbd 61b2 b33d
000002a0: efd8 823d daec 8b3d 4358 083e d986 983c
000002b0: 79c1 6f3d 3820 45bd af42 95bd f4ee bcbb
000002c0: 4630 f03c 03a6 223d 52b4 b93c def2 853d
000002d0: 89e4 df3c 186c 193d 0aaa 073d fdea dd3c
000002e0: a329 0b3d f9e3 7fbc 583b 1b3c c957 123b
000002f0: 3cb6 833c af83 983d 6c16 62bb 856c 2e3c
00000300: 31fe 403c 22e5 68ba 3294 da3c 580c 993c
00000310: ac92 1f3d d300 b23c 9eea 1b3d cb64 a1bd
00000320: 06ed b6bc 156a b8bd c7dc e0bd 5465 48bc
00000330: cbb3 f03c c196 36bd 6745 6dbd 8739 36bd
00000340: 4ad7 3fbd 5e68 0ebd b2c0 cf3b 69d3 9a3c
00000350: b9fe 023d d1a7 89bb 9ac2 e2bc c9f1 6fbd
00000360: 3c7e 77bd be14 6a3c 5fe6 be3a 3eee 373d
00000370: 8111 9dbc b5ed aa3c 2476 bbbb 0892 23bd
00000380: f62a f83c 10e3 883b a800 393c 9d69 033d
00000390: 9558 d83c 2a49 923c f86f 8f3c 81ae db3c
000003a0: ccf1 d5bb 23e3 40bc 6f04 a23d 79c8 213d
000003b0: 82a2 f7bb cc1d de3c 0001 803c 83ed b7bb
000003c0: d9d8 223b ef57 d2bc 215f d3bb a81b 423d
000003d0: 833c 043d de45 db3c dc9f 49bc 2777 3bbc
000003e0: ed1e b63c 209f 0bbd 5426 ee3b 0c6e c03c
000003f0: fae1 03bb e73f 373c 0044 ea3c 9133 f03c
0.015751462 0.0861501 0.034051 0.084844954 0.03800554 0.05277681 0.007063706 0.028518803
0.046454806 0.034170758 0.03934841 -0.029061565 0.043732934 0.10183782 0.032506086 -0.02275385
-0.025720863 -0.0025858404 0.004151396 -0.028346768 -0.08160747 -0.0065835332 0.015173917 -0.049158946
-0.050269578 -0.022515984 -0.027120017 -0.0076895673 -0.03878717 -0.011688787 0.022792805 0.04315944
0.10026593 0.03269728 0.044854745 0.029814469 0.012724107 0.035939626 0.015551238 -0.016051231
-0.006737061 -0.01216375 -0.014195019 0.058718543 0.042588666 0.049873926 0.038486946 -0.019936988
-0.0077795493 -0.08833058 0.01981146 0.058320843 0.0040163817 0.005494266 0.018577348 -0.004072035
-0.02373829 -0.04473891 -0.008746745 0.0051116184 -0.028895205 -0.045695584 -0.0029211985 0.024840029
0.017825462 0.031043343 0.06547894 0.05312337 -0.009580687 -0.038506906 -0.010653554 0.012341486
0.03741656 0.024337722 -0.010390478 0.036491625 -0.0006158063 -0.0581568 -0.07237714 -0.05473383
0.0028753637 0.000202076 -0.042307142 -0.009582282 0.0033260759 -0.038787726 -0.034755267 -0.009832936
-0.032923374 -0.0824789 0.053669576 0.048354942 -0.022798982 -0.047370188 -0.08946117 0.026294224
0.02153215 -0.04512191 -0.051322076 -0.0061016604 0.025489742 0.017267888 0.008750661 0.0023817988
-0.033816405 0.009425745 -0.017813172 0.012475465 -0.014407641 -0.004596991 0.009517255 -0.03063677
-0.010633598 -0.005125861 0.006017835 -0.007782288 -0.012201 0.023410866 0.015661929 -0.027165992
0.016105574 0.05118468 -0.0030772027 -0.0026082878 -0.014255977 0.0060907407 0.0055761817 0.023408167
-0.009667784 -0.015363805 0.024025595 0.016903402 -0.021765998 -0.023023743 0.009154951 -0.012249677
0.0042866827 -0.0015979649 -0.007663004 0.020990187 0.008063639 0.007402737 -0.018393831 -0.008634129
0.011493566 0.013517318 0.0026151037 -0.024085937 -0.013228528 0.024232235 -0.12065897 -0.15630917
-0.12720834 -0.01632377 -0.006075796 -0.0512022 -0.06795607 0.09275192 0.05733852 0.027993329
-0.041975036 0.12297093 0.077922 0.03463393 -0.023550685 -0.051913105 -0.03839813 0.087742575
0.06389033 0.06832285 0.13314919 0.018618988 0.05853412 -0.04812643 -0.072881095 -0.00576579
0.029319894 0.039709102 0.022668991 0.06540464 0.027330654 0.0374566 0.033121146 0.02708959
0.033975255 -0.015618318 0.009474598 0.0022330156 0.016078107 0.07446992 -0.0034498228 0.01064599
0.011779354 -0.0008884241 0.026681993 0.018682644 0.038958237 0.021728909 0.038065545 -0.07880553
-0.022329818 -0.090046085 -0.1097961 -0.01223119 0.029382607 -0.044577364 -0.057927515 -0.044488456
-0.046836175 -0.0347675 0.0063401097 0.018899636 0.031981204 -0.0042009135 -0.027680684 -0.058580194
-0.06042312 0.014287172 0.0014564506 0.04490494 -0.019173386 0.0208653 -0.0057208706 -0.039934188
0.030293923 0.0041774586 0.01129166 0.032083143 0.026409427 0.017857153 0.017509446 0.026816608
-0.0065290686 -0.011772904 0.07911002 0.039497826 -0.0075572142 0.027113818 0.015625477 -0.0056130304
0.002484849 -0.025676696 -0.0064505492 0.047389656 0.03228427 0.026766714 -0.01230618 -0.011441982
0.022231543 -0.0340873 0.0072677527 0.023489974 -0.0020123706 0.011184669 0.028596878 0.029321464

arith.constant3 f4 [64]
00000000: c0cb 8ebd 1619 d7bc d54a d93c f799 afbc
00000010: a565 2bbd 3c2d 0bbc f4b1 90bd 6243 a4bc
00000020: dd5e 88bd f25e 503c e736 073d ec16 27bc
00000030: 2710 cf3c 29ac b8bd ba6a 38bd 4e91 65bd
00000040: deec 983d d9e4 a0bd ddba eabb 24e0 66bd
00000050: 336f 133d a561 54bd 4f7e 86bd fae3 2dbd
00000060: 3b42 0ebd e620 fd3c 6887 563c e3a4 95bd
00000070: 0adb 4b3d e88f 63bc 97c8 78bb 307f 18bd
00000080: be79 05bd b23b 9dbd 1371 66bd 09d3 b8bc
00000090: 8c39 5e3b a1a3 c3bc d693 73bd 0ab4 fbbc
000000a0: e79d c4bc 579c 3fbd 98a2 2b3d 9a2d 8dbd
000000b0: 30a1 7fbd daac 933d d148 4f3b e57d 27bd
000000c0: 9257 103d 5006 49bd 2ab9 0dbd 98d3 053c
000000d0: f64c 4abd 91e6 0b3d cf7d a9bd 1ef6 2b3d
000000e0: c943 d93c 39bf 31bd 1425 90bd 308b 1db9
000000f0: 8853 fabb f230 5cbd c4cb 5e3d 7795 f03c
-0.06972456 -0.02625708 0.02652494 -0.02143572 -0.041844983 -0.008494671 -0.07065192 -0.020051662
-0.06658719 0.012717949 0.033011343 -0.010198336 0.025276257 -0.09017212 -0.045023657 -0.056046776
0.07467054 -0.07856149 -0.007163389 -0.0563661 0.03599472 -0.051850934 -0.0656706 -0.042453744
-0.03473113 0.030899476 0.013093807 -0.0730684 0.04976944 -0.01388929 -0.0037961358 -0.03723067
-0.032586806 -0.076774016 -0.05626018 -0.022561567 0.0033908812 -0.023881735 -0.05946716 -0.030725498
-0.024001075 -0.046779957 0.04190311 -0.068934634 -0.06240958 0.07210703 0.0031629095 -0.040891547
0.035239764 -0.049078286 -0.034600414 0.008168124 -0.049389802 0.034155432 -0.08275949 0.041982763
0.02652158 -0.043395255 -0.07038322 -0.00015024538 -0.007639352 -0.053757615 0.054393545 0.029368145

arith.constant4 f4 [32]
00000000: 9471 583e 81bb b5b8 643f c9ba b9a6 6bbd
00000010: 0907 71be 3e3e 05be 7b26 7a3d 73a2 04be
00000020: 6d09 f8bd 88b0 c3ba 90a9 5ebd b13f d9bd
00000030: de7a e43c a36f 8ebd 82a6 31bd 777a f5ba
00000040: 3ff1 1cbe fbb5 2e3e 1e87 cebb df13 c33d
00000050: 5249 dfbc 1370 0fbb 06e5 933e 007a 173e
00000060: 2757 dabd 44c1 4f3d fa95 b33e 05f3 1f3e
00000070: c2d5 623e 2a72 973e 1d58 1bbb 7979 2d3e
0.21137077 -8.665678e-05 -0.0015353975 -0.057532046 -0.2353784 -0.13012025 0.061071854 -0.12952594
-0.12111173 -0.001492993 -0.054360926 -0.10607851 0.027890619 -0.06954887 -0.043371685 -0.0018728514
-0.15326403 0.17061608 -0.0063027283 0.095252745 -0.027256642 -0.002188687 0.2888567 0.14792633
-0.10661154 0.05072142 0.3507536 0.15620048 0.22151855 0.29579288 -0.0023703643 0.1694087

arith.constant5 f4 [1, 128]
00000000: 8b0a 8b3c cd04 213b 3c2f 923c 339f ad3b
00000010: 33ad d23c a515 48bc aa7b 7dbc b0c7 053d
00000020: 5508 603c 6bc8 26bc fcc5 6f39 a20e c1bc
00000030: 19dd 1d3c cc77 bb3c d00c e53c a4d6 c5bc
00000040: a34c fd3c bc99 f2bc 983a 4b3c a49c e73c
00000050: 7ddf 5bbc 237f 293c bb09 5d3c 36ee ccb9
00000060: 7f2b 20bc f906 35bc e291 9f3c 99f3 8dbc
00000070: cdb7 c7bb 0777 223c c561 203a 257f a1bc
00000080: e8b1 9c3c 0096 6ebc 1636 403c f104 50bb
00000090: 5985 8a3c 42c2 1b3d 1838 263c 24d0 c3bc
000000a0: bef0 1e3c e547 103d 00e6 113b f40c 55bc
000000b0: d30a 7e3b 87d2 b8bc 59ab 89bc e144 b9bc
000000c0: ef51 a3bb b9bb 91bc f70f a5bb 72ab f93c
000000d0: 3445 23bc a77a adbb fd77 e53a aafe f83c
000000e0: b637 713c 9af8 503b b1e2 143c 6bbe 243c
000000f0: d58e 5a3d d82e fcbc 2058 6ebc 2951 463d
00000100: ad75 91bc 1d2e 90bb 0938 bcbb 0918 86bc
00000110: e694 c83c b396 b33b 7490 54bc 4c62 1b3d
00000120: 8a2a 7d3b 9e7c 263b 5a54 923c a5bb 003d
00000130: d511 f3bc 398b 7d3b bf6c cb3b 7f0f e93c
00000140: 051e d63c 7176 9fbc bf6e c73c d89f 4abb
00000150: 9ad1 853c 1582 343d 58db 263d 21ed fe3c
00000160: d139 9ebb 4c72 76bc c8eb 3bbb 5fe1 0ebc
00000170: f0ac 2dbc e9f1 983c 7977 8a3c c9b1 80bb
00000180: cec1 d13b cba8 543a 7b40 063d 82f3 833c
00000190: 53ea e43b 0d62 55bc 3a42 1f3b aef7 cbbb
000001a0: 6980 b4bb 1da4 9c3b e57b ebbc 7ceb 533d
000001b0: 8ac5 ce3c c981 d53c 160b ab3c 85f5 dc3b
000001c0: 82f6 d53c 52e8 803c cf15 a1ba 7250 d8bc
000001d0: 272b febb 20df 4439 107f 95b7 d1e9 75bb
000001e0: a68e 32bc 3dd8 5cbc 3511 f4ba 0b37 133d
000001f0: 96f2 8dbb 9faa a4bb 2933 043c 605d e8ba
0.0169728 0.0024569512 0.017844789 0.005298519 0.025717353 -0.012212192 -0.015471378 0.03266114
0.0136738615 -0.010179619 0.00022866571 -0.023566548 0.009635233 0.022884272 0.027960211 -0.0241502
0.030920332 -0.029614322 0.012404107 0.028272934 -0.013419983 0.010345253 0.013491089 -0.00039087393
-0.009775995 -0.011049026 0.019478742 -0.01732807 -0.006094909 0.009916074 0.00061180844 -0.019713948
0.019127801 -0.01456213 0.011731645 -0.0031741227 0.016909288 0.038027056 0.01014521 -0.02390296
0.009700952 0.035224814 0.0022262335 -0.013003577 0.0038763776 -0.022561325 -0.016805338 -0.022615852
-0.0049841325 -0.017789708 -0.0050373035 0.03047726 -0.00996523 -0.0052941623 0.0017507073 0.03039487
0.014722755 0.003188646 0.009087251 0.010055165 0.05335887 -0.030784056 -0.014547378 0.048417244
-0.017756307 -0.0044000284 -0.0057439846 -0.016368883 0.024485063 0.005480611 -0.012973893 0.03793554
0.0038630092 0.0025403867 0.017862488 0.03142895 -0.029671589 0.003868772 0.006208032 0.028449772
0.026137361 -0.019465657 0.0243448 -0.0030918028 0.016335297 0.04406937 0.040736526 0.031118931
-0.0048286696 -0.015041899 -0.0028674472 -0.008720725 -0.010600314 0.01867004 0.016902672 -0.0039274436
0.006401277 0.00081123103 0.032776337 0.016107325 0.0069859414 -0.013023865 0.0024300949 -0.006224594
-0.0055084717 0.004780306 -0.028745601 0.051738247 0.025240678 0.026062863 0.02087931 0.0067431354
0.02611852 0.015735779 -0.0012289825 -0.026405547 -0.007756609 0.00018775137 -1.7821352e-05 -0.0037523399
-0.010898268 -0.01347929 -0.0018620851 0.035941165 -0.004331897 -0.0050252224 0.008068838 -0.0017728023

arith.constant6 f4 [64, 3, 3, 32]
00000000: ebd8 ed3b b228 df3c 1c26 843d 2a56 db3d
00000010: b210 9e3d 930f c0bc 9eb6 0abd 37c0 793e
00000020: b7e0 7c3e 76df c63d 0bcd 9c3c e132 1bbd
00000030: 3eb7 0ebb 548f 683a d037 d6bc db5f c33d
00000040: e4e5 493c 0ba8 1b3d c42c 09bd 1016 943c
00000050: a979 dcbb 385b 643d 699b 463c 3e06 6d3d
00000060: 0a4a 8b3c d0fe 8a3d 8598 9dbd 980b e7bb
00000070: 433e dc3c 9faa 94bd d03f c43d a511 03bd
00000080: bbb2 c63c 6511 e33d d014 e13b c23b aa3d
00000090: 1a6d 6e3d 0bd2 0abe a43b c6bb d2f1 4d3d
000000a0: 860a 513e 11d1 163d 4d0b 9ebd 6179 37bb
000000b0: fb3c 37bc 14ab 3bbc 1852 033e a25f ec3d
000000c0: a51f a63b 7655 c43c f4af a23d f304 82bd
000000d0: 91f2 b23c dcd5 843d 8feb d0bc 9517 713d
000000e0: d6b3 e63c 9fbd e43d 5c1e f7bd 9e6e 94bd
000000f0: ebec f13d 2f9a 1d3d cf41 e53d 6140 4b3d
00000100: 5dc1 b13d 9cfe ca3d fecc 3ebd 507d d73d
00000110: 69a6 ec3c c62e 85bd 04bf 9d3d 0f5b 3fbd
00000120: 1257 703c 0459 813d badb 8e3c 75ac adbc
00000130: 0502 343e 9f45 e63b 40fb 3e3e b6ca 0a3e
00000140: d343 883d 1cdc a53d b666 843d 261f 23be
00000150: 576c ca3d 1cbd ba3c 6736 953b 63b9 023d
00000160: 7e58 c63d 0e11 bf3d f063 34bd 46e9 1dbe
00000170: 1e1f c63d 9a0b ef3d d0e0 e93c 8b1f 263d
00000180: 9a4d 843d 0690 cbbc fcf0 663e 31fb 73bb
00000190: fca4 dd3b b8d2 42be f0c4 b33d 07b8 1ebb
000001a0: 6e31 d5bd 4e27 db3d baa2 cabc e6fa 31bd
000001b0: 49c4 cd3d 0d7f 8fbc 0b6c 8bbd a27b 563d
000001c0: 6be8 3ebc 268f 2ebd 2a9e b03d 608d 24bc
000001d0: f409 da3d d234 b33d 0b75 cd3d 333f e4bc
000001e0: 3b25 ad3e 463d d93d afad 433d d3b3 91bd
000001f0: 3538 afbd f9bd c53c 2833 b93d b38f 48be
00000200: 25c7 3c3b 41e7 72bc e89b 8f3d 0c82 f3bc
00000210: e203 9dbd 1397 953d b71d 093e 10cf e5bd
00000220: 4239 8cbe d57f 443c 3a7c cebb 8dd3 0c3d
00000230: b125 153e bda1 2c3d 152f 95bc d908 93bd
00000240: 97df 1d3e 39a1 7dbd 1d19 553d 57e5 9c3c
00000250: f309 0b3e 892d dc3c 6941 b63d 9eff babd
00000260: cc78 503e 3258 633d 9a36 d23d 6c26 77bd
00000270: 3dad ebbd d36b 8f3d fc37 2d3d 5936 24be
00000280: 961b 0abd 4417 6b3a 7069 05be 72bf e8bd
00000290: 8bfb febd 846b b93e 6d8b db3c 9d64 2dbe
000002a0: 17e2 69be 43b3 adbd f39f 33bd b5eb 3e3d
000002b0: 5862 643e 6882 c5ba fe3a 02be 626a 66be
000002c0: 481e 1d3e 979b c0bd 0596 3ebe 8841 5bbc
000002d0: bd16 7e3d 5eb8 42bd e3dc bf3d a46d 08be
000002e0: cc50 003e e53d 823d 7403 3e3e 219e 7ebd
000002f0: 8ec4 82bd 29da 4d3c a98b 66bd 95a0 2a3c
00000300: 462a dabd b39f f1bd d027 b5bd 04f5 803d
00000310: 7f2a 0dbe 48c2 08bd fb13 15bd c3c7 05bd
00000320: 6e89 223d 8706 c0bd 1f5e 01be 1d0f 1a3c
00000330: d1dd 8abc 0554 393d f4d2 1fbe 5be7 1d3e
00000340: 9c0d 91bd 3975 56bd 2819 68be e7b4 2b3d
00000350: 85c2 f6bd 94f0 f7bd 9fe8 6f3c a899 373d
00000360: 8abf db3d 2b4d d13b ac1d 973d ad5a 043d
00000370: c9ff 31bd 4174 a0bd 6527 98bd 8656 15bd
00000380: 15c9 eebd f420 c3bd 1b7d 41be cb68 2e3d
00000390: a3f2 f0bd 6aa9 053e be82 dcbd b026 65bd
000003a0: 29d2 d4bc dfd3 c1bd 7776 c6bd 7b59 25bc
000003b0: a8a5 71bd 9b45 643d 6d5d e0bd 8d73 b43e
000003c0: 878f b3bd 48a1 36bd b3e2 15be e388 f1bc
000003d0: 994c 05be 3e6b e4bc 00cd 7cbd 9ff7 7e3d
000003e0: 325f d4bc 7db9 03bd e9b7 f93d 87bb 3b3d
000003f0: 4709 d6bb ae69 85bd 08e3 f0bd a8c1 023e
0.0072585247 0.027241085 0.06452581 0.10709794 0.07718028 -0.023444926 -0.033865564 0.2438973
0.24695097 0.097105905 0.01914074 -0.03789032 -0.0021776701 0.0008871455 -0.02614966 0.09539767
0.012322877 0.038002055 -0.033489957 0.018076926 -0.00672837 0.055751055 0.012122014 0.05786728
0.017003078 0.06786883 -0.076951064 -0.0070509426 0.026885157 -0.07259106 0.09582484 -0.03199925
0.024255147 0.11087302 0.006868936 0.08312179 0.058209516 -0.13556688 -0.00604959 0.050279446
0.2041417 0.036820475 -0.07716999 -0.0027995931 -0.0111839725 -0.011454362 0.12824285 0.11541678
0.0050696903 0.023966532 0.07943717 -0.063486 0.02184418 0.06486103 -0.025502948 0.05886038
0.028161924 0.1116898 -0.120663375 -0.07247661 0.11812767 0.03847712 0.111941926 0.049621943
0.08679459 0.09911844 -0.046582215 0.10521948 0.028887944 -0.06503062 0.07702449 -0.0467177
0.014669197 0.063158065 0.017438758 -0.021200398 0.17578895 0.0070273424 0.18650532 0.1355389
0.066535614 0.08098623 0.06464903 -0.15929851 0.098839454 0.022795253 0.0045536044 0.03191508
0.09684847 0.09329425 -0.04404062 -0.15421018 0.09673904 0.11672135 0.028549582 0.040557425
0.06460114 -0.02484895 0.22552866 -0.003722858 0.0067640524 -0.19025695 0.08777797 -0.0024218576
-0.104098186 0.10700856 -0.024735797 -0.043452166 0.10047204 -0.017516637 -0.06807717 0.052364
-0.011652092 -0.042616986 0.086239174 -0.010043472 0.1064643 0.08750309 0.1003209 -0.027862167
0.33817467 0.1060739 0.04777306 -0.07114377 -0.085556425 0.024138438 0.090429604 -0.19586067
0.0028805223 -0.014825643 0.07012159 -0.029725097 -0.07666756 0.07304206 0.13390242 -0.11221135
-0.27387434 0.011993368 -0.00630143 0.034381438 0.1456516 0.042146433 -0.018210927 -0.07179422
0.15417324 -0.061921332 0.052025903 0.019152327 0.13578014 0.026877182 0.08899195 -0.09130786
0.2035858 0.05550403 0.10264321 -0.060339376 -0.11507652 0.07002988 0.04228972 -0.16036357
-0.033717714 0.00089680054 -0.13028502 -0.1136464 -0.12450322 0.3621484 0.026799882 -0.16932912
-0.22840153 -0.08481457 -0.04385371 0.046611506 0.2230314 -0.0015068771 -0.12717816 -0.2250152
0.15343583 -0.094046764 -0.18611915 -0.013382323 0.062033404 -0.047539108 0.09368303 -0.13323075
0.12530822 0.06359462 0.18556005 -0.062162522 -0.06385146 0.0125642205 -0.056285534 0.010414262
-0.10652594 -0.11798038 -0.08845484 0.06296733 -0.13785742 -0.033388406 -0.036396008 -0.03266121
0.039681844 -0.09376245 -0.1263356 0.009403017 -0.016951473 0.045246143 -0.15607816 0.15420286
-0.07082674 -0.052357886 -0.22665846 0.04192057 -0.120488204 -0.121064335 0.014642864 0.044824272
0.107298926 0.006387373 0.07378706 0.032313038 -0.043456826 -0.07834674 -0.07429389 -0.03645947
-0.11659447 -0.0952777 -0.1889538 0.042580407 -0.11765029 0.13052908 -0.107671246 -0.0559451
-0.025979118 -0.09464239 -0.09690564 -0.010092135 -0.058995873 0.055730443 -0.109553196 0.35244408
-0.0876761 -0.044587404 -0.1463726 -0.029484218 -0.13017501 -0.027883168 -0.06171894 0.06224787
-0.025924299 -0.032159317 0.12193281 0.045833137 -0.0065318677 -0.065142974 -0.11762053 0.12769186

arith.constant7 f4 [1, 3, 3, 32]
00000000: 2473 9d3e ebdd 45be 9449 9bbd 605a 4cbe
00000010: 5511 cd3d 3350 173d dd5f 223e 446d 09bd
00000020: c297 bf3e 4026 28be 13eb 3b3e 3870 a2be
00000030: 6450 aebd 5ab8 93be 219d 85be 2f78 0fbe
00000040: 9612 3a3d 72f1 66be 927e 98bb 3021 633d
00000050: db77 143e db93 ef3d 217a 403e 439d b5be
00000060: a3dc 7b3e 9b4e 823e d61d 983e e8b1 d5be
00000070: 991b 13be 657a 51be 5e66 663e de62 8a3c
00000080: d2b1 a53e 5dbd ac3e a595 843e 2f1f a4bd
00000090: 449d aa3e f547 be3e e333 603e 8477 753d
000000a0: 2308 a5be 1d8a 873e aae6 02bd 0647 40be
000000b0: a71d 35bd 4eab 10be 04e0 55be 618a f2be
000000c0: cfc2 4a3e cc9e a63e 3b43 b3be c85d 853e
000000d0: 66a3 833e 5786 363a e8f7 3c3e 0833 83be
000000e0: 45d2 193e 3f76 863e 86a0 853e fab8 e8be
000000f0: 6f1b a4be b2eb a23e 0f44 91be 57c0 a6be
00000100: ce1e 42bd d1ae e33d a497 1c3d e5bb ddbe
00000110: dbb0 d23d 7874 3f3e e7e1 273e 7362 73be
00000120: d31e ffbe f8ac 4dbd 0a17 ee3d 3bbf a73d
00000130: 924e fd3e bd01 49be b087 c03e 9a05 9abe
00000140: 7046 9f3e 95fb 7bbe 4d58 743e 6e99 63be
00000150: e25f 193e 83d2 9ebd 5172 0ebe b871 303d
00000160: f7c6 a83e be95 e13d ca70 a73d 9d43 d6be
00000170: bb1a febd 8b34 4bbd f76f 613e 55d8 89be
00000180: 5d4a b23e e034 9d3e 3c8f 8dbd a0b5 c83e
00000190: f414 16bd be8a a63e 3605 993d 3ba5 c13e
000001a0: 7ef2 d7bd 545a 283e 360a ba3e 3e45 31bd
000001b0: a03a 833e e932 6e3a 4cbe eebd 15d8 393e
000001c0: eb9d d43e 3b5f 623e 5b4d ffbc e879 afbc
000001d0: f145 adbc 4815 9e3e 6572 a6bd 7b46 883e
000001e0: 11b8 38bd 7e15 64be bc03 c8be 8906 49bc
000001f0: 6788 95be 4c5a 573e 9ea8 a73e beed b8be
00000200: d2d3 59bc 042b f63d 07aa a03d d3f3 2abe
00000210: 009f 313e 4362 3abe 2a8b a63e 131a f6bd
00000220: 44ea 00be b33e f53c 8522 40be ecb8 73be
00000230: 880e 333e 76df f9bd c3fe bc3e dde7 c83d
00000240: 0f1e d33e 9fb3 4a3e ccba 14be 888a dd3b
00000250: b745 913e 921e c33e bb70 9f3e 6dc8 363e
00000260: 8b93 4fbd 8cef acbe d350 a5be 42fd ef3c
00000270: db3b 443e f99a cb3e f8b6 ce3e c6c5 92be
00000280: 9ea7 eb3d 83bc 6a3e e281 e83e a2fa ac3e
00000290: 343e 4ebc 1698 d3be ea57 61be 3e53 9fbe
000002a0: cf20 2f3e 0088 a33e 6110 97be eb05 fc3b
000002b0: 7eaa 89be c621 babc 0d06 4d3e 1641 b63e
000002c0: bf32 7cbe fbce 353e 4730 cf3e 1208 ffbe
000002d0: 1bd3 8a3e fd3a 0c3d 7323 3a3e 7de0 6cbe
000002e0: 6652 d73e 91d5 95be d467 ffbe ec26 b3be
000002f0: 942c 1cbe 3d21 9fbd 1b9d 06bc a221 5a3d
00000300: 74f5 f9bd e127 ed3c 4256 fbbe 6a6e 253e
00000310: 78db 683e 7148 17be 1711 633d 1a56 97bd
00000320: 7378 8f3e 5e05 e0be 1b82 d63e 5359 65be
00000330: 47c5 43be 7c84 63be ce0b 4ebe c8ad cfbd
00000340: b78d 853e f72a efbd 97bc f73d bea7 8a3e
00000350: d466 543e 19ec 88bb 2806 3cbe fd84 fabd
00000360: 7cd1 8abe b391 993e 1b7a fdbc 2765 d63e
00000370: 07a2 833e d4c6 d13d 9a95 74be 0ae2 92be
00000380: 60ba 7c3e 765e aa3e 9db6 77be a4b0 013d
00000390: f2d3 c83e f469 b1be ebcd 59be 22e5 dc3e
000003a0: 53aa e33e 0c2a 28be 9aca d9bd 646d 8ebe
000003b0: f4e9 98be f275 66be 6c19 a93e e617 ed3e
000003c0: 5ab9 afbd cbe7 c53e f938 23be 3070 d23e
000003d0: accb c93c 8f73 ae3d c913 d2be b3e5 523d
000003e0: e110 7ebe 70bf 5a3e 5ec4 9cbe 3daa f83d
000003f0: 8918 733e 74eb 2bbd d1d8 143e 37bf f1bd
0.30751908 -0.19322936 -0.07582393 -0.1995635 0.100130714 0.03694172 0.15856881 -0.03355147
0.3742047 -0.16420841 0.18351392 -0.3172624 -0.08511427 -0.28851587 -0.26096442 -0.1401069
0.04542788 -0.22553042 -0.00465376 0.055451572 0.14498846 0.11698123 0.18796588 -0.35471544
0.24595885 0.25450596 0.29710263 -0.41737294 -0.14365996 -0.20456846 0.22499987 0.016892847
0.3236223 0.33738223 0.2589542 -0.0801376 0.3332311 0.37164274 0.21894793 0.059928432
-0.3223277 0.2647256 -0.03195826 -0.18777093 -0.04421773 -0.14127848 -0.20886236 -0.473712
0.19800876 0.32543027 -0.3501223 0.26048112 0.257106 0.0006962767 0.18453944 -0.2562487
0.15021618 0.2626209 0.26099032 -0.45453626 -0.3205218 0.31820446 -0.28372237 -0.3256862
-0.04739266 0.11117328 0.038230553 -0.43307415 0.10287639 0.18696773 0.16394769 -0.23768024
-0.49828205 -0.050213784 0.11625488 0.08190771 0.49474007 -0.1962957 0.3760352 -0.300824
0.31108427 -0.2460769 0.23861809 -0.22226498 0.14977983 -0.07754996 -0.13910796 0.0430772
0.32964298 0.11014889 0.0817581 -0.4184846 -0.12407442 -0.049610656 0.22015367 -0.2692286
0.3482236 0.30704403 -0.069120854 0.3920107 -0.036641076 0.32527727 0.07471697 0.37821373
-0.105442986 0.16440707 0.36335915 -0.043278925 0.25630665 0.00090865657 -0.1165739 0.18148835
0.41526732 0.2210664 -0.031164816 -0.021420434 -0.021151515 0.3087561 -0.08127288 0.26616272
-0.045097414 -0.22273824 -0.3906535 -0.0122696245 -0.2920563 0.2103054 0.32745832 -0.36118883
-0.013295131 0.12019923 0.0784493 -0.16694574 0.1734581 -0.18201546 0.3252805 -0.12016692
-0.12589365 0.029937124 -0.18763168 -0.23801011 0.17486012 -0.12200825 0.36913118 0.098098494
0.4123387 0.19795083 -0.14524382 0.006760899 0.283735 0.3810926 0.31140694 0.17849894
-0.050677817 -0.3377651 -0.32288226 0.029295567 0.19163458 0.39766672 0.4037397 -0.28666514
0.1150658 0.22923474 0.45411593 0.33784968 -0.012588073 -0.4132697 -0.22006193 -0.31118196
0.17102359 0.31939697 -0.29504684 0.007691135 -0.26887888 -0.022721183 0.2002184 0.35596532
-0.24628733 0.17754738 0.4046652 -0.49810845 0.27114186 0.034235943 0.18177585 -0.2313251
0.42055053 -0.292645 -0.49883902 -0.34990633 -0.1525138 -0.077700116 -0.008216168 0.05325473
-0.122050196 0.02894968 -0.49089247 0.16155401 0.2273997 -0.14773728 0.05543622 -0.073894694
0.28021583 -0.43754095 0.41896138 -0.22397356 -0.19118224 -0.22218508 -0.2012169 -0.10140568
0.26084682 -0.11678117 0.120965175 0.27081102 0.20742351 -0.0041785357 -0.18361723 -0.12232397
-0.2711295 0.29993972 -0.030942013 0.41874048 0.25709555 0.102430016 -0.23885193 -0.2868808
0.24680471 0.33275193 -0.24190755 0.0316626 0.392242 -0.34651148 -0.21269958 0.43143564
0.44465885 -0.1642229 -0.10634346 -0.27817833 -0.29865992 -0.2250593 0.33027208 0.46307296
-0.08580275 0.38653407 -0.15939702 0.41101217 0.024633251 0.08518135 -0.4103072 0.05148859
-0.24811126 0.2136209 -0.30618566 0.121418454 0.23739828 -0.041972592 0.14535834 -0.118040495
