tflm/tensorflow/lite/micro/examples/mnist/models/mnist_int8.tflite (tflite, 230592 bytes, 4 tensors)

torch.fx.graph_module.GraphModule.__new__.<locals>.GraphModuleImpl/torch.nn.modules.conv.Conv2d_conv1; i1 [1, 3, 3, 32] scale=0.00392993 zero_point=0
000000 4e cf ed cd 19 09 28 f7 5f d6 2f af ea b7 be dc
       0.30653453 -0.19256656 -0.07466867 -0.20042641 0.09824824 0.035369366 0.15719719 -0.035369366 0.37334332 -0.16505705 0.1847067 -0.31832433 -0.08645846 -0.28688487 -0.25937536 -0.14147747
000010 0c c7 ff 0e 25 1e 30 a6 3f 41 4c 96 db cc 39 04
       0.047159158 -0.224006 -0.00392993 0.055019017 0.14540741 0.1178979 0.18863663 -0.3536937 0.24758558 0.25544545 0.29867467 -0.41657257 -0.14540741 -0.20435634 0.224006 0.01571972
000020 52 56 42 ec 55 5f 38 0f ae 43 f8 d0 f5 dc cb 87
       0.32225424 0.33797395 0.25937536 -0.078598596 0.33404404 0.37334332 0.22007607 0.05894895 -0.32225424 0.2633053 -0.03143944 -0.18863663 -0.04322923 -0.14147747 -0.20828629 -0.4755215
000030 32 53 a7 42 41 00 2f bf 26 43 42 8c ae 51 b8 ad
       0.19649649 0.32618418 -0.34976375 0.25937536 0.25544545 0.0 0.1847067 -0.25544545 0.14933734 0.2633053 0.25937536 -0.45587185 -0.32225424 0.31832433 -0.28295493 -0.32618418
000040 f4 1c 0a 92 1a 30 2a c4 81 f3 1e 15 7e ce 60 b3
       -0.047159158 0.110038035 0.039299298 -0.43229228 0.10217817 0.18863663 0.16505705 -0.2357958 -0.49910107 -0.051089086 0.1178979 0.082528524 0.49517116 -0.19649649 0.37727326 -0.3026046
000050 4f c1 3d c7 26 ec dd 0b 54 1c 15 96 e0 f3 38 bb
       0.31046444 -0.24758558 0.23972572 -0.224006 0.14933734 -0.078598596 -0.13754754 0.04322923 0.3301141 0.110038035 0.082528524 -0.41657257 -0.12575775 -0.051089086 0.22007607 -0.27116516
000060 59 4e ee 64 f7 53 13 60 e5 2a 5c f5 41 00 e2 2e
       0.34976375 0.30653453 -0.07073873 0.39299297 -0.035369366 0.32618418 0.07466867 0.37727326 -0.10610811 0.16505705 0.36155355 -0.04322923 0.25544545 0.0 -0.1178979 0.18077677
000070 6a 38 f8 fb fb 4f eb 44 f5 c7 9d fd b6 36 53 a4
       0.41657257 0.22007607 -0.03143944 -0.019649649 -0.019649649 0.31046444 -0.082528524 0.26723522 -0.04322923 -0.224006 -0.38906306 -0.011789789 -0.29081482 0.21221621 0.32618418 -0.36155355
000080 fd 1f 14 d6 2c d2 53 e1 e0 08 d0 c3 2c e1 5e 19
       -0.011789789 0.121827826 0.078598596 -0.16505705 0.17291692 -0.18077677 0.32618418 -0.121827826 -0.12575775 0.03143944 -0.18863663 -0.23972572 0.17291692 -0.121827826 0.3694134 0.09824824
000090 69 32 db 02 48 61 4f 2d f3 aa ae 07 31 65 67 b7
       0.41264263 0.19649649 -0.14540741 0.00785986 0.28295493 0.3812032 0.31046444 0.17684685 -0.051089086 -0.33797395 -0.32225424 0.027509509 0.19256656 0.39692292 0.40478277 -0.28688487
0000a0 1d 3a 74 56 fd 97 c8 b1 2c 51 b5 02 bc fa 33 5b
       0.11396796 0.22793593 0.45587185 0.33797395 -0.011789789 -0.41264263 -0.22007607 -0.31046444 0.17291692 0.31832433 -0.29474473 0.00785986 -0.26723522 -0.023579579 0.20042641 0.3576236
0000b0 c1 2d 67 81 45 09 2e c5 6b b6 81 a7 d9 ec fe 0e
       -0.24758558 0.17684685 0.40478277 -0.49910107 0.27116516 0.035369366 0.18077677 -0.23186585 0.42050248 -0.29081482 -0.49910107 -0.34976375 -0.15326726 -0.078598596 -0.00785986 0.055019017
0000c0 e1 07 83 29 3a da 0e ed 47 91 6b c7 cf c7 cd e6
       -0.121827826 0.027509509 -0.49124122 0.16112712 0.22793593 -0.14933734 0.055019017 -0.07466867 0.27902502 -0.4362222 0.42050248 -0.224006 -0.19256656 -0.224006 -0.20042641 -0.10217817
0000d0 42 e2 1f 45 35 ff d1 e1 bb 4c f8 6b 41 1a c3 b7
       0.25937536 -0.1178979 0.121827826 0.27116516 0.20828629 -0.00392993 -0.1847067 -0.121827826 -0.27116516 0.29867467 -0.03143944 0.42050248 0.25544545 0.10217817 -0.23972572 -0.28688487
0000e0 3f 55 c2 08 64 a8 ca 6e 71 d6 e5 b9 b4 c7 54 76
       0.24758558 0.33404404 -0.24365565 0.03143944 0.39299297 -0.34583384 -0.21221621 0.43229228 0.44408208 -0.16505705 -0.10610811 -0.27902502 -0.29867467 -0.224006 0.3301141 0.4637317
0000f0 ea 62 d7 69 06 16 98 0d c1 36 b2 1f 3c f5 25 e2
       -0.08645846 0.38513312 -0.16112712 0.41264263 0.023579579 0.08645846 -0.4087127 0.051089086 -0.24758558 0.21221621 -0.30653453 0.121827826 0.2357958 -0.04322923 0.14540741 -0.1178979

torch.fx.graph_module.GraphModule.__new__.<locals>.GraphModuleImpl/torch.nn.modules.conv.Conv2d_conv2; i1 [64, 3, 3, 32] scale=0.00474405 zero_point=0
000000 02 06 0e 17 10 fb f9 33 34 14 04 f8 00 00 fa 14
       0.0094881 0.0284643 0.0664167 0.10911315 0.0759048 -0.02372025 -0.03320835 0.24194655 0.2466906 0.094881 0.0189762 -0.0379524 0.0 0.0 -0.0284643 0.094881
000010 03 08 f9 04 ff 0c 03 0c 04 0e f0 ff 06 f1 14 f9
       0.01423215 0.0379524 -0.03320835 0.0189762 -0.00474405 0.0569286 0.01423215 0.0569286 0.0189762 0.0664167 -0.0759048 -0.00474405 0.0284643 -0.07116075 0.094881 -0.03320835
000020 05 17 01 12 0c e3 ff 0b 2b 08 f0 ff fe fe 1b 18
       0.02372025 0.10911315 0.00474405 0.0853929 0.0569286 -0.13757746 -0.00474405 0.052184552 0.20399415 0.0379524 -0.0759048 -0.00474405 -0.0094881 -0.0094881 0.12808935 0.1138572
000030 01 05 11 f3 05 0e fb 0c 06 18 e7 f1 19 08 18 0a
       0.00474405 0.02372025 0.080648854 -0.06167265 0.02372025 0.0664167 -0.02372025 0.0569286 0.0284643 0.1138572 -0.118601255 -0.07116075 0.118601255 0.0379524 0.1138572 0.0474405
000040 12 15 f6 16 06 f2 10 f6 03 0d 04 fc 25 01 27 1d
       0.0853929 0.09962505 -0.0474405 0.104369104 0.0284643 -0.0664167 0.0759048 -0.0474405 0.01423215 0.06167265 0.0189762 -0.0189762 0.17552985 0.00474405 0.18501796 0.13757746
000050 0e 11 0e de 15 05 01 07 14 14 f7 df 14 19 06 09
       0.0664167 0.080648854 0.0664167 -0.16129771 0.09962505 0.02372025 0.00474405 0.03320835 0.094881 0.094881 -0.04269645 -0.15655366 0.094881 0.118601255 0.0284643 0.04269645
000060 0e fb 30 ff 01 d8 13 ff ea 17 fb f7 15 fc f2 0b
       0.0664167 -0.02372025 0.2277144 -0.00474405 0.00474405 -0.189762 0.09013695 -0.00474405 -0.104369104 0.10911315 -0.02372025 -0.04269645 0.09962505 -0.0189762 -0.0664167 0.052184552
000070 fe f7 12 fe 16 12 15 fa 47 16 0a f1 ee 05 13 d7
       -0.0094881 -0.04269645 0.0853929 -0.0094881 0.104369104 0.0853929 0.09962505 -0.0284643 0.33682755 0.104369104 0.0474405 -0.07116075 -0.0853929 0.02372025 0.09013695 -0.19450605
000080 01 fd 0f fa f0 0f 1c e8 c6 03 ff 07 1f 09 fc f1
       0.00474405 -0.01423215 0.07116075 -0.0284643 -0.0759048 0.07116075 0.1328334 -0.1138572 -0.27515492 0.01423215 -0.00474405 0.03320835 0.14706555 0.04269645 -0.0189762 -0.07116075
000090 20 f3 0b 04 1d 06 13 ed 2b 0c 16 f3 e8 0f 09 de
       0.1518096 -0.06167265 0.052184552 0.0189762 0.13757746 0.0284643 0.09013695 -0.09013695 0.20399415 0.0569286 0.104369104 -0.06167265 -0.1138572 0.07116075 0.04269645 -0.16129771
0000a0 f9 00 e5 e8 e6 4c 06 dc d0 ee f7 0a 2f 00 e5 d1
       -0.03320835 0.0 -0.12808935 -0.1138572 -0.1233453 0.3605478 0.0284643 -0.1707858 -0.2277144 -0.0853929 -0.04269645 0.0474405 0.22297035 0.0 -0.12808935 -0.22297035
0000b0 20 ec d9 fd 0d f6 14 e4 1a 0d 27 f3 f3 03 f4 02
       0.1518096 -0.094881 -0.18501796 -0.01423215 0.06167265 -0.0474405 0.094881 -0.1328334 0.1233453 0.06167265 0.18501796 -0.06167265 -0.06167265 0.01423215 -0.0569286 0.0094881
0000c0 ea e7 ed 0d e3 f9 f8 f9 08 ec e5 02 fc 0a df 21
       -0.104369104 -0.118601255 -0.09013695 0.06167265 -0.13757746 -0.03320835 -0.0379524 -0.03320835 0.0379524 -0.094881 -0.12808935 0.0094881 -0.0189762 0.0474405 -0.15655366 0.15655366
0000d0 f1 f5 d0 09 e7 e6 03 09 17 01 10 07 f7 ef f0 f8
       -0.07116075 -0.052184552 -0.2277144 0.04269645 -0.118601255 -0.1233453 0.01423215 0.04269645 0.10911315 0.00474405 0.0759048 0.03320835 -0.04269645 -0.080648854 -0.0759048 -0.0379524
0000e0 e7 ec d8 09 e7 1c e9 f4 fb ec ec fe f4 0c e9 4a
       -0.118601255 -0.094881 -0.189762 0.04269645 -0.118601255 0.1328334 -0.10911315 -0.0569286 -0.02372025 -0.094881 -0.094881 -0.0094881 -0.0569286 0.0569286 -0.10911315 0.3510597
0000f0 ee f7 e1 fa e5 fa f3 0d fb f9 1a 0a ff f2 e7 1b
       -0.0853929 -0.04269645 -0.14706555 -0.0284643 -0.12808935 -0.0284643 -0.06167265 0.06167265 -0.02372025 -0.03320835 0.1233453 0.0474405 -0.00474405 -0.0664167 -0.118601255 0.12808935

torch.fx.graph_module.GraphModule.__new__.<locals>.GraphModuleImpl;5 i1 [128, 1600] scale=0.00296002 zero_point=0
000000 05 1d 0c 1d 0d 12 02 0a 10 0c 0d f6 0f 22 0b f8
       0.0148001 0.08584058 0.03552024 0.08584058 0.03848026 0.05328036 0.00592004 0.0296002 0.04736032 0.03552024 0.03848026 -0.0296002 0.0444003 0.10064068 0.032560218 -0.02368016
000010 f7 ff 01 f6 e4 fe 05 ef ef f8 f7 fd f3 fc 08 0f
       -0.02664018 -0.00296002 0.00296002 -0.0296002 -0.08288056 -0.00592004 0.0148001 -0.05032034 -0.05032034 -0.02368016 -0.02664018 -0.00888006 -0.03848026 -0.01184008 0.02368016 0.0444003
000020 22 0b 0f 0a 04 0c 05 fb fe fc fb 14 0e 11 0d f9
       0.10064068 0.032560218 0.0444003 0.0296002 0.01184008 0.03552024 0.0148001 -0.0148001 -0.00592004 -0.01184008 -0.0148001 0.0592004 0.04144028 0.05032034 0.03848026 -0.02072014
000030 fd e2 07 14 01 02 06 ff f8 f1 fd 02 f6 f1 ff 08
       -0.00888006 -0.0888006 0.02072014 0.0592004 0.00296002 0.00592004 0.01776012 -0.00296002 -0.02368016 -0.0444003 -0.00888006 0.00592004 -0.0296002 -0.0444003 -0.00296002 0.02368016
000040 06 0a 16 12 fd f3 fc 04 0d 08 fc 0c 00 ec e8 ee
       0.01776012 0.0296002 0.065120436 0.05328036 -0.00888006 -0.03848026 -0.01184008 0.01184008 0.03848026 0.02368016 -0.01184008 0.03552024 0.0 -0.0592004 -0.07104048 -0.05328036
000050 01 00 f2 fd 01 f3 f4 fd f5 e4 12 10 f8 f0 e2 09
       0.00296002 0.0 -0.04144028 -0.00888006 0.00296002 -0.03848026 -0.03552024 -0.00888006 -0.032560218 -0.08288056 0.05328036 0.04736032 -0.02368016 -0.04736032 -0.0888006 0.02664018
000060 07 f1 ef fe 09 06 03 01 f5 03 fa 04 fb fe 03 f6
       0.02072014 -0.0444003 -0.05032034 -0.00592004 0.02664018 0.01776012 0.00888006 0.00296002 -0.032560218 0.00888006 -0.01776012 0.01184008 -0.0148001 -0.00592004 0.00888006 -0.0296002
000070 fc fe 02 fd fc 08 05 f7 05 11 ff ff fb 02 02 08
       -0.01184008 -0.00592004 0.00592004 -0.00888006 -0.01184008 0.02368016 0.0148001 -0.02664018 0.0148001 0.05032034 -0.00296002 -0.00296002 -0.0148001 0.00592004 0.00592004 0.02368016
000080 fd fb 08 06 f9 f8 03 fc 01 ff fd 07 03 03 fa fd
       -0.00888006 -0.0148001 0.02368016 0.01776012 -0.02072014 -0.02368016 0.00888006 -0.01184008 0.00296002 -0.00296002 -0.00888006 0.02072014 0.00888006 0.00888006 -0.01776012 -0.00888006
000090 04 05 01 f8 fc 08 d7 cb d5 fa fe ef e9 1f 13 09
       0.01184008 0.0148001 0.00296002 -0.02368016 -0.01184008 0.02368016 -0.121360816 -0.15688106 -0.12728086 -0.01776012 -0.00592004 -0.05032034 -0.06808046 0.09176062 0.05624038 0.02664018
0000a0 f2 2a 1a 0c f8 ee f3 1e 16 17 2d 06 14 f0 e7 fe
       -0.04144028 0.12432084 0.07696052 0.03552024 -0.02368016 -0.05328036 -0.03848026 0.0888006 0.065120436 0.06808046 0.1332009 0.01776012 0.0592004 -0.04736032 -0.0740005 -0.00592004
0000b0 0a 0d 08 16 09 0d 0b 09 0b fb 03 01 05 19 ff 04
       0.0296002 0.03848026 0.02368016 0.065120436 0.02664018 0.03848026 0.032560218 0.02664018 0.032560218 -0.0148001 0.00888006 0.00296002 0.0148001 0.0740005 -0.00296002 0.01184008
0000c0 04 00 09 06 0d 07 0d e5 f8 e2 db fc 0a f1 ec f1
       0.01184008 0.0 0.02664018 0.01776012 0.03848026 0.02072014 0.03848026 -0.07992054 -0.02368016 -0.0888006 -0.10952074 -0.01184008 0.0296002 -0.0444003 -0.0592004 -0.0444003
0000d0 f0 f4 02 06 0b ff f7 ec ec 05 00 0f fa 07 fe f3
       -0.04736032 -0.03552024 0.00592004 0.01776012 0.032560218 -0.00296002 -0.02664018 -0.0592004 -0.0592004 0.0148001 0.0 0.0444003 -0.01776012 0.02072014 -0.00592004 -0.03848026
0000e0 0a 01 04 0b 09 06 06 09 fe fc 1b 0d fd 09 05 fe
       0.0296002 0.00296002 0.01184008 0.032560218 0.02664018 0.01776012 0.01776012 0.02664018 -0.00592004 -0.01184008 0.07992054 0.03848026 -0.00888006 0.02664018 0.0148001 -0.00592004
0000f0 01 f7 fe 10 0b 09 fc fc 08 f4 02 08 ff 04 0a 0a
       0.00296002 -0.02664018 -0.00592004 0.04736032 0.032560218 0.02664018 -0.01184008 -0.01184008 0.02368016 -0.03552024 0.00592004 0.02368016 -0.00296002 0.01184008 0.0296002 0.0296002

torch.fx.graph_module.GraphModule.__new__.<locals>.GraphModuleImpl;6 i1 [10, 128] scale=0.00202696 zero_point=0
000000 05 d5 0b a6 17 1c d3 36 e4 1a 14 0d f2 cf 3f e4
       0.0101348 -0.08715928 0.02229656 -0.18242641 0.046620082 0.05675488 -0.091213204 0.10945584 -0.05675488 0.05270096 0.0405392 0.02635048 -0.02837744 -0.09932104 0.12769848 -0.05675488
000010 e5 d5 d0 07 b5 3e 28 0b c4 16 bc 06 04 23 14 24
       -0.05472792 -0.08715928 -0.09729408 0.01418872 -0.152022 0.12567152 0.0810784 0.02229656 -0.1216176 0.04459312 -0.13783328 0.01216176 0.00810784 0.0709436 0.0405392 0.07297056
000020 1d db f2 1e ef be e0 1f 0f 24 f6 dc 28 e1 23 f7
       0.05878184 -0.07499752 -0.02837744 0.0608088 -0.03445832 -0.13377936 -0.06486272 0.06283576 0.0304044 0.07297056 -0.0202696 -0.07297056 0.0810784 -0.06283576 0.0709436 -0.01824264
000030 e2 0e e2 1b 2d e9 cc 15 14 09 23 e4 42 15 d2 e6
       -0.0608088 0.02837744 -0.0608088 0.05472792 0.091213204 -0.046620082 -0.10540192 0.04256616 0.0405392 0.01824264 0.0709436 -0.05675488 0.13377936 0.04256616 -0.093240164 -0.05270096
000040 a2 30 23 e2 38 f4 f8 0d fe 22 f0 d3 0b d6 12 ef
       -0.19053425 0.09729408 0.0709436 -0.0608088 0.11350976 -0.02432352 -0.01621568 0.02635048 -0.00405392 0.06891664 -0.03243136 -0.091213204 0.02229656 -0.08513232 0.03648528 -0.03445832
000050 c5 f5 2c b5 0c 2c ed a8 3a 2d d7 f9 15 dd a4 f1
       -0.11959064 -0.02229656 0.08918624 -0.152022 0.02432352 0.08918624 -0.03851224 -0.17837249 0.11756368 0.091213204 -0.08310536 -0.01418872 0.04256616 -0.0709436 -0.18648033 -0.0304044
000060 2e 10 cc 1f 16 12 eb 10 07 32 dc 0d d2 e2 d9 e6
       0.093240164 0.03243136 -0.10540192 0.06283576 0.04459312 0.03648528 -0.04256616 0.03243136 0.01418872 0.101348 -0.07297056 0.02635048 -0.093240164 -0.0608088 -0.07905144 -0.05270096
000070 44 dc e2 e0 e6 23 25 0a e1 d5 fc cf 07 e6 63 f6
       0.13783328 -0.07297056 -0.0608088 -0.06486272 -0.05270096 0.0709436 0.07499752 0.0202696 -0.06283576 -0.08715928 -0.00810784 -0.09932104 0.01418872 -0.05270096 0.20066904 -0.0202696
000080 d5 cf 2e 0c 37 bc 2b 26 0b fd 25 c6 0e c5 09 0e
       -0.08715928 -0.09932104 0.093240164 0.02432352 0.1114828 -0.13783328 0.08715928 0.07702448 0.02229656 -0.00608088 0.07499752 -0.11756368 0.02837744 -0.11959064 0.01824264 0.02837744
000090 15 e5 0d 3d 12 15 cf 01 b9 e1 04 e6 ea f5 16 1c
       0.04256616 -0.05472792 0.02635048 0.12364456 0.03648528 0.04256616 -0.09932104 0.00202696 -0.14391416 -0.06283576 0.00810784 -0.05270096 -0.04459312 -0.02229656 0.04459312 0.05675488
0000a0 e1 df 0a b9 2e 0d 09 f0 c0 34 1f 1b b9 09 0c f2
       -0.06283576 -0.06688968 0.0202696 -0.14391416 0.093240164 0.02635048 0.01824264 -0.03243136 -0.12972544 0.10540192 0.06283576 0.05472792 -0.14391416 0.01824264 0.02432352 -0.02837744
0000b0 18 0b 06 37 b2 03 25 0a c8 dd ff 07 2b 0d f0 16
       0.04864704 0.02229656 0.01216176 0.1114828 -0.15810288 0.00608088 0.07499752 0.0202696 -0.11350976 -0.0709436 -0.00202696 0.01418872 0.08715928 0.02635048 -0.03243136 0.04459312
0000c0 b7 c3 0c 09 2c ff c3 11 fa 1a e2 2c d4 ca 0a 28
       -0.14796808 -0.12364456 0.02432352 0.01824264 0.08918624 -0.00202696 -0.12364456 0.03445832 -0.01216176 0.05270096 -0.0608088 0.08918624 -0.08918624 -0.10945584 0.0202696 0.0810784
0000d0 2f b7 e2 2d 1b 21 39 1c 09 dd f0 2c f5 28 28 16
       0.095267124 -0.14796808 -0.0608088 0.091213204 0.05472792 0.06688968 0.11553672 0.05675488 0.01824264 -0.0709436 -0.03243136 0.08918624 -0.02229656 0.0810784 0.0810784 0.04459312
0000e0 d7 11 15 0d 15 91 0d ad e6 39 0f 1f 25 29 31 a6
       -0.08310536 0.03445832 0.04256616 0.02635048 0.04256616 -0.22499256 0.02635048 -0.16823769 -0.05270096 0.11553672 0.0304044 0.06283576 0.07499752 0.08310536 0.09932104 -0.18242641
0000f0 4d 00 1f e0 09 f3 08 ce 0b c5 cd 55 e1 24 23 0c
       0.15607592 0.0 0.06283576 -0.06486272 0.01824264 -0.02635048 0.01621568 -0.101348 0.02229656 -0.11959064 -0.10337496 0.1722916 -0.06283576 0.07297056 0.0709436 0.02432352
